model/model_dict2.pt (torch, 3363 bytes, 10 tensors)

rnn.weight_ih_l0 f4 [8, 3]
0	0x3e70391b	0.23459284
1	0xbef704f3	-0.48245963
2	0x3eacf012	0.3377691
3	0xbe2303f6	-0.1591948
4	0x3e3f3592	0.18672779
5	0xbfe15143	-1.7602924
6	0x3e3ac405	0.18238838
7	0x3ebf4973	0.37360725
8	0xc02757ff	-2.6147459
9	0x3e0d956b	0.1382653
10	0xbeb7ab22	-0.3587275
11	0x4023ddbc	2.5604086
12	0xbd8b7356	-0.06809108
13	0xbecff57f	-0.40616986
14	0xbffc2292	-1.969805
15	0x3d9536ca	0.07285841
16	0xbf0b35f1	-0.54379183
17	0xc041f4ae	-3.030559
18	0xbe34a1fc	-0.17639917
19	0xbe0d9881	-0.13827707
20	0xbf2cd82d	-0.6751736
21	0x3c9d4170	0.019196242
22	0xbe3a9b48	-0.18223298
23	0xc085db7c	-4.1830425

rnn.weight_hh_l0 f4 [8, 8]
0	0x3fa317f1	1.2741681
1	0xbf35223d	-0.7075537
2	0xbdb4be3b	-0.08825346
3	0xbe36e56c	-0.17860955
4	0x3f679b1f	0.9047107
5	0x3c4ce7ff	0.012506484
6	0xbe88fff4	-0.26757777
7	0xbee2ae88	-0.44273782
8	0xbf164916	-0.5870527
9	0x3f942e2b	1.1576589
10	0xbee2e864	-0.44317925
11	0xbebafa40	-0.3651905
12	0xbe350d1a	-0.17680779
13	0x3edeb8a2	0.4350024
14	0xbf1c210f	-0.60987943
15	0xbefa3c72	-0.4887424
16	0x3d1c7710	0.038199484
17	0xbe3f1322	-0.18659642
18	0x3f369fda	0.71337664
19	0xbec75c57	-0.38937637
20	0xbf2f2bae	-0.68426025
21	0x3f045795	0.5169614
22	0xbe5c467b	-0.21511261
23	0x3e1d0318	0.15333211
24	0xbddfd210	-0.10928738
25	0x3edd2fc3	0.43200502
26	0xbee8ec66	-0.45492858
27	0x3eb58df8	0.35459876
28	0x3ed71a63	0.4201232
29	0xbe45eb97	-0.19328152
30	0xbecc4892	-0.39899117
31	0xbf48f381	-0.7849656
32	0x3f0db5b2	0.5535537
33	0x3dfc7c63	0.123284124
34	0xbdc0ae5b	-0.09408256
35	0x3e2a37da	0.16622868
36	0x3f2e3d92	0.680627
37	0xbf02ab57	-0.51042694
38	0xbefbb5c4	-0.49162114
39	0x3e23af6b	0.15984885
40	0x3e5f824f	0.21827053
41	0xbde60db7	-0.11233085
42	0x3cbe7489	0.023248928
43	0x3c9acd07	0.018896593
44	0x3f135c21	0.5756245
45	0x3f52b25f	0.8230342
46	0xbd784903	-0.060616504
47	0x3f416228	0.755404
48	0xbf7b6bcf	-0.9821138
49	0x3e7d347f	0.24727057
50	0xbea6a1a9	-0.32545212
51	0xbe3c3a77	-0.18381678
52	0x3ea5cb48	0.32381654
53	0x3eef9578	0.46793723
54	0x3f944160	1.1582451
55	0x3eff491d	0.49860469
56	0xbee06564	-0.43827355
57	0x3e812cee	0.2522959
58	0x3ebf5e14	0.37376463
59	0xbe1106ea	-0.14162794
60	0xbe8399c6	-0.25703257
61	0xbd897ed3	-0.06713643
62	0x3c92c437	0.017915828
63	0x3df1d045	0.118073024

rnn.bias_ih_l0 f4 [8]
0	0xbee2da2e	-0.44307083
1	0x3edfe6e1	0.43730834
2	0xbde09c50	-0.10967314
3	0x3e676756	0.22598013
4	0xbf133e76	-0.5751718
5	0x3f24aa32	0.643222
6	0xbe5bca40	-0.21463871
7	0x3d6ad4ed	0.057331968

rnn.bias_hh_l0 f4 [8]
0	0xbe91d83b	-0.28485283
1	0x3e55cf74	0.20879918
2	0xbea64cfb	-0.32480606
3	0x3d8212f1	0.06351269
4	0x3d043662	0.032278426
5	0x3e8089c6	0.25105113
6	0xbe958106	-0.292
7	0xbe404e14	-0.18779784

rnn.weight_ih_l1 f4 [8, 8]
0	0xbe470535	-0.1943558
1	0xbba8a7e4	-0.0051469672
2	0xbe421128	-0.18951857
3	0x3ece502f	0.4029555
4	0xbef9ab27	-0.4876339
5	0xbeca369e	-0.39494795
6	0xbe8c45bf	-0.27396962
7	0x3d11e08e	0.035614543
8	0x3e2b62d1	0.16736914
9	0x3e1b7513	0.15181379
10	0x3e2c8dba	0.1685094
11	0x3c2fcb37	0.010729603
12	0xbc0f1964	-0.008734081
13	0x3c805c44	0.015668996
14	0x3e2f2dc7	0.17107306
15	0xbd34fbc3	-0.04418541
16	0x3d382932	0.044961162
17	0xbd787cc8	-0.060665876
18	0xbdee6ba9	-0.11641628
19	0x3e21b2ad	0.15790816
20	0x3d781e08	0.060575515
21	0xbee9d35e	-0.45669073
22	0x3dbfc9de	0.09364675
23	0x3de9db9a	0.11418839
24	0xbdf632ec	-0.12021431
25	0x3d303626	0.04302039
26	0x3db0fbcc	0.086417764
27	0x3d62a927	0.055337097
28	0xbd065750	-0.03279811
29	0xbd0f92f8	-0.03505227
30	0xbd40d203	-0.047075283
31	0xbd702ddd	-0.05863749
32	0x3d5ea6c4	0.05435826
33	0x3d8cbe66	0.06872253
34	0xbd2e62f6	-0.042574845
35	0x3b3f2891	0.0029168467
36	0xbd110d03	-0.0354128
37	0x3d4f0d3a	0.050549723
38	0xbd100a66	-0.035166167
39	0xbc96e942	-0.018421773
40	0x3d756c64	0.059917822
41	0xbe6a8dda	-0.22905675
42	0xbe785aca	-0.24253383
43	0x3cf6df31	0.030135723
44	0xbe7b2e20	-0.24529314
45	0xbeb72c62	-0.3577605
46	0x3e312697	0.17299877
47	0xbee4886e	-0.44635338
48	0xbe419c00	-0.18907166
49	0x3e33e678	0.17568386
50	0x3da9e267	0.08295136
51	0x3c44cd29	0.012011805
52	0xbe1fd840	-0.15609837
53	0xbe22a035	-0.15881427
54	0xbe8a3f91	-0.27001622
55	0xbe291b55	-0.16514333
56	0x3a0c4c18	0.0005351915
57	0xbd32e4a3	-0.043675076
58	0xbac93e8f	-0.0015353727
59	0xbb6f8cea	-0.0036552497
60	0xbcf42e0e	-0.029807117
61	0x3dc2f0ee	0.0951861
62	0xbc3803b4	-0.011231352
63	0xbad3a86f	-0.001614822

rnn.weight_hh_l1 f4 [8, 8]
0	0x3f932879	1.1496726
1	0xbe8de7e3	-0.27715978
2	0xbf699aa0	-0.91251564
3	0x3c929da2	0.01789743
4	0x3f138039	0.5761753
5	0x3e8235dc	0.25431716
6	0x3f46750a	0.7752234
7	0x3ed92dec	0.42417848
8	0x3d9d9640	0.076946735
9	0xbf1d09a2	-0.61342824
10	0xbea2e447	-0.31814787
11	0xbe39a1d5	-0.1812814
12	0x3c190d37	0.00934153
13	0x3c0d7538	0.008633904
14	0xbdfc9a44	-0.12334111
15	0x3d7eaa07	0.06217387
16	0xbd167294	-0.036730364
17	0x3dcbd76c	0.09953198
18	0xbf101e2f	-0.56296057
19	0x3e24de3c	0.161004
20	0x3ed7d91a	0.42157823
21	0x3d8d023b	0.06885191
22	0x3e91a23b	0.28444085
23	0x3ec995b0	0.39372015
24	0x3caf4d36	0.021399122
25	0x3e15f41e	0.14643905
26	0xbe7f4bd5	-0.24931271
27	0xbf4978ca	-0.78699934
28	0xbda36f60	-0.079802275
29	0x3d69b809	0.057060275
30	0xbd692ebb	-0.05692933
31	0xbe02a0d1	-0.12756659
32	0xba1d058e	-0.00059899024
33	0xbd6fb2ee	-0.05852025
34	0x3c52be7e	0.0128628
35	0x3d58aa58	0.052896827
36	0xbf3aaf91	-0.72924143
37	0x3be99fff	0.0071296687
38	0x3dc197ff	0.09452819
39	0xbe135153	-0.14386491
40	0x3cdb94a3	0.026804274
41	0x3aef6442	0.0018264132
42	0xbe276e42	-0.16350654
43	0xbed742c0	-0.42043114
44	0xbe974094	-0.29541457
45	0xbf6f9843	-0.9359171
46	0x3e56f827	0.209931
47	0x3d948eac	0.07253775
48	0xbb6deaaa	-0.00363032
49	0x3ec63d3a	0.38718587
50	0xbea6d89f	-0.32587144
51	0x3db10b60	0.08644748
52	0xbf20d594	-0.62825894
53	0xbf155b5d	-0.58342534
54	0xbe7b2491	-0.24525668
55	0xbe695b01	-0.22788621
56	0xbc5517ea	-0.01300619
57	0x3d7aba0b	0.06121258
58	0xbd16525d	-0.03669964
59	0xbd721cea	-0.059109606
60	0x3e01585b	0.12631361
61	0xbdb95597	-0.09049528
62	0x3e120780	0.14260674
63	0xbf4c6c77	-0.79853004

rnn.bias_ih_l1 f4 [8]
0	0xbf5c87cd	-0.86144716
1	0x3e68b243	0.22724251
2	0x3e01f017	0.12689243
3	0x3c9a44c9	0.018831627
4	0xbdd9fc35	-0.10643808
5	0x3eeb3516	0.4593894
6	0x3e990284	0.29884732
7	0xbdb1a60d	-0.0867425

rnn.bias_hh_l1 f4 [8]
0	0xbe889cfc	-0.2668227
1	0xbdc216a5	-0.09476975
2	0x3e5fbeb3	0.2185009
3	0x3d370146	0.04467895
4	0x3d2aa57f	0.041661736
5	0xbc19cb15	-0.009386797
6	0xbde58634	-0.11207238
7	0x3d868f6f	0.065703265

fc.weight f4 [2, 64]
0	0xbc0b2844	-0.008493487
1	0x3d072305	0.03299238
2	0x3d5ed56d	0.054402757
3	0xbd4792ff	-0.04872417
4	0xbd1f42eb	-0.038882177
5	0x3e0cf094	0.13763648
6	0xbd25f74c	-0.040519044
7	0xbd240acc	-0.04004936
8	0x3e2e9013	0.17047147
9	0xbd1f8532	-0.038945384
10	0x3ca2b8a2	0.01986343
11	0xbd638d5a	-0.055554725
12	0x3c950cff	0.018194674
13	0x3cbae9dc	0.022816591
14	0x3cd84167	0.026398374
15	0xbc9976fb	-0.018733492
16	0x3e7c84c5	0.24660023
17	0xbbea66ff	-0.0071533914
18	0xbd859e5b	-0.065243445
19	0x3c2871f6	0.010281077
20	0x3d29275a	0.041297294
21	0xbcb28bce	-0.02179518
22	0x3d76f925	0.060296196
23	0x3d4d6272	0.050142713
24	0x3e4ceb63	0.20011668
25	0x3d168ddd	0.036756385
26	0xbd928368	-0.0715397
27	0x3d23cd86	0.039990924
28	0xbd20645b	-0.039158206
29	0xbd85460e	-0.065075025
30	0xbcaf83f4	-0.021425225
31	0x3d701acf	0.058619317
32	0x3e8170e4	0.2528144
33	0xbc5f1196	-0.013615033
34	0x3c57b129	0.013164797
35	0x3cc4c453	0.024019396
36	0xbc98f149	-0.018669741
37	0xbda6ea15	-0.08150116
38	0xbd918ce0	-0.07106948
39	0x3caac003	0.020843511
40	0x3df25922	0.11833407
41	0xbcc5fdd9	-0.024168896
42	0x3d19e7d7	0.037574615
43	0x3cd4a6ef	0.025958506
44	0x3a0de636	0.0005413027
45	0xbda8708c	-0.082245916
46	0xbd429835	-0.047508437
47	0xb9a49317	-0.00031390108
48	0x3e5dfccb	0.21678464
49	0x3c8d8323	0.017274445
50	0x3cf12038	0.029434308
51	0xbda165d2	-0.07880749
52	0xbd11b571	-0.035573427
53	0xbd2083cd	-0.039188195
54	0x3b30f3bb	0.0027000743
55	0xbcf6180c	-0.030040763
56	0x3e752674	0.2394045
57	0x3d3ff086	0.04686024
58	0x3cc54067	0.024078561
59	0xbd9a22c5	-0.07526163
60	0xbce55852	-0.027996216
61	0xbd4006bd	-0.046881426
62	0x3d9eef74	0.07760516
63	0xbd1e52c0	-0.038653135
64	0xbda3d6ff	-0.079999916
65	0x3c9618e1	0.01832241
66	0xbd84b7f8	-0.06480402
67	0xbc9fd681	-0.019511463
68	0xbc88be9e	-0.016692456
69	0xbd5e5667	-0.05428162
70	0xbc822a51	-0.015889319
71	0x3c9892d5	0.018624702
72	0x3dabf5d6	0.08396499
73	0xbdfb201d	-0.122619845
74	0x3d1a85d9	0.037725303
75	0x3d3141fd	0.043275822
76	0xbd8e0490	-0.06934464
77	0xbd9f6472	-0.0778283
78	0x3ca9c391	0.020723136
79	0xbd46a4eb	-0.04849712
80	0x3db9d162	0.0907314
81	0xbd976ae8	-0.073934376
82	0x3d2c97fd	0.042137135
83	0xbdba218e	-0.09088431
84	0xbd7b8265	-0.06140365
85	0x3d09634b	0.03354196
86	0xbd8bb50c	-0.06821641
87	0xbcc0e54c	-0.023546837
88	0x3d8b030b	0.0678769
89	0x3d438cd0	0.04774171
90	0x3c5f718a	0.01363791
91	0xbe3e0c0b	-0.18559282
92	0x3c419240	0.011814654
93	0x3daf7263	0.085667394
94	0xbda9f971	-0.0829953
95	0xbcae8fa1	-0.021308722
96	0x3c196ae8	0.009363867
97	0x3dcf36ee	0.10117899
98	0x3d305196	0.043046556
99	0x3d2db158	0.042405456
100	0xbb843a1d	-0.004035248
101	0x3d07ce04	0.033155456
102	0xbc7d7d01	-0.015471698
103	0xbd2ba20b	-0.041902583
104	0xbdfe3524	-0.124124795
105	0x3d153cdd	0.036434997
106	0x3cdc4845	0.02688993
107	0x3e248962	0.16068032
108	0x3d2cff62	0.04223574
109	0x3d2bf43e	0.041980974
110	0xbd5a028d	-0.05322509
111	0x3d1075b0	0.035268486
112	0x3d57ab7c	0.052653775
113	0x3cdff5b5	0.027338842
114	0x3db67c5c	0.089104384
115	0x3dfeecbb	0.124474965
116	0x3dfe85ca	0.12427862
117	0x3e90a530	0.28251028
118	0x3c9d6663	0.01921386
119	0x3cde3724	0.027125902
120	0x3d427a40	0.047479868
121	0xbd9680a0	-0.07348752
122	0x3dacac68	0.084313214
123	0x3c476d34	0.012172032
124	0xbd042939	-0.032265875
125	0x3e9cf355	0.30654398
126	0x3e09d93c	0.13461775
127	0x3b232283	0.0024892397

fc.bias f4 [2]
0	0xbe1f4884	-0.15555006
1	0x3e15f56a	0.146444
