model/train_sparse_feedback_dict_batch100_epoch_30.pt (torch, 4899 bytes, 10 tensors)

rnn.weight_ih_l0 f4 [8, 3]
000000 90 48 66 3d 46 65 78 3e b7 30 20 bf 8e 90 8e 3c
       0.056221545 0.24257383 -0.6257433 0.017402913
000010 20 a9 68 3e a7 aa f4 be a3 01 35 3c 44 73 ce be
       0.22720766 -0.47786447 0.0110477535 -0.40322316
000020 15 2b 01 3f 1e f8 a9 3a cb ab 9a 3e e0 ee 6d be
       0.5045636 0.0012967621 0.30209193 -0.23235655
000030 30 f8 24 3d 25 63 28 be 75 4c f6 3c 03 58 a0 bc
       0.040275753 -0.1644407 0.030065754 -0.019573217
000040 09 77 cc 3e 7b 46 f5 3e 9a 64 fc 3c 40 57 dd 3e
       0.39934567 0.47905335 0.03080969 0.4323063
000050 47 49 a0 3d ed 31 b9 3c a1 df 68 3e 9e a5 f1 3e
       0.078264765 0.022606814 0.22741558 0.47196668

rnn.weight_hh_l0 f4 [8, 8]
000000 5a 17 55 3d e3 9c 3f bc e9 35 7e be 58 2f 72 be
       0.052024223 -0.01169512 -0.24825253 -0.23650873
000010 d5 51 31 be 6e f3 a3 3e 60 77 b7 3e 62 48 11 bd
       -0.17316373 0.3202166 0.35833263 -0.03546942
000020 fc 25 17 be 41 fc 5d be d3 e3 1f 3e 8a 8c 3d 3e
       -0.14760584 -0.21678258 0.15614252 0.18510643
000030 9d 2b 9e bd ac 8d 6d 3e 2c 1e 9c 3d 71 65 2d be
       -0.07723162 0.23198575 0.07622942 -0.16933228
000040 a7 0b e9 3d 9a bc d6 bc 9c e6 7f 3e ea db 39 be
       0.11379176 -0.02621298 0.24990314 -0.18150297
000050 f5 92 62 bd b6 61 56 be 13 f7 36 3d 08 9a cc be
       -0.05531593 -0.20935711 0.044669222 -0.39961267
000060 27 67 7c be 5d 55 be 3a 12 4a 72 be df e8 79 be
       -0.24648724 0.001452129 -0.23661068 -0.2440524
000070 13 18 a1 bd 02 d9 b7 be 85 ce c8 bd 81 6b 72 be
       -0.0786592 -0.3590775 -0.098050155 -0.23673822
000080 2d f6 43 3e 8c 9f 7a 3e 7b 89 a9 be f9 31 8f be
       0.19136877 0.24474925 -0.33112702 -0.27967814
000090 14 3e 67 be c1 8c 1d be c2 5b 65 3e bf 7a 7d be
       -0.22582275 -0.15385725 0.22398284 -0.24753855
0000a0 17 d0 5b bd 06 b1 1a bd 99 da 0a bd 13 be 02 3e
       -0.053665247 -0.03776648 -0.033899877 0.1276782
0000b0 13 eb 91 3e 53 3f d7 bd 3c e1 f9 bc bd 36 9a be
       0.2849966 -0.10510125 -0.030502908 -0.30119887
0000c0 cc 87 71 3d 18 69 7c 3e e2 3f 0e be 10 b7 78 be
       0.058967397 0.24649465 -0.13891557 -0.24288583
0000d0 4c 96 43 be 7d 9a 36 3e 34 f1 0c 3e 3e 3c 7b be
       -0.19100302 0.1783237 0.13763887 -0.245347
0000e0 a8 25 76 3e 28 28 1d be ca 2d 15 3e b6 b0 73 3e
       0.24037802 -0.1534735 0.14568248 0.23797879
0000f0 24 c1 fe 3c c3 be 3e bd 61 67 07 3b c1 88 c4 be
       0.031097956 -0.046568643 0.0020660984 -0.38385585

rnn.bias_ih_l0 f4 [8]
000000 d2 8a 5a be d7 3f cf 3e 1c e6 95 be 3f 8e cf bd
       -0.21342018 0.40478393 -0.29277122 -0.10134553
000010 1d 9d 48 3e 58 d0 a5 bd d0 f8 1d be 64 7f c5 bd
       0.19591184 -0.08096379 -0.15426946 -0.096434385

rnn.bias_hh_l0 f4 [8]
000000 6f ff 97 be dd 0c 16 be 43 62 a0 be ec 91 b6 bd
       -0.29687068 -0.14653344 -0.31324968 -0.08914551
000010 17 c8 a7 3d c3 94 83 3e da 59 a4 3d 25 18 97 3e
       0.08192461 0.25699434 0.0802495 0.29510608

rnn.weight_ih_l1 f4 [8, 8]
000000 9b 63 1b be 43 72 2f be db 05 b3 bd 6c 94 c7 bd
       -0.15174715 -0.17133431 -0.08741351 -0.09745106
000010 5b 79 36 3e a4 c9 c5 3d 68 88 1d 3d ca 61 51 be
       0.17819731 0.096576005 0.038460165 -0.2044746
000020 c1 05 ab bd b2 65 16 3d f9 bd 39 be ee 11 59 be
       -0.08350707 0.036718078 -0.18138875 -0.21198246
000030 88 30 28 3d 7b c6 52 3e 0d 46 85 be 0c 54 7d 3e
       0.041061908 0.20583527 -0.26030007 0.24739093
000040 6f 5b 86 bd b6 8a 23 bd 88 0b 81 be 01 a9 41 3e
       -0.06560408 -0.039927207 -0.2520411 0.18912126
000050 e1 d7 1f 3e ec de dc 3e df 99 bd 3e 36 d4 32 bd
       0.15609695 0.43138826 0.37031457 -0.04365941
000060 a5 54 02 3e fc d1 50 3d a7 c5 b8 be 4e 6b 69 3d
       0.12727602 0.050981507 -0.36088297 0.0569871
000070 b6 85 1c 3e 0e 83 d9 bd 5f c0 cb bb 46 0c 88 be
       0.15285382 -0.106207 -0.006218001 -0.26571864
000080 af 78 32 3d c3 46 34 be b6 4a b2 3d 92 20 96 3e
       0.043572124 -0.17605118 0.08705656 0.29321724
000090 a6 08 6b 3d 5f 5d af 3e 10 74 90 3e 11 54 b4 3d
       0.057381295 0.34250924 0.2821355 0.08805097
0000a0 55 c9 06 3d 97 ef be bd b8 61 94 bd d6 90 20 3c
       0.03290685 -0.09323042 -0.07245201 0.009800157
0000b0 01 7b 3a 3e a5 3d 94 be 2f a9 f1 bd 3c c4 c3 be
       0.18210985 -0.2895328 -0.11799847 -0.38235652
0000c0 7a 90 53 bd a1 88 05 3e 2d 35 cd 3e 25 29 01 3e
       -0.051651455 0.13040401 0.40079632 0.12613352
0000d0 f3 cf e8 bd 93 eb 2d 3e 40 d4 af bd 08 93 b0 3d
       -0.11367788 0.16984396 -0.08585405 0.08621794
0000e0 34 81 13 3c d9 d0 b8 3c be 50 0a 3e f3 50 89 3d
       0.009002972 0.022560524 0.13507363 0.06704893
0000f0 cf 2e f8 3d 11 39 1c 3e 20 5c 74 bd 0e 27 45 be
       0.12118303 0.15256144 -0.05965817 -0.1925318

rnn.weight_hh_l1 f4 [8, 8]
000000 d8 f9 a1 be 2b 9a 83 3e c6 c3 5f bd bd e6 01 bd
       -0.31635928 0.25703558 -0.054630063 -0.03171419
000010 0d 21 93 3d 05 d9 34 3c a7 57 f0 bd b2 90 07 be
       0.07184038 0.01103807 -0.11735468 -0.1323879
000020 17 e7 19 bd b8 4d 40 3e 92 8a 1f be 2b 65 70 3e
       -0.0375739 0.18779647 -0.15580204 0.23476093
000030 d4 66 b4 bd 93 68 7f be 71 30 50 3d 07 8e ef 3d
       -0.088086754 -0.24942236 0.050827447 0.116970114
000040 13 c9 fb bc 46 3a 7a 3e f5 4d d3 3d 48 cf aa be
       -0.030735528 0.24436292 0.103176035 -0.33361268
000050 88 71 3f bc a4 49 88 be 66 53 3e 3e 12 1b 74 be
       -0.011684783 -0.26618683 0.18586501 -0.23838452
000060 13 db a7 be ce fa 3e be 54 bf 95 be a0 dd f4 3d
       -0.32784328 -0.18650362 -0.29247534 0.11956334
000070 45 f8 a9 3d 30 ed 41 3e e9 3f 5a be 9c 73 05 3e
       0.08299307 0.18938136 -0.21313442 0.13032383
000080 24 32 84 3e 12 87 3f 3e 0b e8 8f be ec 7d d9 3d
       0.25819504 0.18703869 -0.28106722 0.10619721
000090 3c 4b aa bc f5 70 a7 3d 3c 75 72 bd 9b a7 58 3e
       -0.020787828 0.08175842 -0.059193835 0.21157686
0000a0 b2 4f 67 3e b0 e6 57 3d 69 4e ff 3d dc e6 da be
       0.22588995 0.052710235 0.124661274 -0.42754257
0000b0 7b b4 74 3e db 92 c1 3d e0 8e 86 bc 8f bc b9 be
       0.23896973 0.094518386 -0.01642555 -0.3627667
0000c0 24 d3 a5 3d 31 6e b2 3e da 44 71 be 4b 60 8d 3e
       0.080969125 0.34849694 -0.23561421 0.27612528
0000d0 75 77 b8 bd 0c cd 13 3e 8e 9b 89 be f6 0a a0 3e
       -0.090071596 0.14433688 -0.2687649 0.31258363
0000e0 1e 15 54 be 11 ae ac 3d dc 66 e2 3d 83 4b db 3b
       -0.2071118 0.08431638 0.11054775 0.0066923513
0000f0 c3 87 f6 3d 22 a4 89 3e 51 1c 93 3b 69 70 da 3c
       0.12037613 0.26883036 0.0044894596 0.02666493

rnn.bias_ih_l1 f4 [8]
000000 0e af b8 be 32 5a 00 3e e4 d8 cd 3d fe 95 56 be
       -0.36071056 0.12534407 0.10051134 -0.20955655
000010 0c 60 aa 3e 84 78 4a be 1c bc 97 be b7 8b d4 3b
       0.33276403 -0.19772536 -0.29635704 0.006486382

rnn.bias_hh_l1 f4 [8]
000000 0e 8a 20 3e e7 39 9b be c6 a7 89 3e 01 62 8d 3e
       0.15677664 -0.30317613 0.26885813 0.27613834
000010 fa 03 48 3d 90 7c 80 bd 6f a3 82 3e 7a a4 ae bd
       0.048831917 -0.062737584 0.25515315 -0.08527465

fc.weight f4 [2, 256]
000000 7e d8 c0 3d a7 b2 eb bc 0f 94 8e 3a 16 6f 2e ba
       0.094162926 -0.028771712 0.0010877865 -0.00066541263
000010 1b 3b c6 3c 6b 52 72 bd cc a9 5e 3c 54 d2 03 3d
       0.024198106 -0.05916063 0.013590287 0.032183006
000020 32 91 ff 3b 10 e0 e2 3c 04 f4 41 bc fd df 02 bd
       0.007799291 0.027694732 -0.011837963 -0.031951893
000030 29 a5 91 39 a9 17 ae bb ac 27 41 bd 43 ab f1 bc
       0.0002777961 -0.005312879 -0.047156975 -0.02950061
000040 b0 5f 02 3c 1c da 50 bc 7c 51 92 bc fe 4c 97 bd
       0.007957384 -0.012747314 -0.01786112 -0.07387732
000050 d2 c6 1d 3d fd dd 01 bd 61 f1 37 bd 94 27 10 3c
       0.038519688 -0.031705845 -0.04490793 0.008798499
000060 a8 82 72 bc 7f 0e 66 bc c1 d9 11 bc 04 a2 08 3c
       -0.014801659 -0.014041542 -0.008902014 0.008339409
000070 d3 cc 81 bc f6 c2 41 bc 3f f5 75 3c 18 aa 33 3d
       -0.015844738 -0.0118262675 0.0150120845 0.043863386
000080 a9 26 9a 3b bc 44 c0 bb a7 9a 07 3d 1c 7f 88 bd
       0.0047043157 -0.005867569 0.033106472 -0.06664869
000090 5a 6d 28 39 66 bc f4 3c 87 f3 04 bd f1 9c 08 3d
       0.00016062465 0.029874992 -0.03245881 0.033352796
0000a0 09 50 29 3d aa fe 92 bc 0d 3a a7 3c e8 44 d1 bd
       0.041336093 -0.017943699 0.020413423 -0.10218221
0000b0 34 88 04 3d f7 a2 b5 bc 45 06 8d bb 6b 9e 09 bd
       0.032356456 -0.022172434 -0.004303726 -0.033598345
0000c0 86 02 60 3d 4c 95 4e bd b8 7a 25 bb 7e 0f 50 3c
       0.054689907 -0.05043535 -0.0025250148 0.012699006
0000d0 ec 15 b9 ba 70 c4 00 bd 2d f2 8f 3c c9 d2 aa bc
       -0.0014120913 -0.031437337 0.017571533 -0.020852463
0000e0 a1 c0 02 bd b1 fa ca 3c b0 7e 0f 3c 0c 05 48 bd
       -0.031921986 0.024777742 0.008758232 -0.048832938
0000f0 76 36 e5 3c a3 ab 4a 3c 41 85 00 bd 6e 78 eb bb
       0.02798007 0.012370023 -0.03137708 -0.007185987
000100 f4 d2 64 3c b5 30 39 bd a7 9c 4b bb 53 0e 1c bd
       0.013966311 -0.045212466 -0.0031068714 -0.0380996
000110 3c 73 ae bb 59 61 d0 3c f1 75 88 3b 1b 98 09 3d
       -0.0053237956 0.025437044 0.0041644503 0.033592325
000120 d4 e0 b7 bc 76 a6 81 bc 49 ab b9 3c e3 53 56 bd
       -0.022446074 -0.015826445 0.022664683 -0.052326094
000130 8c c5 78 bb 20 40 25 3c d3 33 2f bd 4c 7f 58 3c
       -0.0037959544 0.010086089 -0.042774033 0.013213944
000140 11 5a 61 bc f5 d4 25 bd 05 42 33 3d d2 0a aa bd
       -0.013754384 -0.040486295 0.043764133 -0.08302845
000150 81 3f b5 bb 6b 15 ce 3c 15 70 17 3c b3 47 28 3d
       -0.005531252 0.025156697 0.009243031 0.041084003
000160 f2 3f 3c bb 75 98 17 3c 04 34 e6 3c a7 3e 97 bc
       -0.0028724638 0.009252657 0.028100975 -0.018462492
000170 af ec fc 3c e6 b2 13 3d 3f 82 89 3c a2 86 ee bc
       0.030874578 0.036059283 0.016785739 -0.029116932
000180 26 ca 3a 3c 07 15 3f bd 21 f3 b6 3c d4 c6 89 bd
       0.011400735 -0.046650913 0.02233273 -0.067273766
000190 e9 8f 04 3c 43 a4 b1 bb 42 4c 12 3c c2 83 08 bd
       0.0080909515 -0.005421193 0.008929314 -0.03332878
0001a0 12 54 9a 3b 27 13 a7 bb 4e f0 0c 3d e7 b1 cd bc
       0.004709729 -0.0050987187 0.03440886 -0.025109245
0001b0 27 30 b7 3c 22 81 bb 3c 41 37 0a 3d 65 e6 1d bb
       0.022361828 0.022888724 0.0337441 -0.0024093625
0001c0 44 68 c2 3c d8 c5 14 bd 85 da 86 3c 8f db 10 bd
       0.023731358 -0.03632149 0.01646162 -0.035365637
0001d0 83 53 9c ba a9 1b 79 bc f5 d3 5f 3c df 06 f7 bc
       -0.0011926744 -0.015204349 0.013661374 -0.030154644
0001e0 06 8c 22 3d 6a 72 00 3d 89 35 96 3b 61 60 85 bd
       0.039684318 0.031359114 0.0045840186 -0.065125234
0001f0 14 da a6 3c 42 67 de 3b 1c 26 43 bc 2b 16 c8 3b
       0.02036766 0.0067872116 -0.011910941 0.0061061583
000200 02 7d f9 ba 2e e3 dd bc 70 80 bc 3b a1 df 22 bd
       -0.0019034448 -0.027085867 0.0057526156 -0.03976405
000210 59 91 05 bc 26 04 8b bd 15 d7 2b bd f6 44 38 3d
       -0.008152329 -0.067879006 -0.041953165 0.04498764
000220 ef 9d 2c 3c 4f 7b bc 3c 70 7a ca 3c 2c 0f be bb
       0.010535701 0.023008017 0.024716586 -0.0058001485
000230 22 5f a5 bb 81 47 22 3c b0 17 2d 3d 8c 92 b1 b9
       -0.005046741 0.009904743 0.04225892 -0.00033869257
000240 12 65 bb bb 3b ac 9e bc b7 2b ad bc 3e 8a 67 bb
       -0.0057188356 -0.019369235 -0.021139009 -0.0035330201
000250 cf da 59 bc 04 f0 5d bc ae 64 1b bd 53 78 7e bb
       -0.013296797 -0.013545994 -0.037937813 -0.0038829043
000260 02 74 dd bc f6 d6 ad 3c c4 3f 1d 3d 7f ea 8c bd
       -0.027032856 0.021220665 0.03839089 -0.06880664
000270 40 dd d0 3b 34 06 9c 3c 4e 95 bf bb 0b b5 88 3b
       0.0063740313 0.019045927 -0.005846656 0.0041719726
000280 70 b2 2a 3c 82 22 fa bb f1 14 f6 3c 42 d3 ef bb
       0.010418519 -0.007633508 0.030039283 -0.007318885
000290 0d 9d 13 bd 12 b6 ba bc 49 36 3b 3d 38 d0 97 ba
       -0.036038447 -0.022791896 0.045706067 -0.001158244
0002a0 2e 39 1e bc 1b 69 19 3d 48 10 d0 bc 19 eb d3 3c
       -0.009657187 0.037453752 -0.025398389 0.02586894
0002b0 cc 30 0d 3c 6d 4d 56 bc ee be c8 bb 9f 18 6a 3c
       0.008617591 -0.013079983 -0.006126276 0.014288097
0002c0 31 9e 9f bc 7a e9 59 3c 9d f0 bb 3c 9f 81 7d bc
       -0.019484611 0.013300294 0.022941882 -0.015472799
0002d0 55 d7 7b bc 48 a3 1e 3d 2d db 0d 3b 85 82 02 bc
       -0.015371163 0.038729936 0.0021645532 -0.007965689
0002e0 07 a0 3b bd e2 cc 0d 3d 2d 6b 85 bc d4 f4 4e 3d
       -0.04580691 0.03461922 -0.016286457 0.050526455
0002f0 d2 fd 3c bc cd 47 e6 bb 2e 04 1e 3c db 6d 86 bc
       -0.011535125 -0.0070276023 0.009644551 -0.016409805
000300 63 f1 72 3b 26 72 ad bc dd c1 9c 3c 21 f6 b4 bb
       0.0037070147 -0.021172594 0.01913541 -0.005522505
000310 a2 88 a9 bc 88 6e 02 3d 6f ec e8 3c bb 0a d2 bb
       -0.020695034 0.031843692 0.028433053 -0.0064099706
000320 5e d5 a4 3c ea b0 0b 3c 1d 15 e5 bc 33 f3 71 3d
       0.020121273 0.008526066 -0.02796417 0.059069823
000330 c2 78 fe bc 3f 68 d6 bc 12 8d b8 3c 7b 2a fe 3c
       -0.031063441 -0.026172755 0.022528205 0.031026116
000340 a2 99 f5 3c 3e f0 02 bc 96 90 fc bb 84 0d aa 3c
       0.029980484 -0.0079918485 -0.0077076657 0.020758398
000350 97 bf 08 bc 1d b1 ce 3c 2c b2 e3 bc 8e 55 31 3d
       -0.00834646 0.025230939 -0.02779492 0.043294482
000360 61 f7 85 bc b8 32 15 bb f8 f6 35 bd 41 d6 53 3d
       -0.016353311 -0.0022765826 -0.04442498 0.051718
000370 af f4 28 bb d7 b6 88 3c 2a 94 93 bc ab 7e 17 bc
       -0.0025780608 0.016688747 -0.018014986 -0.009246509
000380 ae fe 0c bd 2f ab 4c 3c b9 f4 60 3c 7e 26 a3 3d
       -0.03442257 0.012491985 0.013730221 0.07966326
000390 52 ca 63 bd 74 e5 1d 3d 18 b3 27 3d ad 28 02 bc
       -0.05561287 0.0385489 0.04094228 -0.007944268
0003a0 f4 ea 36 bd d2 5f b3 3c ea 34 2b bd fd 0d 50 3c
       -0.044657663 0.021896277 -0.04179851 0.012698648
0003b0 4d 64 87 3c c3 82 3e 3d e3 c5 df bb 91 a5 22 3d
       0.01652732 0.046511423 -0.00682901 0.039708678
0003c0 b3 82 38 3c 3b 95 96 bc e5 f4 4e 3b e2 7b db 3d
       0.01126163 -0.018381706 0.0031579074 0.10716988
0003d0 55 1e 91 bc 8c 24 26 3d e4 86 8e 3d 6f b4 38 3d
       -0.017714659 0.040562198 0.06959322 0.04509395
0003e0 de 0b 63 3c 1d 91 dd bc de f8 3f bd 44 47 9b 3c
       0.01385781 -0.027046734 -0.046868198 0.01895488
0003f0 99 7b a7 bb 31 e6 82 3d 7b 53 17 bc 4e 9a fe bc
       -0.0051111695 0.06391562 -0.009236212 -0.031079438

fc.bias f4 [2]
000000 57 eb e7 3c 74 90 f0 3c
       0.028310461 0.029365756
