model/train_sparse_feedback_dict_batch250_epoch_300_loss12.pt (torch, 4899 bytes, 10 tensors)

rnn.weight_ih_l0 f4 [8, 3]
0	0x3e0cc9b4	0.13748819
1	0xbe06253a	-0.13100138
2	0x3eeb038e	0.4590115
3	0xbd03dca0	-0.032192826
4	0x3f0e5b33	0.5560791
5	0xbf461081	-0.7736893
6	0x3cd0ae82	0.025473837
7	0xbd26f29d	-0.040758718
8	0xbe6ee980	-0.2333126
9	0xbd9557a3	-0.07292106
10	0xbe8aca39	-0.2710741
11	0xbdbacc84	-0.091210395
12	0x3c9c03f5	0.019044856
13	0xbf18e474	-0.5972359
14	0xbd9a4248	-0.075321734
15	0xbd91b017	-0.071136646
16	0xbec8dcf0	-0.39231062
17	0x3f04228e	0.51615226
18	0xbcc0d5c8	-0.023539439
19	0xbf035af7	-0.51310676
20	0x3eaaddb2	0.33372265
21	0x3ccddcad	0.02512964
22	0x3ee28d10	0.44248247
23	0x3f7d9173	0.9905006

rnn.weight_hh_l0 f4 [8, 8]
0	0xbf2c3e26	-0.6728233
1	0xbe3451b2	-0.1760929
2	0xbf09321b	-0.5359208
3	0xbceaec25	-0.028677056
4	0xbe2afd9a	-0.16698304
5	0x3e4adeb6	0.1981152
6	0xbedc527a	-0.43031675
7	0xbdd4d5f4	-0.10392371
8	0x3ec24a48	0.37947297
9	0x3d8450ec	0.06460747
10	0xbcc72827	-0.024311138
11	0x3e6fc854	0.23416263
12	0xbe4928da	-0.1964449
13	0x3e11b474	0.14228994
14	0xbdc01f71	-0.09380997
15	0x3f0a363c	0.53989005
16	0xbde796af	-0.113080375
17	0x3dc65ceb	0.096856914
18	0xbee4c4cb	-0.4468139
19	0x3df283d5	0.11841551
20	0xbe92ce0e	-0.28672832
21	0x3e6f060e	0.23342153
22	0x3db29baf	0.087211005
23	0x3e649252	0.22321442
24	0xbe76bb2b	-0.24094836
25	0xbcb899a4	-0.022534199
26	0xbe968955	-0.2940165
27	0x3de1c548	0.110239565
28	0x3ee23ced	0.44187108
29	0x3cbf4e5d	0.023352796
30	0x3ed8b3ef	0.42324778
31	0x3eb2621c	0.34840477
32	0xbc87bb12	-0.016568694
33	0x3dffd0cf	0.12490999
34	0xbe2a636e	-0.16639492
35	0x3e9e57c7	0.30926344
36	0x3e617139	0.22015847
37	0x3d87f576	0.06638615
38	0xbea59c67	-0.32345888
39	0x3ec24f47	0.3795111
40	0x3e3b1331	0.1826904
41	0xbd195cea	-0.037442125
42	0x3e45ed7e	0.19328877
43	0xbdab94a5	-0.08377961
44	0xbed76cfa	-0.4207533
45	0x3cb7210e	0.022354629
46	0x3bad205c	0.0052833986
47	0x3e0d59a2	0.13803723
48	0x3cb258dd	0.021770889
49	0xbdecf4da	-0.11570139
50	0xbbfbc701	-0.007683635
51	0xbd2459d8	-0.040124744
52	0x3de65f83	0.11248686
53	0xbeb4e986	-0.35334414
54	0xbe8f6a20	-0.28010654
55	0xbe719fa8	-0.2359606
56	0xbec97424	-0.3934642
57	0xbf0e1f37	-0.5551638
58	0xbd8f9fe2	-0.07012917
59	0x3da7ea1e	0.08198951
60	0x3c533628	0.01289133
61	0xbe603e1e	-0.21898696
62	0x3c4a3d19	0.012343668
63	0x3e3a0b69	0.18168415

rnn.bias_ih_l0 f4 [8]
0	0x3e9d0d9e	0.30674452
1	0x3d2e6fa5	0.04258694
2	0xbe0219ef	-0.12705205
3	0x3e87fec2	0.26561552
4	0xbea286e3	-0.31743535
5	0xbe9d4f45	-0.3072454
6	0xbebca842	-0.3684712
7	0x3e7db903	0.24777608

rnn.bias_hh_l0 f4 [8]
0	0xbda60d66	-0.08108024
1	0x3ccab544	0.024744637
2	0x3debd01a	0.115143016
3	0x3ef21809	0.47283962
4	0xbe387d3d	-0.18016525
5	0x3dc4c6d9	0.0960824
6	0xbeea900a	-0.45813018
7	0x3eddf497	0.4335067

rnn.weight_ih_l1 f4 [8, 8]
0	0x3da1d3e2	0.079017416
1	0xbee82ccb	-0.45346674
2	0xbdd002e8	-0.10156804
3	0xbceec0db	-0.029144695
4	0x3e7c3502	0.24629596
5	0x3e2eca54	0.1706937
6	0x3dcaff7b	0.0991201
7	0xbdc92e68	-0.098233044
8	0xbdb89acd	-0.09013901
9	0x3ca51654	0.020152248
10	0xbdea7eda	-0.11449976
11	0xbed1a283	-0.409443
12	0xbd127f42	-0.035765894
13	0x3d6843ed	0.056705404
14	0xbecac291	-0.39601567
15	0xbd1a1286	-0.03761532
16	0x3e536178	0.2064265
17	0x3e923f1d	0.28563777
18	0x3e12d37a	0.14338484
19	0xbe08898e	-0.13333723
20	0x3eca7a30	0.39546347
21	0x3e298b7c	0.16557115
22	0x3e513464	0.20430142
23	0xbea34da8	-0.31895185
24	0x3e8b29b5	0.27180257
25	0x3ca71d53	0.020399725
26	0x3d9f22fe	0.07770346
27	0x3eba4ead	0.3638815
28	0xbceb0b53	-0.028691923
29	0x3e2302d0	0.15919042
30	0x3de72292	0.11285891
31	0x3c6a9a42	0.0143190045
32	0xbd6b5fea	-0.057464518
33	0xbdc66b6e	-0.09688459
34	0xbe869fe1	-0.26293853
35	0x3e5497e0	0.2076106
36	0xbd3c15b3	-0.04591913
37	0xbe11860e	-0.14211294
38	0xbe1e4f55	-0.1545995
39	0xbd34c38d	-0.044131804
40	0xbd3e07da	-0.046394207
41	0xbe68392a	-0.22678056
42	0x3df1e4e6	0.11811237
43	0xbdb1e399	-0.08685989
44	0x3e9beed7	0.30455658
45	0xbdcdfe9d	-0.10058329
46	0x3e85f144	0.26160634
47	0xbe622ed7	-0.2208818
48	0xbc2abafd	-0.010420558
49	0xbe0b609d	-0.13611074
50	0x3badd49a	0.005304885
51	0x3d55b965	0.05217876
52	0x3e9e566d	0.30925313
53	0xbcbb6738	-0.022876367
54	0x3b8f8a63	0.0043805107
55	0xbe3dd42e	-0.18537971
56	0xbe0bb37f	-0.13642691
57	0x3e865e71	0.26243928
58	0x3c60ab9d	0.013712791
59	0x3e54f2ff	0.2079582
60	0x3d95fd56	0.073237106
61	0xbe9d6a33	-0.30745086
62	0xbe1b1b28	-0.15147078
63	0xbe872c5a	-0.26401025

rnn.weight_hh_l1 f4 [8, 8]
0	0x3cea75de	0.028620657
1	0xbe58d13f	-0.21173571
2	0x3e8714f0	0.26383162
3	0xbea6dc1a	-0.325898
4	0xbdf4fe3b	-0.11962553
5	0x3e85de18	0.26146007
6	0x3e13ac75	0.14421256
7	0x3f044b74	0.5167763
8	0x3e9fdd9f	0.3122377
9	0xbf27f0a4	-0.65601563
10	0x3ed725f9	0.42021158
11	0x3da03cb0	0.07824075
12	0x3f199889	0.59998375
13	0x3e0792b8	0.13239563
14	0xbdbe6254	-0.09296098
15	0xbe432746	-0.1905795
16	0xbe35cd09	-0.17753996
17	0xbe36ff0e	-0.17870733
18	0xbf2d884e	-0.6778611
19	0xbd06a8c8	-0.032875806
20	0xbdd74163	-0.105105184
21	0xbed5d869	-0.4176667
22	0x3e98a7ce	0.29815525
23	0xbe67b179	-0.22626294
24	0x3e14647b	0.14491455
25	0x3ef58e89	0.47960308
26	0xbddc08f7	-0.107438974
27	0xbf086498	-0.53278494
28	0xbe8345ac	-0.25639093
29	0x3be2469e	0.006905391
30	0x3e81ca1c	0.2534951
31	0x3eb77564	0.3583175
32	0x3cc0eae7	0.02354951
33	0xbde19755	-0.110151924
34	0x3dca1ff0	0.09869373
35	0x3d215ff1	0.039398137
36	0xbef3dd5f	-0.4762983
37	0xbe8a2b8f	-0.26986358
38	0x3d7de7d4	0.061988667
39	0xbe808555	-0.25101724
40	0xbe5d224b	-0.21595113
41	0xbe04441a	-0.12916604
42	0xbc7c6395	-0.015404602
43	0x3e4bb2d0	0.1989243
44	0x3bbdc047	0.0057907435
45	0xbf096d3b	-0.536823
46	0xbe80bafa	-0.25142652
47	0xbc2802f8	-0.010254614
48	0xbeac5094	-0.33655226
49	0xbd8380fd	-0.06421087
50	0xbed04b96	-0.40682667
51	0xbe07084b	-0.13186757
52	0xbeeeb240	-0.4662037
53	0xbeb58c02	-0.3545838
54	0xbea9afdd	-0.33141986
55	0xbde46235	-0.11151544
56	0xbe880ab8	-0.26570678
57	0x3ea2d18b	0.31800494
58	0xbe8159a1	-0.25263694
59	0xbdea680f	-0.11445629
60	0xbe128549	-0.14308657
61	0xbec07d27	-0.37595484
62	0xbdcfdcbe	-0.10149525
63	0xbe4e4702	-0.20144275

rnn.bias_ih_l1 f4 [8]
0	0xbec0f15e	-0.3768415
1	0x3e2ee233	0.17078476
2	0x3d76c381	0.06024504
3	0xbede277a	-0.43389493
4	0xbdcf414d	-0.10119877
5	0x3dfbdd30	0.122980475
6	0x3d022c51	0.031780545
7	0x3d28c32d	0.04120176

rnn.bias_hh_l1 f4 [8]
0	0x3cb7aa72	0.022420142
1	0x3e6b1dea	0.2296063
2	0xbd363cd3	-0.0444916
3	0x3dcce15f	0.100039236
4	0xbd91f04d	-0.07125912
5	0xbe9afcae	-0.30270904
6	0xbe9d0f3f	-0.30675694
7	0xbd37c346	-0.04486396

fc.weight f4 [2, 256]
0	0xbc9e3cda	-0.019316126
1	0xbdbc6302	-0.09198572
2	0x3cae098f	0.021244792
3	0xbd1bcf0e	-0.03803926
4	0xbc9fd95b	-0.019512823
5	0x3d820791	0.063490994
6	0xbd0d8a6e	-0.034555845
7	0xbd9a7f95	-0.075438656
8	0x3ca69487	0.020334495
9	0xbb536b28	-0.0032259915
10	0x3ccdf19e	0.025139626
11	0x3c7d3d70	0.015456542
12	0xbc6f6ab4	-0.014612842
13	0xbc6b8cf7	-0.01437687
14	0x3d9cfc8a	0.076653555
15	0xbca9b06c	-0.020714007
16	0x3d661a6d	0.056177545
17	0xbc739ae1	-0.014868469
18	0xbabe1c4a	-0.001450428
19	0x3c2273b6	0.009915283
20	0x3ca5bef7	0.02023266
21	0xbc3018d8	-0.010748111
22	0xbc5d9d6a	-0.0135263
23	0xbd0390ac	-0.03212039
24	0x3ca63f5c	0.020293884
25	0xbc4bbe49	-0.012435504
26	0x3b4435c6	0.0029939278
27	0xbca4e33a	-0.020127881
28	0x3c936c8a	0.017996091
29	0xbc4caf1a	-0.012492919
30	0x3ce63800	0.028102875
31	0xbc2705d3	-0.01019426
32	0xbca0e1bc	-0.019638889
33	0x3c0e5560	0.008687347
34	0x3c777cb8	0.015105419
35	0x3c846632	0.016162012
36	0x3d7fd11f	0.062455293
37	0xbc9130da	-0.01772349
38	0x3d2da0b4	0.042389587
39	0xbd9bfd57	-0.0761668
40	0x3c4e38c0	0.012586772
41	0x3c09477a	0.008378858
42	0x3ce67327	0.02813108
43	0x3b8a5d68	0.0042225607
44	0x3d14ba42	0.03631044
45	0xbc962675	-0.018328885
46	0x3cac60b8	0.021042213
47	0xbc1ec2e3	-0.009690019
48	0xbd18fb0b	-0.03734879
49	0x3bee1ff8	0.0072669946
50	0x3c4cac94	0.012492318
51	0x3aed4000	0.0018100739
52	0x3d29c76c	0.04144995
53	0xbda1e5c8	-0.079051554
54	0x3d956123	0.07293918
55	0xbda353d7	-0.079749756
56	0xbcd73fc5	-0.026275525
57	0xbb9b496b	-0.0047389767
58	0xba52c0a5	-0.00080395705
59	0x3b8e4068	0.004341174
60	0x3c530276	0.012879005
61	0xbd5298cb	-0.051415246
62	0xbb66f3d4	-0.0035240548
63	0xbd4ec485	-0.050480384
64	0xbd04b246	-0.032396577
65	0x3bcc2ea2	0.006231145
66	0xbac50f3d	-0.0015034449
67	0x3b16f0e6	0.002303177
68	0x3cb22ce3	0.02174992
69	0xbd4e7479	-0.050404046
70	0x3c1155c9	0.00887055
71	0xbd4ad457	-0.04951891
72	0xbd64a8ff	-0.05582523
73	0xbba498f3	-0.005023116
74	0xbb52e6c6	-0.0032181009
75	0x3d148132	0.036256023
76	0x3cc25a34	0.023724653
77	0xbd6205cc	-0.05518131
78	0xbc2025c6	-0.009774631
79	0xbda1a5cb	-0.078929506
80	0xbce7a556	-0.02827708
81	0xbc644526	-0.013932502
82	0xbce8a2d8	-0.028397962
83	0xbbfb990d	-0.007678157
84	0xbcae9594	-0.021311559
85	0xbdcfe203	-0.1015053
86	0x3c293e6c	0.010329824
87	0xbd49aecd	-0.04923897
88	0xbd6e6df8	-0.058210343
89	0xbc3a2c39	-0.011363083
90	0xbcbdacb0	-0.023153633
91	0x3bc86939	0.006116059
92	0x3ca2469b	0.019809058
93	0xbd3038cf	-0.043022927
94	0xbd0a92d2	-0.033831425
95	0xbd7e5276	-0.06209036
96	0xbd5a28f0	-0.053261697
97	0xbbdcc36f	-0.0067371647
98	0xbcaa24f3	-0.020769572
99	0x3c05c2ce	0.008164121
100	0x3ca53121	0.020165028
101	0xbd9ab3c2	-0.07553817
102	0x3af347b3	0.0018560797
103	0xbd8399ea	-0.06425841
104	0xbda0e6c6	-0.078565165
105	0xbcc73a7c	-0.02431988
106	0xbd87331d	-0.06601546
107	0x3c02fde5	0.0079951035
108	0xbcd64f1e	-0.026160773
109	0xbdab9021	-0.083771
110	0xbcac5efc	-0.021041386
111	0xbdaba81e	-0.08381675
112	0xbd0d1d94	-0.034452036
113	0x3a2d4d42	0.00066109386
114	0xbd387adc	-0.045039043
115	0x3c3428d2	0.01099606
116	0xbad69458	-0.0016371114
117	0xbd446fd7	-0.04795822
118	0xbd6bb654	-0.05754693
119	0xbcfa3493	-0.030542647
120	0xbd8010ed	-0.06253228
121	0xbc0a6913	-0.008447903
122	0xbd3c3a21	-0.045953874
123	0x3cd90371	0.026490899
124	0xbb851f13	-0.004062542
125	0xbd9a6f2d	-0.07540736
126	0xbcdc1df7	-0.026869757
127	0xbd93aa3f	-0.07210206
128	0xbc448da0	-0.011996657
129	0xbbf60852	-0.007508316
130	0xbd1b2efe	-0.037886612
131	0xbcc96362	-0.024583522
132	0xbce4305a	-0.027855087
133	0xbd81f9e3	-0.0634649
134	0xbc86f85f	-0.016475854
135	0xbbcd7788	-0.0062703528
136	0xbd9dd076	-0.077057764
137	0xbba9c21e	-0.0051806113
138	0xbcf32858	-0.029682323
139	0x3c383d63	0.0112451045
140	0x3c8ab077	0.016929848
141	0xbcea9528	-0.028635576
142	0xbbdb0c59	-0.0066848216
143	0xbd6f47fa	-0.05841825
144	0xbd2acb29	-0.041697655
145	0x3aaac435	0.0013028445
146	0xbd3cac44	-0.046062723
147	0xbb87a39f	-0.004139378
148	0xbcdab6e4	-0.026698537
149	0xbd988f30	-0.07449186
150	0x39fc34c0	0.00048104487
151	0xbd098ba0	-0.033580422
152	0xbd1561e7	-0.03647032
153	0x3b834221	0.004005686
154	0xbd0b71e5	-0.034044165
155	0x3b1233ef	0.0022308787
156	0xbc31eb0a	-0.01085926
157	0xbc7b53e0	-0.015339822
158	0xbd5632ef	-0.052294668
159	0xbc2dfdf9	-0.010619634
160	0xbcfafe3b	-0.030638805
161	0x3c28c56d	0.010300976
162	0xbc9ba787	-0.019000782
163	0xbaf2ef96	-0.0018534537
164	0xbbfa40c7	-0.0076371166
165	0xbd5a2826	-0.053260945
166	0x3c068485	0.008210306
167	0xbcb60e85	-0.02222372
168	0xbd08423b	-0.033266287
169	0xbb1ce7b9	-0.0023941828
170	0xbd21891c	-0.0394374
171	0xbc34085d	-0.010988322
172	0xbd3f648e	-0.046726756
173	0xbd00c31b	-0.031436067
174	0xbcecf1a0	-0.02892381
175	0xbc4f955c	-0.012669887
176	0x3c5193de	0.012791602
177	0x3c2faa19	0.010721707
178	0x3bc7c10c	0.006096011
179	0xbc851c53	-0.016248858
180	0xbc0117d8	-0.00787922
181	0xbc3f04bf	-0.011658846
182	0xbd09c248	-0.033632547
183	0x3cd468ca	0.025928874
184	0xbcc3b979	-0.023892151
185	0xbb66e899	-0.0035233854
186	0xbca6bd02	-0.020353798
187	0xbd151286	-0.03639462
188	0xbd401d08	-0.046902686
189	0xbc401bd5	-0.011725386
190	0xbadfc780	-0.0017073005
191	0x3b3acd5f	0.0028503758
192	0x3cb405c2	0.021975402
193	0x3c7b5aa7	0.015341437
194	0x3caa022f	0.020752994
195	0xbcaf9253	-0.021432078
196	0xbb8852ae	-0.004160247
197	0x3cfc6d57	0.030813856
198	0xbd2ff014	-0.042953566
199	0x3d3e46b8	0.04645416
200	0x3c828e85	0.0159371
201	0x3c08448a	0.008317122
202	0x3c96eeeb	0.018424472
203	0xbd4fbee2	-0.05071915
204	0xbce26396	-0.027635377
205	0x3ce4f65a	0.0279495
206	0x3cb3cb60	0.021947563
207	0x3d52cec3	0.051466715
208	0x3c308226	0.010773217
209	0x3c6fcebc	0.014636692
210	0x3ce23423	0.027612751
211	0xbcbb106e	-0.022834983
212	0xbc34eee8	-0.011043288
213	0x3d77951c	0.060444936
214	0x3b706160	0.0036679134
215	0x3d298769	0.041388903
216	0x3d278115	0.040894587
217	0x3c471102	0.012150051
218	0x3ca26167	0.019821836
219	0xbd004433	-0.03131504
220	0xbd23ae4c	-0.039961144
221	0x3d7e6d98	0.062116235
222	0x3c2ffdd0	0.010741666
223	0x3d953ac1	0.07286597
224	0x3d41699a	0.04721985
225	0x3cb442f8	0.02200459
226	0x3d011894	0.03151758
227	0xbc15b564	-0.009137485
228	0xbcda22d2	-0.026627932
229	0x3ddfa504	0.10920146
230	0x3c3a5793	0.011373418
231	0x3d9b938d	0.075965025
232	0x3d8067b6	0.06269781
233	0x3cc02cb8	0.023458824
234	0x3d18ef79	0.037337754
235	0x3b0af9ee	0.0021206099
236	0xbc6e6b16	-0.014551898
237	0x3de893ab	0.113562904
238	0x3d893a00	0.06700516
239	0x3dcb7137	0.099337034
240	0x3c8e213d	0.017349834
241	0x3c70bb0f	0.014693036
242	0xbbd384cc	-0.0064550396
243	0x3d0fa831	0.03507251
244	0xbce02de5	-0.027365634
245	0x3de24589	0.11048419
246	0x3dab5e3f	0.083675854
247	0x3d624dcd	0.055249978
248	0x3d372d1c	0.044720754
249	0x3d29b410	0.041431487
250	0x3d1729c2	0.036905058
251	0x3d42f801	0.047599796
252	0x3c26bbd1	0.010176615
253	0x3d782cb8	0.060589522
254	0xbc1d3993	-0.009596246
255	0x3de66b93	0.11250987

fc.bias f4 [2]
0	0xbb8d4702	-0.0043114433
1	0xbb27ac49	-0.0025584868
