model/train_direct_dict_sl8.pt (torch, 3363 bytes, 10 tensors)

rnn.weight_ih_l0 f4 [8, 3]
000000 f6 5d be 3d 4f 1b 5b 3e a8 fc 5c 3f 02 17 ad 3b
       0.092952654 0.21397136 0.8632302 0.0052822838
000010 c3 12 9c bb 16 97 5a 3f 8b df c7 bd 26 a4 d4 3c
       -0.0047629788 0.8538679 -0.09759434 0.025957178
000020 c5 be 97 be ae 24 d2 bd 1d a7 aa 3e c2 e9 b0 be
       -0.29637733 -0.10260902 0.33330622 -0.34553343
000030 5e 89 ce bd b1 23 2d 3d 45 c4 c2 3e 75 ea f8 3d
       -0.100847945 0.042270366 0.38040367 0.12154094
000040 b9 a3 6d 3e b8 32 42 3e 9c fa 2a 3a ac 7c a0 be
       0.23206986 0.1896466 0.0006522329 -0.31345117
000050 c4 11 a5 3f 03 a2 34 3c be f8 60 bd 30 46 d6 3e
       1.2896047 0.011024955 -0.05492472 0.41850424

rnn.weight_hh_l0 f4 [8, 8]
000000 82 f3 69 3e cc 6a 51 bd 69 a1 8d bc f8 b6 af 3e
       0.22846797 -0.05112724 -0.01728888 0.34319282
000010 d7 b3 83 3d a3 18 3e 3e 32 0b 90 3e 9f b7 57 3e
       0.06430786 0.18564086 0.2813354 0.2106614
000020 a7 fe a8 be 41 32 6c 3e 59 ae 0e 3e 77 1d ab bd
       -0.33006784 0.23066045 0.13933696 -0.08355229
000030 0a 11 30 be 1d 9c 89 3d c3 e8 68 be cf c1 a9 bd
       -0.17194 0.06719229 -0.22745042 -0.08288919
000040 31 f9 b2 be 46 75 b6 be 5e 06 8a 3e 36 27 2b 3e
       -0.34955743 -0.35636348 0.26957983 0.16714177
000050 20 6f 97 bd cd 2f 55 3e ac fa 7b 3e 2d ba 19 3e
       -0.07394242 0.20819016 0.24607342 0.15012427
000060 5e 36 35 be a4 bc 0a 3c b6 53 50 be ba 17 ab 3e
       -0.1769652 0.008467827 -0.20344433 0.3341654
000070 1a 76 e4 3d cc cc 48 3d 7e c1 06 be b9 8c 80 3d
       0.111553386 0.049023435 -0.13159749 0.06276841
000080 47 be e7 bc b2 cd 04 3e dd 5f 00 be f2 bb b6 3e
       -0.028288973 0.12969092 -0.12536569 0.35690266
000090 8f f9 9a bd d9 44 6f be 87 bd f9 bd 2f ae ba 3e
       -0.07567131 -0.23366107 -0.121943526 0.36461017
0000a0 fa 44 0c 3e 85 8f 48 bd a1 8b 2c bd 97 17 53 be
       0.13698187 -0.048964996 -0.042125348 -0.20614468
0000b0 d6 8f a7 be 1b 42 01 3f d2 3e 57 bd 68 42 07 3e
       -0.32726926 0.50491494 -0.052550144 0.13208926
0000c0 13 2d 3f be 81 02 9e be 3d bb 56 3d 80 d5 09 be
       -0.18669538 -0.30861285 0.052424658 -0.1346035
0000d0 98 54 ec be bd d5 56 be 13 59 9d 3e af 1d 23 be
       -0.4615829 -0.20979972 0.3073202 -0.15929292
0000e0 93 a7 a6 bc 0f 4b a1 3e ec cc 90 bc be 0c a6 3e
       -0.020343577 0.31502578 -0.01767584 0.32431597
0000f0 fc 88 43 3e 91 54 29 bc 56 b5 bf be 0a ed 0e 3d
       0.19095224 -0.010335104 -0.37443036 0.034894027

rnn.bias_ih_l0 f4 [8]
000000 92 45 c5 be 77 8b 5f 3e 7d a5 2e 3e f9 e3 ba 3e
       -0.3852964 0.21830545 0.17055316 0.36502054
000010 9a d1 4e 3e 89 03 0c 3e 4e 9b 9e be 74 a3 a4 3e
       0.20197144 0.13673224 -0.30977863 0.32155955

rnn.bias_hh_l0 f4 [8]
000000 e0 38 31 3e 69 6a 1b 3e 95 93 71 3e ac 13 ba 3e
       0.17306852 0.15177311 0.23591454 0.36343133
000010 c8 7b 65 3c c8 f0 6f bd 64 e6 ff 39 b7 8b 2d bb
       0.0140065625 -0.058579236 0.00048809045 -0.0026480982

rnn.weight_ih_l1 f4 [8, 8]
000000 ae ce 00 be 6c 50 4e be a5 03 89 be d2 ba b0 3e
       -0.12578842 -0.20147866 -0.26760593 0.34517533
000010 00 39 8a 3e 93 74 e9 3d 9b 77 3c 3e 0c 01 b6 3e
       0.26996613 0.11399188 0.18405001 0.35547674
000020 92 ba 48 bb 54 01 85 3e 69 06 2c 3e 78 4f 45 3d
       -0.0030628783 0.25977576 0.1679932 0.04817149
000030 b5 cb 36 3d 12 07 8b 3d e2 c6 fd 3e e4 b5 41 be
       0.044627864 0.06788458 0.49565798 -0.18917042
000040 c6 3c 13 3e 74 7b 86 3d f5 4a 82 3e 22 78 91 3e
       0.14378652 0.065665156 0.25447813 0.28411967
000050 04 0a 1d bd 8e 38 14 3e 73 9a 35 3e 93 05 66 bd
       -0.03833963 0.14474699 0.17734699 -0.05615766
000060 7c 2b 8b 3d e0 3a ad 3e be c8 57 3d bc 09 c2 bb
       0.06795403 0.3383398 0.052681677 -0.0059215706
000070 97 4f 3a be f4 d4 dd 3c 33 90 05 3f 01 01 ae 3b
       -0.18194424 0.027079083 0.52173156 0.0053101783
000080 78 ca d3 bb 7f 20 d6 3d 2f 57 22 3c 9a 65 0c be
       -0.006463345 0.10455417 0.0099084815 -0.13710633
000090 52 c5 47 3d da 1e a6 bc a6 0a 13 3f 4f 7c 26 3e
       0.048772164 -0.020278383 0.57438123 0.16258357
0000a0 66 79 aa 3e 93 89 4d 3d f7 31 a2 bc ad 5b ae 3e
       0.33295745 0.05018003 -0.019799216 0.34054318
0000b0 14 32 76 3e 80 16 67 3e e1 1a c2 3e f2 39 ad 3e
       0.24042541 0.22567177 0.37911132 0.3383327
0000c0 ee 4d 14 be b9 55 68 be f9 db 93 3e 37 62 c4 bd
       -0.14482853 -0.2268895 0.28878763 -0.095890455
0000d0 bb 78 94 bd 23 94 dd 3d e0 ad 02 bf 08 73 98 be
       -0.0724959 0.108192705 -0.5104656 -0.29775262
0000e0 1b 48 88 be e4 86 03 3e 79 ce 5b be fe 70 9c 3e
       -0.26617512 0.12844425 -0.21465482 0.30554956
0000f0 5e 50 96 bc 9c 29 bb 3b 99 c2 81 be 1c 65 8c 3d
       -0.018348869 0.0057117473 -0.2534378 0.068552226

rnn.weight_hh_l1 f4 [8, 8]
000000 1a 06 a9 3d 72 90 9a 39 04 21 1c 3e df b8 30 3e
       0.08253117 0.0002948079 0.1524697 0.17258023
000010 0d e5 e9 3d b9 95 97 3c d8 97 b7 3e 08 d5 d4 bb
       0.11420641 0.01850401 0.35858035 -0.006495122
000020 ca aa 84 3e 0d 2c 63 3c 7e 86 07 3d d3 65 92 3c
       0.25911552 0.013865483 0.033087246 0.01787082
000030 11 98 82 3e 7c 3c ec bd 13 51 c3 be aa 8e 8f 3e
       0.25506642 -0.11534974 -0.38147792 0.28038532
000040 cc ff 40 bd 01 2a ad be f5 43 ab 3e 9d 6a c9 be
       -0.047118947 -0.3382111 0.33450285 -0.39339152
000050 ee d7 8c 3c 15 28 cc be 3b 65 ad 3d 72 43 9f 3c
       0.017192807 -0.3987433 0.08466574 0.01944134
000060 96 e7 37 bd c4 ff d2 be ac ca a2 3e 44 56 8f be
       -0.044898592 -0.4121076 0.3179525 -0.27995503
000070 f9 18 cc bd e4 79 90 3e c5 b9 84 bd a6 8d 5d 3e
       -0.09965701 0.28217995 -0.06480745 0.21636066
000080 0a 25 93 3e bd f8 49 be 08 40 83 be bb 11 80 be
       0.28739196 -0.19723792 -0.2563479 -0.25013527
000090 3d ce b4 bd 78 05 28 3d e8 c6 17 3e d7 3b a0 be
       -0.08828399 0.04102084 0.1482197 -0.31295654
0000a0 76 a2 5d bd bf 6a 6d be cc f9 1f be 2b 8e 04 3d
       -0.054110013 -0.23185252 -0.15622634 0.032362144
0000b0 68 67 df bc 8c ff 57 be 8c a2 06 3e 55 b9 6b 3e
       -0.027270988 -0.21093577 0.13147944 0.23019917
0000c0 9f 8b 68 3e 06 27 53 be 75 09 95 3e 62 c3 1e be
       0.22709511 -0.20620355 0.29108778 -0.1550422
0000d0 6e 33 ac be 01 00 bf 3c ec cb 5c be 94 d2 ff 3d
       -0.33632988 0.023315432 -0.21562165 0.124913365
0000e0 81 13 ee 3d 35 22 ce be a1 28 f0 3d 46 35 59 be
       0.11624814 -0.40260473 0.11726499 -0.21211728
0000f0 81 b7 80 3e f1 42 4b 3e 19 0b 8b 3e 07 08 66 3e
       0.25140002 0.19849755 0.27156904 0.22464

rnn.bias_ih_l1 f4 [8]
000000 8f 88 2e be 53 80 6a 3d c3 60 f5 bd 9e e7 9b be
       -0.1704428 0.057251286 -0.119813465 -0.30450147
000010 78 93 02 3e a6 54 91 be 17 9f 5c bd d6 ba 1f 3d
       0.12751567 -0.28384894 -0.053862657 0.03899654

rnn.bias_hh_l1 f4 [8]
000000 b9 98 77 be 93 aa 05 be 62 87 23 3e 7b 93 98 3e
       -0.24179353 -0.1305335 0.15969613 0.2980002
000010 bf 1b 41 3e d7 99 fa 3d a5 c5 8e 3e 05 33 ab bc
       0.1885824 0.12236374 0.27885166 -0.020898351

fc.weight f4 [2, 64]
000000 61 d2 c7 ba fa 03 d0 3c 0a 75 20 3e 5b 30 a8 3d
       -0.0015245193 0.025392521 0.15669647 0.08212348
000010 02 7e 50 bd 45 d6 50 3d 55 21 fb bd bb 3b a0 bd
       -0.05090142 0.050985593 -0.12262217 -0.07823893
000020 4f 48 7d bd 90 e7 4e 3d 96 5a bb 3d 90 a7 28 3e
       -0.061836537 0.050513804 0.09148137 0.1647017
000030 92 80 3e bd c1 4b 0c bc bd 71 16 be 6d 4f 11 3d
       -0.046509333 -0.008562983 -0.14691825 0.035476137
000040 76 9a d3 bd 44 c9 7e bd c4 95 8e ba 93 66 95 bc
       -0.103321955 -0.06220366 -0.0010878374 -0.018237388
000050 45 e8 54 3d df e4 1c 3e a8 60 90 b9 be 61 a5 bb
       0.051979322 0.15321682 -0.00027537835 -0.005047052
000060 32 f3 7d 3d cc f7 a1 bc a8 f6 09 be 0d cc 0d 3e
       0.061999507 -0.01977148 -0.13472998 0.1384737
000070 72 35 9e bd 21 6f 2a 3e 32 96 4c bd ea 7d f0 3d
       -0.07725038 0.16643955 -0.049947925 0.11742766
000080 57 73 32 3d 2c 61 d5 bd af 6c c2 3c 96 24 ec 3b
       0.043567028 -0.10418925 0.023733465 0.00720651
000090 ee 91 ed bb 56 11 a2 3d 00 c2 c6 bd 92 29 83 3c
       -0.007250062 0.07913463 -0.09704971 0.016011033
0000a0 cd 43 8b 3c 43 2e 9a 3c 55 35 f6 bb af 69 bf 3d
       0.017000103 0.018820887 -0.007513682 0.093463294
0000b0 f7 a5 0a 3b e0 ea e6 3d fa 01 b6 bd b6 98 12 bb
       0.0021156052 0.112752676 -0.08887096 -0.0022368855
0000c0 ae 32 fa 3b 44 b4 03 be 58 4e da 3d 0b eb da 3c
       0.007635436 -0.12861735 0.10659474 0.026723405
0000d0 f3 78 9a 3d 89 52 32 3e 47 e4 28 bd 29 a6 6d 3d
       0.075426005 0.17414297 -0.041233327 0.05801979
0000e0 71 66 c5 bd d9 33 16 be 6c cd 86 3d 46 73 25 be
       -0.0963868 -0.14668216 0.0658215 -0.16157255
0000f0 23 b1 ca ba c8 b2 00 3e e5 08 a9 bc 74 52 14 3d
       -0.0015464168 0.125682 -0.020634124 0.036211446
000100 a8 8e eb bc 5e de 37 bc 81 11 f5 bc 20 49 29 be
       -0.028754547 -0.01122245 -0.029915573 -0.16531801
000110 13 58 90 bd ef 87 35 3d 7f 49 ca bd 4a 3d 32 bd
       -0.07048049 0.04431909 -0.098772995 -0.04351548
000120 84 d5 ef 3d cf 08 51 bd 8a 8d 58 bd 1d 2a cf 3d
       0.11710647 -0.05103379 -0.052869357 0.10115454
000130 e1 b1 1e 3b d4 df 09 b9 c5 f5 91 3d 08 fb 1c 3d
       0.002421491 -0.0001314872 0.07126955 0.03832534
000140 2d 68 94 bd 93 d9 59 3e 82 1d ec bb 53 d9 30 3d
       -0.072464325 0.21274404 -0.007205666 0.043176007
000150 a1 62 a0 bd 2d e5 51 3c c0 a4 17 3d 8e c6 e0 bd
       -0.07831312 0.012810987 0.037022352 -0.10975371
000160 ba 2b 56 3c 43 5f 28 bb b8 8f a2 3c d3 86 f9 3d
       0.013071949 -0.0025691546 0.019843921 0.12183919
000170 72 25 0e 3d c6 0d cb bd be 8e 2e bd 41 06 74 bd
       0.03470368 -0.099147364 -0.0426166 -0.059576277
000180 dd f2 24 3c c0 bb 90 bc 64 02 09 bd d8 9c 95 3d
       0.010067669 -0.017667651 -0.033449546 0.07305306
000190 65 c2 e1 3c 97 da 43 3e c8 bc d4 3d 15 74 2a 3d
       0.027558515 0.19126354 0.1038757 0.04161461
0001a0 23 ed ba 3d cf 40 15 3c 2c ce a1 3d c4 f5 6e 3d
       0.091272615 0.00910969 0.07900652 0.05833985
0001b0 92 4a 0e bd 4d f3 67 3c 3a 27 8d 38 5e 2e c1 3d
       -0.034739085 0.0141571285 6.7307104e-05 0.09432672
0001c0 5a 5c 95 bd 3a 54 46 bc 24 b5 fa bb 11 19 09 bd
       -0.07293005 -0.012105042 -0.007650988 -0.03347117
0001d0 fb 98 9c 3d 01 ad c5 3d e7 b1 34 be fe 15 c1 3d
       0.07646366 0.096521385 -0.1764599 0.09428023
0001e0 fb f8 1b 3e 9b ec b2 3e 39 3f d3 3d 5d c7 5c 3e
       0.15231697 0.3494614 0.10314793 0.21560426
0001f0 3d 25 2c 3e 33 8e 92 3e f0 2a 7a be d8 d4 c5 bd
       0.1681108 0.28624114 -0.24430442 -0.09659737

fc.bias f4 [2]
000000 2c ff e6 bd c7 7f a8 bc
       -0.11279139 -0.020568741
