model/train_direct_dict_sl5.pt (torch, 3171 bytes, 10 tensors)

rnn.weight_ih_l0 f4 [8, 3]
00000000: 7543 87bb bcf9 7e3e 54ae 9bbf 955e 863d
00000010: 224d c93d e870 a6be ee7d 75bd 81bc b53e
00000020: d23d 97bd 6d07 a9bb c4f1 0e3e cd8b 603f
00000030: f53a 993d 6c93 013e 1e20 3cbe c1d7 b7bd
00000040: 1ab0 643d 3a9e 1bbe fc9c 05bd 74b0 c4be
00000050: 1787 7fbf a57d 9b3a 061f 6c3c c6c7 3a3e
-0.0041279146 0.24899954 -1.2162576 0.06561009 0.09829165 -0.32508016 -0.05993455 0.3549538
-0.07384838 -0.005158356 0.13959414 0.8771332 0.07481948 0.12653893 -0.18371627 -0.08976699
0.055832006 -0.15197077 -0.032620415 -0.38415873 -0.99815506 0.0011863007 0.014411693 0.1824027

rnn.weight_hh_l0 f4 [8, 8]
00000000: c907 ca3d b598 ddbb d262 82be 2d38 383e
00000010: fdb4 773b bf3d 6a3e f5d5 a3be 4951 a2be
00000020: 1af2 063d 5182 e1be 4e0e 023d 3256 443e
00000030: 20fa 5ebe f52a 9d3e 0fe6 7c3e 3c71 593c
00000040: 2b09 553d 1924 a33e 1565 46be 49ca cfbd
00000050: 371f 70be 80cc 6abe 3791 80bd 7757 db3d
00000060: f817 cb3d 90c4 593d 6e46 0a3e 3328 50be
00000070: fd9a 53be 64be 623d e96e dcbe c69e 623e
00000080: 328f 983d f84a f43d d30f f13e 94a2 063e
00000090: a395 e3bd 4c1a 833d 0347 5fbe b740 71be
000000a0: 07fe 9dbc b830 983d 74a9 8e3e 045c 91bd
000000b0: 4af3 2e3e ddff aebe b75c ecbc d11e 7cbd
000000c0: 1596 a03d d78e 463e 6d55 88be 1bb1 343c
000000d0: 309c 6d3e 839a 4a3e 5e8e 27bd 83ca 443e
000000e0: d73d 0bbe 9a51 873e 32b8 2d3e 276c 133d
000000f0: 4364 76be 74a1 94be f040 933e 0708 233e
0.09864766 -0.006762589 -0.2546602 0.1799018 0.0037797086 0.22875117 -0.31999174 -0.3170264
0.03294573 -0.44044736 0.031751923 0.19173506 -0.21775103 0.30696836 0.24697135 0.013271626
0.052010696 0.31863478 -0.19374497 -0.10146005 -0.23449408 -0.22929573 -0.062776975 0.10710042
0.09916681 0.053165972 0.1350343 -0.20327835 -0.20664592 0.055357352 -0.43053368 0.2213088
0.07449187 0.11928362 0.47082385 0.13147956 -0.11112525 0.064015 -0.21804433 -0.23559843
-0.019286169 0.07431167 0.27863657 -0.07097629 0.17084995 -0.34179583 -0.028852804 -0.061552826
0.07841126 0.19390427 -0.26627675 0.011028553 0.23204112 0.19785504 -0.040907256 0.19217877
-0.13597809 0.26429445 0.16964796 0.035991814 -0.24061684 -0.2902943 0.2876048 0.15921031

rnn.bias_ih_l0 f4 [8]
00000000: 9c79 d5bd 2820 b7bd 5af2 883e cbd3 bc3e
00000010: c7eb 903e 92db b6bd b838 d5be bf90 d83c
-0.10423586 -0.0894168 0.267474 0.36880335 0.28304884 -0.089285985 -0.41644835 0.026436208

rnn.bias_hh_l0 f4 [8]
00000000: 59cf 3c3e 0398 853e be69 b43c c1df 87be
00000010: 448c ba3e a795 56be a2dd b7be 33dd 92be
0.18438472 0.26092538 0.022023078 -0.26537898 0.3643514 -0.20955525 -0.3591128 -0.28684387

rnn.weight_ih_l1 f4 [8, 8]
00000000: 935d 2b3f 203c 43bd 6314 603e 10ee c6be
00000010: 9e89 d1bd 23b4 8abe 156d c73d e785 3f3e
00000020: c7b4 523d 4b2c 3b3e d9de 84be 4d99 a03c
00000030: 573c f4bd 96d1 85be d512 883d e234 cc3c
00000040: f8d6 33bf ab7c b6bd 3e6e 3ebe 036b a93e
00000050: c8d5 4bbe 3442 f0bb 7e1c 2f3d e226 3b3e
00000060: 664c 943e fa7f 503e b32f 5fbd 3d05 93bd
00000070: ed76 32bd c7e1 53bd 8b6d 963b 1071 3abe
00000080: c18f 5a3e 9530 7b3e dc9d 923e ab96 cd3e
00000090: 26c9 b13e dd3e 873d 0fd3 33be 201f 17be
000000a0: 3b6f 91bd 6a4a c33d c29f a6be 1ced 30be
000000b0: 70da 41be 661c f63d 637c d43e 58b2 afbe
000000c0: bb95 42bd 2c9e 443e 6984 a0be 9beb 8ebe
000000d0: 075a 63be 23da 38bd cb82 d8bd 51e6 a23d
000000e0: bc35 a73e a2af 3fbe c737 7a3e 1de2 eabd
000000f0: 0d78 e5bd 6764 2a3a 8333 313d 4eea 243e
0.6693966 -0.04766476 0.21882777 -0.38853502 -0.102313265 -0.27090558 0.097376026 0.18703423
0.051441934 0.18278615 -0.2595127 0.01960435 -0.119255714 -0.26136464 0.06644217 0.02492756
-0.7024989 -0.08910497 -0.18596742 0.33089456 -0.1990577 -0.007332111 0.04275178 0.18276551
0.28964537 0.20361319 -0.05448885 -0.071787335 -0.043570448 -0.05172899 0.0045906953 -0.18207192
0.213439 0.24530251 0.28636062 0.40154013 0.34723777 0.06603787 -0.17560981 -0.14757967
-0.07101294 0.09535678 -0.3254376 -0.1727795 -0.18930984 0.12017135 0.4150115 -0.34315753
-0.047506075 0.19200963 -0.3135102 -0.27914128 -0.22202311 -0.045129906 -0.10571822 0.079540856
0.32658184 -0.18719342 0.2443534 -0.11468909 -0.112045385 0.00064999465 0.043262016 0.16105005

rnn.weight_hh_l1 f4 [8, 8]
00000000: 6250 ebbd 75e4 51be 7402 983e f7e2 983e
00000010: 379c 573e d2a3 b33e 1b49 7839 a0b6 78be
00000020: 8ce2 383e 92c7 87be 3c13 a43e 473e 98bc
00000030: 7454 96be bbe4 293e 86cb 30be 419d 9fbd
00000040: 6210 793e fab5 1abe 9a29 5a3b 4212 203e
00000050: 4434 63be 6f3a 193e c42d c03e 015d 273a
00000060: 0e15 3bbd e481 92bd 07b6 883e deba 94be
00000070: 9c1b 8d3d 4183 9ebe 06f1 56be 37ba c13e
00000080: d4c4 08be eeb9 28bd 0ca0 e63d f741 51be
00000090: 6a66 303e 0183 7abd bc80 28bd 9cae 73bd
000000a0: af7c 4abe bb9e 9cbd 1013 a03c 3a5d 8bbe
000000b0: 9aab b6be e853 8cbe 6323 9e3e ee4a 64be
000000c0: a6f5 d2bd f93d 8c3e 2545 4c3e 9ed2 8cbd
000000d0: d646 0dbd fe2a d73e 23e9 cd3e 561e 0f3e
000000e0: 36dc d33d bd58 af3e fcbd 49bf a1c1 073e
000000f0: 4b4f 4fbe 53ca a3be e5ec c53d 7288 89be
-0.11489941 -0.20497306 0.29689372 0.2986066 0.21055685 0.35085922 0.00023678357 -0.24288416
0.18055171 -0.26519448 0.32045925 -0.018584384 -0.29361308 0.1659116 -0.17265138 -0.07793666
0.24322656 -0.15108481 0.0033288957 0.15631965 -0.22187907 0.14963697 0.37534916 0.0006384403
-0.045674376 -0.07153681 0.26701376 -0.29048818 0.06890032 -0.30959514 -0.2099038 0.37837383
-0.13356334 -0.04119294 0.11260995 -0.2043532 0.17226568 -0.06116009 -0.041138396 -0.059492692
-0.19774126 -0.07647463 0.01954034 -0.27219564 -0.35677797 -0.27407765 0.30886373 -0.22294208
-0.1030076 0.2739103 0.19948252 -0.068761095 -0.034491383 0.42024988 0.40216932 0.13976416
0.10344736 0.3424739 -0.7880552 0.13257457 -0.20245092 -0.319903 0.09664325 -0.26861912

rnn.bias_ih_l1 f4 [8]
00000000: 4999 e03d 28a4 803e a11e 023e cf5a 6a3e
00000010: 25d2 8bbe 07a2 27bd 0f5b 193c 4a88 393c
0.10966737 0.2512524 0.12706997 0.22886203 -0.27308765 -0.040926006 0.009360089 0.011323998

rnn.bias_hh_l1 f4 [8]
00000000: 50ff cc3d ca96 c7be a21c 87be b925 d23c
00000010: 55a4 48bd e040 ed3c 8f59 13be 8307 ac3d
0.100096345 -0.3898223 -0.26389033 0.025652753 -0.048984844 0.028961599 -0.14389633 0.0839987

fc.weight f4 [2, 40]
00000000: 1daa 003e 847c 8f3c 1b19 723d e749 c83c
00000010: e846 053e 2c5a 66be eb6d 5f3d e87b 64bc
00000020: ab61 873d c24d 3e3c e6b7 1b3c abe7 223e
00000030: 5295 54bd c034 3bbe a53c 89bc 2dec cebc
00000040: 49ec c2bc f9e5 683d cb4d 51bd 3673 313d
00000050: 29ac 5e3d fb83 00be d6e0 fcbd af59 953c
00000060: ce9f cebd a110 0ebe 9ef2 babd 491f 03bd
00000070: 20f8 393d 3036 d1bd aa5f 19bd 9c71 59bd
00000080: 79c6 4cbd 8e5c 27bd 8bcc c7bd 8471 8d3c
00000090: 9843 933d c7f1 25be 040e 18bd 8211 783d
000000a0: ae92 b1bc 9538 163c 9d04 7ebd 496b 2d3e
000000b0: 02cb 053e 41e8 dd3d 16ae 0dbe 677c 9cbd
000000c0: a841 c13d 157d c1bd de5c 033e fe6a edbd
000000d0: 35b6 2cbe f825 cf3d 01de febc c5b2 44be
000000e0: 6cb4 2e3d 4f95 983d f08f a63d a06d 26be
000000f0: 4363 ce3d c4bb f6bc 15fb e33b 405c f03d
00000100: 26f9 39be 6762 273e 5cd5 c53d 3a8d babd
00000110: e093 b4bd 5d45 a9bd 7d99 81bd 17aa 2fbe
00000120: 5797 0ebf ed9a 953d 381b 943e 80ef 1fbe
00000130: 00d4 ad3d 6aaf c2bd ec18 8ebd 1858 413d
0.12564893 0.017515428 0.059105974 0.024449302 0.1301533 -0.22495335 0.054548185 -0.013945557
0.066104256 0.011615219 0.009504294 0.15908687 -0.051900215 -0.18281841 -0.01675255 -0.025259102
-0.02379431 0.056859944 -0.05109958 0.043322764 0.054363403 -0.12550347 -0.123475716 0.018231241
-0.10089074 -0.13873531 -0.09128307 -0.032012258 0.045402646 -0.102154136 -0.037444748 -0.053086862
-0.049993966 -0.04085975 -0.0975581 0.017266043 0.07190627 -0.16205512 -0.03712274 0.06056357
-0.021676388 0.009168764 -0.06201612 0.16935457 0.13065723 0.108353145 -0.1383594 -0.07640915
0.09436351 -0.09447686 0.12828395 -0.11592673 -0.16866381 0.10114664 -0.03111172 -0.1920882
0.042652532 0.07450353 0.08132923 -0.16252756 0.100775264 -0.03011883 0.0069574215 0.11736345
-0.18161449 0.16346131 0.09659836 -0.09108968 -0.088172674 -0.08265183 -0.06328104 -0.17154728
-0.55699676 0.073049404 0.28927016 -0.15618706 0.084877014 -0.09506114 -0.06938347 0.047203153

fc.bias f4 [2]
00000000: e9d7 033e ad35 9f3d
0.12875332 0.0777391
