model/checkpoint/train_sparse_feedback_dict_batch250_epoch_300\210_loss123.pt (torch, 4899 bytes, 10 tensors)

rnn.weight_ih_l0 f4 [8, 3]
-0.029731106 0.65281975 -0.34740338 0.037951816 0.052646227 -0.7747498 0.028434671 0.53756183
-0.06466213 0.04819672 0.3180355 0.107038036 0.00451452 0.2551027 0.2811914 0.003069243
0.5275629 0.2862474 -0.031989604 0.04087997 -0.870034 0.13845104 -0.2129914 -0.18226407
00000000: a68e f3bc 321f 273f dbde b1be 5d73 1b3d
00000010: 92a3 573d 0156 46bf d4ef e83c a79d 093f
00000020: 946d 84bd ed69 453d 8dd5 a23e c236 db3d
00000030: 8aee 933b d29c 823e 52f8 8f3e 5a25 493b
00000040: 5d0e 073f 058f 923e 8807 03bd c171 273d
00000050: 8cba 5ebf 1cc6 0d3e 6b1a 5abe 6fa3 3abe

rnn.weight_hh_l0 f4 [8, 8]
-0.2734363 0.07881972 -0.08851398 0.44491827 -0.18933944 0.17785624 -0.3473233 -0.08771946
0.37280673 -0.48242128 -0.17042969 -0.27808428 0.018797722 -0.28945875 -0.03968765 0.035366442
0.450424 -0.30764142 0.10490591 0.08669626 -0.1639909 0.3473158 0.035770997 -0.05139994
0.26229125 -0.18975234 -0.46471736 -0.463427 -0.28186122 -0.028439961 -0.3202742 -0.17757295
-0.40830418 0.028865345 0.00076920714 -0.4777466 0.1658432 -0.5748648 0.12325369 0.048808716
-0.06945552 -0.10235977 -0.4202381 0.10161948 0.11220198 -0.3986262 -0.17002131 -0.06614397
0.17481333 -0.32310426 0.12792306 0.02753889 -0.16634645 0.40303698 -0.2799842 0.16116506
0.44901198 -0.035289634 -0.06271821 -0.2338278 -0.33787003 0.2538 -0.0002274414 -0.22277416
00000000: d8ff 8bbe 3c6c a13d d146 b5bd 54cc e33e
00000010: 33e2 41be f21f 363e 5cd4 b1be 43a6 b3bd
00000020: 86e0 be3e ecff f6be 1f85 2ebe 1061 8ebe
00000030: aefd 993c f033 94be 848f 22bd 67dc 103d
00000040: f99d e63e 2d83 9dbe e9d8 d63d cf8d b13d
00000050: 3bed 27be 60d3 b13e 9c84 123d be88 52bd
00000060: 0a4b 863e 704e 42be 6fef edbe 4e46 edbe
00000070: 1d50 90be ecfa e8bc fbfa a3be afd5 35be
00000080: 3f0d d1be 0477 ec3c 9ea4 493a 349b f4be
00000090: cdd2 293e 572a 13bf 6e6c fc3d a6eb 473d
000000a0: b23e 8ebd 00a2 d1bd 7329 d7be e01d d03d
000000b0: 27ca e53d bc18 ccbe 111a 2ebe 7d76 87bd
000000c0: 4402 333e ec6d a5be 43fe 023e 3d99 e13c
000000d0: b956 2abe dd5a ce3e 175a 8fbe 7408 253e
000000e0: e6e4 e53e dd8b 10bd 6872 80bd 8e70 6fbe
000000f0: 4dfd acbe 13f2 813e 567d 6eb9 e91e 64be

rnn.bias_ih_l0 f4 [8]
0.3253928 -0.37873262 0.10588752 0.49560836 -0.1531485 0.35250062 -0.19696447 0.2318788
00000000: e399 a63e 3ee9 c1be 8edb d83d 61c0 fd3e
00000010: f6d2 1cbe f67a b43e 0eb1 49be a371 6d3e

rnn.bias_hh_l0 f4 [8]
0.22791603 -0.16167146 0.46780354 0.3052656 0.49248266 0.08263368 -0.06996568 0.12883635
00000000: d262 693e 348d 25be f283 ef3e c64b 9c3e
00000010: b026 fc3e d93b a93d 2b4a 8fbd aded 033e

rnn.weight_ih_l1 f4 [8, 8]
-0.08549351 0.1796554 0.04442901 0.3786369 -0.015972145 -0.07636221 0.26346734 -0.13874967
0.06493006 0.035827387 -0.086455114 0.21816218 0.11340738 -0.12695338 -0.0132450545 -0.059341304
-0.10001399 0.107424125 -0.20871213 0.29958478 0.21591546 -0.23761846 0.20060238 -0.044291627
-0.3478869 0.079345696 0.24203119 -0.14812963 -0.11542208 -0.24068338 0.17333248 -0.046226654
-0.2740963 0.24539514 -0.3208308 -0.07177901 -0.10932698 -0.25529382 -0.09273101 -0.045834593
0.47146463 0.094670944 0.3262714 -0.040597018 0.25472888 0.120359175 -0.094055265 -0.03701645
-0.27258858 -0.14892524 -0.16296475 0.15067472 -0.04490135 0.15576845 -0.30495945 -0.10480349
-0.03497787 0.10740421 0.0011875833 -0.12856045 0.1121113 -0.14708036 0.19457477 0.07354258
00000000: 3917 afbd 96f7 373e 32fb 353d b2dc c13e
00000010: 04d8 82bc ca63 9cbd 31e5 863e 6514 0ebe
00000020: 0dfa 843d bdbf 123d 610f b1bd e865 5f3e
00000030: 2142 e83d 1100 02be c901 59bc de0f 73bd
00000040: 23d4 ccbd 2e01 dc3d a2b8 55be 2d63 993e
00000050: f118 5d3e 4152 73be b66a 4d3e 236b 35bd
00000060: 3b1e b2be ff7f a23d 06d7 773e 4baf 17be
00000070: 6962 ecbd b475 76be 127e 313e 2958 3dbd
00000080: 5a56 8cbe dd48 7b3e ef43 a4be e000 93bd
00000090: d3e6 dfbd dfb5 82be c1e9 bdbd 0ebd 3bbd
000000a0: d063 f13e d7e2 c13d 0c0d a73e 0f49 26bd
000000b0: d36b 823e df7e f63d 0ca0 c0bd 909e 17bd
000000c0: bb90 8bbe dc7f 18be 3be0 26be 794a 1a3e
000000d0: 7aea 37bd c481 1f3e a523 9cbe 36a3 d6bd
000000e0: f444 0fbd bdf6 db3d afa8 9b3a 5aa5 03be
000000f0: 9c9a e53d 3c9c 16be 9c3e 473e 7e9d 963d

rnn.weight_hh_l1 f4 [8, 8]
0.010660867 -0.4284828 0.05589168 0.3103931 -0.30353615 -0.043900933 0.35326594 -0.015670437
0.35303223 -0.7704611 -0.018318733 -0.0009917924 -0.28348282 -0.14310418 0.032362986 0.060933486
0.12511848 0.29315236 -0.20684253 0.35672495 -0.5870615 0.060176793 0.17035861 -0.4266126
-0.46942657 -0.031128753 0.01763872 0.23084651 -0.27909604 -0.01041595 0.24346195 -0.50749165
0.08830309 0.36874998 -0.1097449 0.31679434 -0.5209767 0.10866469 0.0043453765 -0.10646799
-0.16669054 0.13458198 0.21728055 -0.57843363 0.38700345 -0.39050555 0.37386334 0.12571336
-0.004602675 0.025486989 -0.15432806 0.16530372 0.1391711 -0.33368698 -0.0004608798 0.52944326
0.14995706 0.059676964 0.12977885 0.46953532 -0.081678785 -0.15648699 0.33395064 0.024697185
00000000: ebaa 2e3c 1962 dbbe adee 643d d8eb 9e3e
00000010: 1769 9bbe 77d1 33bd 46df b43e 4a5f 80bc
00000020: a4c0 b43e f03c 45bf 2b11 96bc 08ff 81ba
00000030: a924 91be e789 12be 0d8f 043d 6495 793d
00000040: 0f1f 003e 1118 963e 87ce 53be a7a4 b63e
00000050: aa49 16bf f17b 763d 7d72 2e3e f76c dabe
00000060: ae58 f0be ba01 ffbc 147f 903c 0763 6c3e
00000070: ade5 8ebe a9a7 2abc 174e 793e f9ea 01bf
00000080: 40d8 b43d cccc bc3e efc1 e0bd de32 a23e
00000090: bb5e 05bf 988b de3d a963 8e3b e40b dabd
000000a0: edb0 2abe dccf 093e cb7e 5e3e 3a14 14bf
000000b0: 5125 c63e 58f0 c7be 046b bf3e 01bb 003e
000000c0: 09d2 96bb 17ca d03c 2d08 1ebe 6145 293e
000000d0: de82 0e3e 05d9 aabe 3da2 f1b9 9889 073f
000000e0: 588e 193e d56f 743d bfe4 043e ef66 f03e
000000f0: 3547 a7bd 203e 20be 94fb aa3e c051 ca3c

rnn.bias_ih_l1 f4 [8]
-0.049763866 -0.15842411 0.038748205 -0.09613119 -0.23794714 0.16848414 -0.12377632 0.2979609
00000000: 32d5 4bbd ee39 22be 70b6 1e3d 6ee0 c4bd
00000010: 6aa8 73be 1b87 2c3e 707e fdbd 558e 983e

rnn.bias_hh_l1 f4 [8]
0.09544603 0.1225732 -0.12158943 0.16792852 0.16566725 0.108650416 -0.11990075 -0.19868642
00000000: 3579 c33d a807 fb3d e103 f9bd 74f5 2b3e
00000010: ada4 293e 1c84 de3d 868e f5bd 7474 4bbe

fc.weight f4 [2, 256]
-0.05360967 -0.025436144 0.05449034 -0.009591151 0.028640034 0.04339884 0.0458967 -0.045830775
0.00616847 -0.071156874 -0.02487721 -0.065594725 -0.022499656 0.03447311 0.02356111 -0.046811406
0.0018737152 -0.020344377 -0.047197394 -0.04398217 -0.016938489 0.011987696 0.05845664 7.2416537e-06
-0.009764266 0.004222255 -0.05374869 -0.010409537 -0.044989035 0.008780708 0.04969886 -0.018933209
-0.0054880828 -0.00017235195 -0.05315929 -0.017233757 -0.026269568 0.011368294 0.06189088 -0.028868368
0.018303618 -0.006219714 -0.05968888 0.004656982 -0.02979467 0.0018572219 0.045996215 -0.020054515
3.1302438e-06 -0.096237935 0.00095747615 0.026981622 -0.07972666 0.019013518 0.038811978 -0.0502344
-0.01034461 -0.07246059 -0.0125298025 0.010991361 -0.0807492 0.023757296 0.054382075 -0.06318621
0.024305267 -0.030201044 -0.073218055 0.008648662 -0.04842661 -0.00461401 0.0628337 -0.051615003
0.020277085 -0.004288009 -0.056901325 0.013215255 -0.055923525 -0.0045175827 0.03614796 -0.05392885
-0.022859754 -0.0152564 -0.020350667 0.05449818 -0.07802563 0.018725766 0.047224853 -0.0734952
-0.00488869 -0.011034168 -0.049657747 0.031464066 -0.097318895 0.021143632 0.04206578 -0.07777761
0.0077911746 -0.015067776 -0.06426905 0.0025518916 -0.082901776 0.036807504 0.038053054 -0.068673044
-0.017027358 0.038209014 -0.04938674 0.023770366 -0.09462237 0.039392654 0.04499657 -0.046962317
0.027313191 -0.01908009 -0.052935023 0.030602012 -0.07522175 0.013547667 0.051513884 -0.012924551
-0.012702135 -0.019249577 -0.010224236 0.01771369 -0.07468685 0.05221178 0.001953631 -0.0855822
0.0005553987 0.0041697496 -0.023939937 0.043174867 -0.07421708 0.026341336 0.046813518 0.00083418895
0.020496901 -0.023645526 -0.032981295 0.021576393 -0.06795495 0.017897565 0.0052422388 -0.06289224
0.0034273802 -0.0044202497 -0.009524739 0.023528956 -0.043812606 0.025910458 0.008422095 -0.0076195505
-0.028656345 0.058817662 0.011223436 0.036287293 -0.04070169 0.03083462 0.0048991716 -0.042709727
0.0310186 0.009454756 -0.046086527 0.022023106 -0.048272237 0.006363215 -0.014309262 -0.006956917
-0.0154584665 0.024740022 0.00941382 0.005949066 -0.046326667 0.044304073 -0.020359442 -0.021251136
0.006881248 0.03899581 -0.024499841 0.026734876 -0.028295474 0.003576941 0.0078022094 0.028926088
0.054896023 -0.0032697294 -0.018527042 -0.023536826 0.025981605 -0.009337045 -0.03548717 0.026734935
-0.011769264 0.01615436 0.062035453 0.02277543 0.014793744 0.018667314 -0.059831496 0.025790466
-0.00048791317 0.03199853 0.030268362 -0.0106166415 0.024775766 0.005973956 -0.03486602 0.025709677
0.042889245 0.060332272 -0.030932376 -0.009983785 0.02265298 -0.029807176 -0.053659175 0.045804262
0.023756607 0.04937103 0.010521129 -0.03539007 0.06357861 -0.026111623 -0.038850833 0.068471104
0.0032494052 0.038478404 0.074344724 -0.013877239 0.09489344 -0.009333895 -0.06925033 0.066433884
-0.034623876 0.042798568 0.08263229 0.0040733432 0.054338656 -0.014462451 -0.041898057 0.032801315
0.025929073 0.035334162 0.028651902 -0.0630512 0.09829672 -0.024889382 -0.05618022 0.054847438
-0.020225776 0.069939114 0.03981984 0.03319776 0.0021091565 -0.011826442 -0.03668041 0.059956226
00000000: d095 5bbd 765f d0bc 4331 5f3d 3424 1dbc
00000010: 819e ea3c fbc2 313d 2efe 3b3d 0db9 3bbd
00000020: e020 ca3b b2ba 91bd 4acb cbbc 8756 86bd
00000030: 3351 b8bc ad33 0d3d 3b03 c13c 51bd 3fbd
00000040: 7397 f53a 40a9 a6bc 0e52 41bd a626 34bd
00000050: 96c2 8abc 0b68 443c 3b70 6f3d 55fd f236
00000060: 4dfa 1fbc d85a 8a3b 9627 5cbd c38c 2abc
00000070: 6c46 38bd f5dc 0f3c 0891 4b3d d119 9bbc
00000080: 60d5 b3bb 60b9 34b9 8ebd 59bd cf2d 8dbc
00000090: 4733 d7bc 1542 3a3c 4b81 7d3d 5b7d ecbc
000000a0: 78f1 953c bece cbbb 547c 74bd 9999 983b
000000b0: f413 f4bc 076e f33a 8766 3c3d 5e49 a4bc
000000c0: 2e11 5236 6518 c5bd 23ff 7a3a 9008 dd3c
000000d0: bb47 a3bd 3dc2 9b3c 4ff9 1e3d 96c2 4dbd
000000e0: 707c 29bc 3866 94bd cd49 4dbc 1c15 343c
000000f0: d65f a5bd a99e c23c bdbf 5e3d c667 81bd
00000100: d71b c73c 2e68 f7bc 59f3 95bd 1eb3 0d3c
00000110: fb5a 46bd 1f31 97bb f4ae 803d 416a 53bd
00000120: 211c a63c 6d82 8cbb 5d11 69bd cc84 583c
00000130: 1110 65bd 3b08 94bb e20f 143d 7fe4 5cbd
00000140: 6144 bbbc fbf5 79bc 71b6 a6bc 7c39 5f3d
00000150: e7cb 9fbd c766 993c d96e 413d a784 96bd
00000160: 4e31 a0bb a8c8 34bc ec65 4bbd 77e0 003d
00000170: 214f c7bd 6935 ad3c 2b4d 2c3d de49 9fbd
00000180: 1c4d ff3b d5de 76bc 7e9f 83bd a33d 273b
00000190: 68c8 a9bd 77c3 163d 85dd 1b3d 74a4 8cbd
000001a0: f57c 8bbc 0e81 1c3d c049 4abd 12ba c23c
000001b0: 60c9 c1bd 315a 213d 534e 383d 8f5b 40bd
000001c0: eabf df3c d94d 9cbc 65d2 58bd 12b1 fa3c
000001d0: dc0d 9abd 09f7 5d3c 3900 533d 7fc1 53bc
000001e0: 9e1c 50bc 4ab1 9dbc 8e83 27bc 4d1c 913c
000001f0: 6bf5 98bd 05dc 553d 7d08 003b b845 afbd
00000200: 2d98 113a 65a2 883b b01d c4bc 21d8 303d
00000210: 20ff 97bd c9c9 d73c 88bf 3f3d 79ad 5a3a
00000220: 1ee9 a73c 43b4 c1bc 6517 07bd fac0 b03c
00000230: f72b 8bbd ea9d 923c 16c7 ab3b a6cd 80bd
00000240: e69d 603b bed7 90bb a70d 1cbc ccbf c03c
00000250: d974 33bd 2b42 d43c d4fc 093c 6cad f9bb
00000260: b6c0 eabc caea 703d 81e2 373c fca1 143d
00000270: d1b6 26bd e398 fc3c 3b89 a03b 65f0 2ebd
00000280: b81a fe3c 1fe8 1a3c 3ac5 3cbd cd69 b43c
00000290: 1cb9 45bd 8482 d03b 6571 6abc d9f6 e3bb
000002a0: 8245 7dbc 96ab ca3c 6c3c 1a3c 62f0 c23b
000002b0: 08c1 3dbd 3078 353d d8c8 a6bc dd16 aebc
000002c0: 187c e13b 12ba 1f3d e4b3 c8bc 1903 db3c
000002d0: e9cb e7bc 1d6b 6a3b ada9 ff3b 67f6 ec3c
000002e0: a7da 603d f548 56bb 06c6 97bc 4dd0 c0bc
000002f0: 60d7 d43c 68fa 18bc ff5a 11bd 3903 db3c
00000300: dfd3 40bc 2656 843c e318 7e3d 8a93 ba3c
00000310: 7661 723c 32ec 983c df11 75bd 8746 d33c
00000320: 99ce ffb9 e410 033d 5bf5 f73c 6cf1 2dbc
00000330: 8cf6 ca3c 2dc1 c33b accf 0ebd 1a9d d23c
00000340: a2ac 2f3d f91e 773d e565 fdbc 0893 23bc
00000350: be92 b93c 2e2e f4bc b9c9 5bbd 409d 3b3d
00000360: 379d c23c 4739 4a3d d060 2c3c 2ef5 10bd
00000370: 8135 823d 0be8 d5bc 0d22 1fbd 943a 8c3d
00000380: f9f3 543b 889b 1d3d 0c42 983d 5c5d 63bc
00000390: 7e57 c23d 31ed 18bc 1ed3 8dbd 7d0e 883d
000003a0: c4d1 0dbd 8d4d 2f3d 1e3b a93d ae79 853b
000003b0: 3692 5e3d ebf3 6cbc 4c9d 2bbd ac5a 063d
000003c0: 3569 d43c 8eba 103d 65b7 ea3c fd20 81bd
000003d0: ca4f c93d d1e4 cbbc 3b1d 66bd b5a7 603d
000003e0: 87b0 a5bc 3d3c 8f3d 211a 233d 60fa 073d
000003f0: c639 0a3b b1c3 41bc 333e 16bd a994 753d

fc.bias f4 [2]
0.00080717285 -0.08922423
00000000: 7498 533a 31bb b6bd
