model/checkpoint/train_sparse_feedback_dict_batch250_epoch_300\180_loss123_2.pt (torch, 4899 bytes, 10 tensors)

rnn.weight_ih_l0 f4 [8, 3]
00000000: 5b1d 2ebc 4b67 653e 9406 ca3e 1a4f 78bb
00000010: 8d6b b7be 86d4 ee3e aec5 883d 6c99 e93e
00000020: 0c0c d73e 584c 68bd 56b5 033f 5479 b4be
00000030: 7b71 0abb 295e d2be 9d44 c9be e33e 3a3d
00000040: cc4f 6dbe 96af 1c3f 89fe 853b 7373 b2be
00000050: b5d9 35be 728b 0b3d b546 37be 832a e03d
-0.010627116 0.22402684 0.39458144 -0.0037888945 -0.35824242 0.46646518 0.066783294 0.45624864
0.4200138 -0.056713432 0.5144857 -0.35248816 -0.0021124769 -0.41087463 -0.3931016 0.04547013
-0.23174971 0.6120542 0.004089181 -0.34853706 -0.1775883 0.034068532 -0.17898066 0.109456085

rnn.weight_hh_l0 f4 [8, 8]
00000000: a949 84be d813 203d a158 7dbe cd25 553e
00000010: 0795 cb3e 3643 2b3e efb4 da3d cd53 9abd
00000020: a038 a2be 7f85 e63d 6ff1 6c3d fd2b 053e
00000030: 05a4 f33e d0cd 22bd 03dc b33d 37ef 6b3c
00000040: a322 9f3e 6d19 f1bd 33fe c33e 9efb 9e3d
00000050: 3f7d 523e 38eb 19be ceef 0bbe 52ea 1b3e
00000060: 567b 5dbe 9601 d3be e691 943d 91a6 42be
00000070: 7f88 30bd 131d 49bd 0bed 1abe 029f e53d
00000080: 715d 2c3d 493e b43d fbee 10bd 7a97 5bbe
00000090: 48c8 a63d ebae e8bd ee1e d9bd e5de 7f3e
000000a0: 7eb0 853e 74d2 343e 028e 9e3e 35d7 63b9
000000b0: ed3e 03be 0924 85be 54f4 9d3e 2bd1 d7bd
000000c0: 6b13 8d3d c532 96be 13c8 963e d36a 48be
000000d0: 1f33 233e 6e41 7dbe 4eff 2d3e 1ccd b7bd
000000e0: a344 883e 6ff6 553e 41ee 33be cd75 5d3e
000000f0: bf47 2cbe 7aa9 573e 7b3c a83d 3b57 40bd
-0.25837448 0.039081424 -0.2474084 0.20815201 0.39762136 0.16724858 0.106790416 -0.07535515
-0.31683826 0.11255931 0.057847437 0.13005061 0.47586074 -0.03974706 0.08782198 0.014400295
0.31081113 -0.11772428 0.38279876 0.07762836 0.2055559 -0.15031135 -0.13665697 0.15226105
-0.2162908 -0.41212147 0.072543904 -0.19008853 -0.043098923 -0.049099993 -0.15129487 0.11211969
0.0420813 0.088009425 -0.03538416 -0.21444502 0.08143669 -0.11361488 -0.106016025 0.24987371
0.26111215 0.17658406 0.30967718 -0.00021728578 -0.12816973 -0.26004055 0.3085047 -0.105379425
0.06888469 -0.2933561 0.2944952 -0.19572 0.1593747 -0.2473199 0.16991922 -0.089746684
0.26614866 0.20894788 -0.17571355 0.21626969 -0.16824244 0.21060744 0.08214661 -0.04695819

rnn.bias_ih_l0 f4 [8]
00000000: c23a d0bc 603f 2fbe bba2 00bf 15bd f3bd
00000010: 0897 c1be 24ce 51be de4a 8d3b cf77 d2be
-0.025418643 -0.1711402 -0.50248307 -0.11901299 -0.3781054 -0.20488793 0.0043119034 -0.41107032

rnn.bias_hh_l0 f4 [8]
00000000: 9f2c 203e 4f72 4fbe 306e 87bd 71eb 413e
00000010: 3f9e 8bbe 2107 0e3e 3284 3ebd 1adf c2be
0.15642022 -0.20258449 -0.066128135 0.1893747 -0.2726917 0.13869907 -0.04651279 -0.38060838

rnn.weight_ih_l1 f4 [8, 8]
00000000: e578 e4bd 09f4 89bd e79b 433e 87c5 89be
00000010: 0708 9cbe 84a7 b23d f628 c1bd fb75 9e3d
00000020: 59b7 10bd 49df bdbe 31a2 34bb 97c2 283d
00000030: 8f45 c9be 9b8a 4a3c 390e 343e 01db 9c3d
00000040: 36fc e1bd 6b19 42be 958b b7be d150 583e
00000050: f0d3 31be f9e1 9ebe 84c8 553e 1219 f7bc
00000060: 6c3a d33d 1904 9e3e 8c61 4dbd cc88 2c3e
00000070: 4c78 7d3e 6459 803e f7e7 443e 765a 4bbe
00000080: ac45 0a3e f0d2 dbbe 265e 44bd 8853 563e
00000090: 3d3d 66be a892 223e 2f2d 7ebe b937 37be
000000a0: 14f2 86bd 3474 0c3e de4e 9fbb efc0 90be
000000b0: 395d cfbd 55cb 0bbe 5484 013d 09a6 3dbe
000000c0: bad2 e03d f4b7 0d3f 941c a53d 7142 c7bd
000000d0: 7a81 1d3e ba06 d03c 43ae 1b3e 00f5 273d
000000e0: b920 34be c6e9 e03c ba84 ab3d 12c6 d2bd
000000f0: 74da ccbe ef33 8fbe d503 94bd 7002 433e
-0.11155871 -0.06735999 0.19102441 -0.26908514 -0.30474874 0.08723357 -0.09431641 0.07737347
-0.035331104 -0.37084416 -0.0027562494 0.0412012 -0.39310881 0.012362148 0.1758355 0.07658959
-0.110344335 -0.18955009 -0.3584868 0.21124579 -0.17366004 -0.31031778 0.20877272 -0.030163322
0.103138775 0.308625 -0.050141856 0.16849059 0.24752921 0.250682 0.19229113 -0.19858727
0.1350314 -0.4293437 -0.04794135 0.20930302 -0.22484298 0.15876257 -0.24821924 -0.1789235
-0.065891415 0.13716203 -0.0048616966 -0.28272197 -0.10125203 -0.13651784 0.03162034 -0.18520369
0.10977693 0.55358815 0.080620915 -0.097294696 0.15381423 0.025393832 0.15203194 0.041005135
-0.17590608 0.027455222 0.08374925 -0.10291685 -0.40010417 -0.2796931 -0.072272934 0.19043899

rnn.weight_hh_l1 f4 [8, 8]
00000000: 5d39 62bd bf72 c5be a6fc b53e d7de 4f3e
00000010: 6dbc b13e 29e8 113f 01a0 5ebe fe96 14be
00000020: dfdf f53c 6520 87be 3da0 86bd a603 d23e
00000030: 1fad 19bd f223 803d 68ac 55be 2297 fc3d
00000040: 2e70 afbd 8227 953e 6b31 62be 0097 133d
00000050: b78f b5bb 0d74 3ebe 87ea dd3d 2bcb 263e
00000060: ba7e 0d3e 0f12 ce3d b1e5 65bd e49d cfbe
00000070: 1503 b03e b90a af3d c5a1 ee3c 453f 9fbe
00000080: 94d6 84bd 4b0c 943c a5c8 c5bc 66f8 61be
00000090: fc04 0fbf a484 adbd 3968 a73d 612f 75be
000000a0: 8179 43be 84d9 bf3d 8441 91bd bcec 8cbe
000000b0: cfe3 1cbe 6eb8 dbbe 7ed0 273e 86b3 1e3e
000000c0: d9cb 553d 1b37 e03e 32c4 943e 0f1c 5f3d
000000d0: 5bc0 713e 120c d8bd d9d7 5fbe 1afa eabd
000000e0: 4425 1b3e 03f2 16be d6b2 5c3d 8a0b 463e
000000f0: e15e 1ebe 2ada 313e aec7 dfbd 1611 10bf
-0.055230487 -0.38564107 0.35544318 0.2029985 0.3471407 0.56994873 -0.21740724 -0.14510724
0.030013977 -0.26391903 -0.06573532 0.4101841 -0.037518617 0.06256856 -0.20866549 0.12333514
-0.085663185 0.29131705 -0.22089164 0.036032677 -0.005540814 -0.18598957 0.10835748 0.1628844
0.13817874 0.10062038 -0.056127254 -0.40550148 0.3437735 0.08546967 0.029129872 -0.31102958
-0.0648624 0.018072268 -0.024143526 -0.22067413 -0.5586698 -0.08472565 0.08174176 -0.23943855
-0.19089319 0.0936766 -0.07092574 -0.27524364 -0.15321277 -0.42914146 0.16388127 0.1549817
0.052196357 0.43792042 0.29055935 0.054470118 0.23608534 -0.10549177 -0.21859683 -0.11473484
0.15150934 -0.14740758 0.05388149 0.1934034 -0.15465881 0.17368379 -0.10926758 -0.5627607

rnn.bias_ih_l1 f4 [8]
00000000: a7dc 3f3e 8c4b 65bd 82eb fabd 510e 033e
00000010: f65a a3bc 9e48 b8be e872 a1bd 420b 43bd
0.18736516 -0.05598025 -0.12251951 0.1279843 -0.019940834 -0.35992903 -0.07883245 -0.04761816

rnn.bias_hh_l1 f4 [8]
00000000: 58bd 09be c307 b73d 516e e5bd 4a8f 8abe
00000010: d7bd 213e 51f3 e13d 7653 baba 4bc0 3e3e
-0.13451135 0.08937027 -0.11202682 -0.27062446 0.15795074 0.11032737 -0.0014215547 0.18628041

fc.weight f4 [2, 256]
00000000: 0587 6ebc 943a 213c 98c1 d73c daae 463d
00000010: 8afa e7bd e478 05bd caba 283d 7127 9bbd
00000020: d259 ccbb 2f0b 18bd 268b 87bc a221 ba3c
00000030: 2796 bc3c b2c5 dc3b 07a2 aa3c 3e74 babc
00000040: 123c 8e3b c2ba 0fbd bb1a 633c 421c 503d
00000050: 3458 4fbc 4087 d1bc 1dbe 0e3c d7a8 bbbc
00000060: 990a 143c b5ba 96bd 903b b2bc 8cb4 f23c
00000070: ba39 0abc 3709 37bb 5fa6 80bc 6839 c5bb
00000080: ae2a fe3b a19c 123d c0c9 de3c a6e5 d53c
00000090: 86c3 103d 85b9 c43b 9c2f 0f3d d302 0fbc
000000a0: c950 73bb b7ba dcbc d21c 8ebc 483f 073d
000000b0: 99e9 e83b dad2 7e3b 152e 8ebc 5f80 b53c
000000c0: 3f94 973c 045a 9bbc de8e a63b 0bc2 d43b
000000d0: 5543 283d e301 273c cc5b 8e3c ceed e1bb
000000e0: 67b6 c53a 580b b4bc 3ece 76ba 9ac8 d8bc
000000f0: e4e9 4c3d e541 33bb 6c93 093d 89f4 63bc
00000100: 7c38 f83b 4d0d 033c 6ba7 24bc a3c5 81bb
00000110: 9a57 1d3d ebf2 933b b05a a83c 7909 45bc
00000120: 3fa5 b13c ad1b 6abc 4f78 9a3c 39ed 08bd
00000130: 3063 533d f649 81bc 5732 113d 5b47 bfba
00000140: c819 873c 68f7 873c a4df aebc 7aa6 3cbc
00000150: c669 843d 752f 983c 7724 d43c 5b8f 3f3c
00000160: 44b0 103d 7dff 033c 9210 223d 6c0e 56bd
00000170: 48ab 9e3d dcb2 90bc 879e 783d ef98 9abc
00000180: 1683 dfba f33d 303d a729 43bc ab6b 86ba
00000190: 37bb 573d 32e1 33bc 5412 4ebb 221c 523d
000001a0: 4f53 493d ebb7 35bc 7c75 273c 55a6 3bbc
000001b0: 4c14 9e3d 2eea 423b 6a9d 6bba e071 bb3c
000001c0: 3722 313c cc34 153d b914 183c ff7b 7fbd
000001d0: 4908 af3d 082c a6bc 358d 153d 8118 943c
000001e0: 64b5 143d 0a1b 5f3c 468d 443b 702e 7bbc
000001f0: 899a c73d 04aa b93c 0eae 1cbb e133 3b3d
00000200: b020 bb3b 515d 073d bbb8 86ba 7520 88bd
00000210: 1d5b be3d 95aa 20bc bd6f 1e3d c96b e93c
00000220: 6c0b 143d dc5e e2bb cb5d d03b da79 05bd
00000230: aac6 a03d 81ea eebb 6c18 473b d25e ee3c
00000240: 9835 f93b 11aa 303d b66c 143c 675d 3bbd
00000250: 0582 a43d 1077 edbc 0649 183c d0ff 333d
00000260: d1e6 093d 4ec8 923c b7bb e2bb da4f 993b
00000270: 8988 ad3d dae6 d53b 641b fdbc b4f0 723d
00000280: cf94 133c 8284 7e3d 6bde 983c 4165 dbbc
00000290: ab51 a53d c350 f0bc c15a b83a f68f 663d
000002a0: 31ce d53c 3965 173c e71e 7fbc e67a 6b3c
000002b0: b05f 8a3d fcf9 0f3c b014 6fbd f29a 933d
000002c0: edfa 943c 287a e93c a576 07bb ee2c 76bd
000002d0: 46ee a33d 15f9 4fbc 7c9e 0c3c 905c ab3c
000002e0: 3419 ae3c 1cfd 5f3d 3dd5 bb3c e45d c8bc
000002f0: d79b 9e3d f7a0 7fbc 25af fcbb aa67 173d
00000300: ef09 b03b 4553 f13c 6966 d3bb cd04 593c
00000310: 2862 363d 6323 81bc e3d2 85bd 4c5e 9e3d
00000320: b78a 433c a802 2f3d 4400 8e3b d5e9 763c
00000330: 974b a63d ae79 ce3b 8a54 3ebd bc68 ab3d
00000340: cba4 823b 202b 09bc 7e74 69bc 0cfa 4e3c
00000350: df87 433d b703 fb3a 7151 46bd 7ee6 6b3d
00000360: 62b0 87ba f6b9 a33c 5da7 4fbb 82d3 b1bb
00000370: d1ca 963d fd73 443c 1a2b 38bc 1c90 0c3d
00000380: 5161 febb 1057 0ebc ba0a 0bbc 3584 963c
00000390: 0223 113d c552 cf3a cac0 8fbc 080f 103d
000003a0: 360b a1bc 70b1 403c 4e23 90bb 9e96 6a3d
000003b0: 72c5 673d 1b26 293c 2686 e8bc 17bf c43d
000003c0: a785 25bc 9752 9abc 23b2 0abd 1bf5 b43d
000003d0: e4b5 203d de89 2d3d a6fb 09bd b343 5c3d
000003e0: 8bbb 8cbc fe35 b9bd ec8a 10bc 5d8a 9cbc
000003f0: 29a9 91bd 1526 39bd e7d6 9a3a bed4 1bbd
-0.014558558 0.009840626 0.02633743 0.048506595 -0.113270834 -0.032585993 0.04119376 -0.07575882
-0.0062362934 -0.03712004 -0.016545843 0.022721115 0.023020817 0.0067374343 0.020829214 -0.022760507
0.004340657 -0.035090216 0.0138613535 0.0508082 -0.012655307 -0.025577188 0.008712319 -0.022907658
0.00903573 -0.0735983 -0.021756917 0.029627107 -0.008436615 -0.0027929076 -0.015704332 -0.0060188062
0.0077565527 0.035793904 0.027195811 0.026110481 0.035342716 0.006003561 0.034957513 -0.008728701
-0.003712701 -0.026944501 -0.017347727 0.033019334 0.007107925 0.0038883002 -0.017355958 0.022155939
0.018503306 -0.018963821 0.005082949 0.0064928583 0.041079838 0.010193321 0.017377757 -0.0068948036
0.0015084267 -0.021978065 -0.0009414888 -0.026462842 0.050027743 -0.0027352509 0.033587858 -0.013913282
0.007575093 0.007998777 -0.010049681 -0.0039603277 0.03841362 0.004515042 0.020551056 -0.012026184
0.02168524 -0.014288825 0.018856196 -0.03342936 0.051608264 -0.015782338 0.0354484 -0.0014593409
0.016491786 0.016597465 -0.021346875 -0.0115143005 0.06465487 0.018577317 0.025896294 0.011691893
0.03532435 0.008056519 0.039566584 -0.052259848 0.07747513 -0.017663412 0.06069806 -0.018871753
-0.0017052616 0.04302783 -0.011911786 -0.0010255476 0.052668776 -0.010978984 -0.003144403 0.05129636
0.049151715 -0.011091213 0.010220882 -0.011453231 0.07718715 0.0029741633 -0.0008987995 0.022881448
0.01081138 0.036427304 0.009282284 -0.06237411 0.08546502 -0.020284668 0.03651162 0.01807809
0.0363058 0.013617286 0.0029991432 -0.015330896 0.09746272 0.022664078 -0.0023907456 0.045703772
0.0057106838 0.033047978 -0.0010278443 -0.06646816 0.09294722 -0.009806295 0.03868078 0.028493779
0.036143705 -0.006908281 0.0063588372 -0.03258691 0.07850392 -0.0072911386 0.0030379547 0.029097948
0.007605266 0.043130938 0.009059122 -0.045743372 0.08032612 -0.028987437 0.009294754 0.043945134
0.03366739 0.017917778 -0.00691935 0.0046787085 0.08473308 0.006527764 -0.03089685 0.059311584
0.009007647 0.062138088 0.018660745 -0.02678168 0.080722176 -0.029335385 0.0014065133 0.056289636
0.026099296 0.009240442 -0.015571333 0.014372563 0.06756532 0.008787628 -0.05836934 0.07207288
0.018186057 0.028500631 -0.0020670083 -0.060101442 0.080044314 -0.012693663 0.0085827075 0.02091816
0.021252252 0.054684743 0.022928828 -0.024458833 0.07744568 -0.015602342 -0.0077113085 0.036964096
0.005372278 0.029458651 -0.006451417 0.0132457735 0.044527203 -0.015763944 -0.06534364 0.077328295
0.011934928 0.042727143 0.0043335278 0.015070398 0.08119886 0.0063011264 -0.04646734 0.08369586
0.00398693 -0.008372098 -0.014248965 0.012632858 0.047737 0.0019150887 -0.048417512 0.05759286
-0.0010352249 0.019986134 -0.003168545 -0.005426825 0.07362903 0.011990544 -0.011240745 0.03431712
-0.007763066 -0.0086877495 -0.008486444 0.018373588 0.035433777 0.0015817514 -0.017547984 0.035170585
-0.019658666 0.011761054 -0.00439874 0.057272546 0.056584783 0.010324026 -0.02838428 0.0960676
-0.010102666 -0.01883821 -0.03386129 0.08835813 0.039235964 0.04236781 -0.033687256 0.0537755
-0.017179271 -0.09043501 -0.008822184 -0.019108946 -0.07112343 -0.045202333 0.0011813313 -0.038044684

fc.bias f4 [2]
00000000: a0a0 343c 2848 c7bc
0.011024624 -0.024326399
