model/checkpoint/train_sparse_feedback_dict_batch250_epoch_300\120_loss123_2.pt (torch, 4899 bytes, 10 tensors)

rnn.weight_ih_l0 f4 [8, 3]
0	0xbc1ad983	-0.009451273
1	0x3e43fc5f	0.1913924
2	0x3ee39839	0.44452074
3	0xbb8e0da4	-0.004335122
4	0xbea5650c	-0.32303655
5	0x3eeef0db	0.46668133
6	0x3d6f7643	0.058462393
7	0x3ed02f6f	0.4066119
8	0x3ed55a0d	0.41670266
9	0xbd6eb087	-0.05827382
10	0x3f013e9c	0.5048616
11	0xbeba4139	-0.36377886
12	0xb8408fc0	-4.5910245e-05
13	0xbeae2563	-0.340129
14	0xbecaff92	-0.3964811
15	0x3d3703d8	0.0446814
16	0xbe7d18fa	-0.24716559
17	0x3f1ee923	0.6207449
18	0x3bd8e202	0.006618739
19	0xbeb8da4b	-0.36104044
20	0xbe53d019	-0.20684852
21	0x3d120b81	0.035655502
22	0xbe0a953a	-0.13533488
23	0x3d9cc66e	0.07655035

rnn.weight_hh_l0 f4 [8, 8]
0	0xbe806b3d	-0.25081816
1	0xbbee4c14	-0.007272253
2	0xbe61956b	-0.22029655
3	0x3e79acf7	0.24382387
4	0x3eaceec0	0.33775902
5	0x3e0cca68	0.13749087
6	0x3d853045	0.06503347
7	0xbdb7f1a8	-0.08981639
8	0xbe999f78	-0.30004478
9	0x3dfb02d8	0.12256402
10	0x3d2db532	0.04240913
11	0x3e0f3331	0.13984372
12	0x3ede4aff	0.43416592
13	0xbd66f2fb	-0.056384068
14	0x3d5e28b2	0.05423803
15	0x3c460249	0.012085506
16	0x3eaa96d1	0.3331819
17	0xbdb13193	-0.08652034
18	0x3eb36b7a	0.35042936
19	0x3d01dc38	0.031704158
20	0x3e48044e	0.19532892
21	0xbde29bf6	-0.110649034
22	0xbe108396	-0.14112696
23	0x3e029761	0.12753059
24	0xbe3439b1	-0.17600133
25	0xbec1b557	-0.37833664
26	0x3dce903f	0.100861065
27	0xbe2e50b3	-0.17022972
28	0x3d0a7f60	0.03381288
29	0xbd9bbb98	-0.0760414
30	0xbe0802a0	-0.13282251
31	0x3e121ee6	0.142696
32	0x3d7770a6	0.060410164
33	0x3da0f2a2	0.078587785
34	0xbd778785	-0.060431976
35	0xbe5ff419	-0.2187046
36	0x3db312e2	0.08743836
37	0xbe029758	-0.12753046
38	0xbdf27be1	-0.11840034
39	0x3e8d91ad	0.27650204
40	0x3e99c583	0.30033502
41	0x3e151866	0.14560089
42	0x3e9f45e8	0.31108022
43	0xbbbf8980	-0.0058452487
44	0xbe2bfd00	-0.1679573
45	0xbe6acfc4	-0.22930819
46	0x3e861a59	0.26191977
47	0xbde92c86	-0.11385445
48	0x3d640fb5	0.055679042
49	0xbe864722	-0.26226145
50	0x3e60d18e	0.21954939
51	0xbe582f82	-0.21111873
52	0x3e44853c	0.1919145
53	0xbe8f004b	-0.2792991
54	0x3e882434	0.2659012
55	0xbe009eb6	-0.12560543
56	0x3e86ea4b	0.26350626
57	0x3e44bd16	0.19212756
58	0xbe3471c5	-0.17621525
59	0x3e5dc9f6	0.21659073
60	0xbe15a33d	-0.14613052
61	0x3e592189	0.21204199
62	0x3d6652a7	0.056231167
63	0xbcd02672	-0.025408957

rnn.bias_ih_l0 f4 [8]
0	0xbc105c33	-0.0088110445
1	0xbe101559	-0.14070643
2	0xbedc6c87	-0.4305155
3	0xbe1444ae	-0.14479324
4	0xbeb1e83c	-0.34747493
5	0xbe379b2c	-0.17930287
6	0x3daa869b	0.08326455
7	0xbed1c0d9	-0.40967444

rnn.bias_hh_l0 f4 [8]
0	0x3e312e51	0.17302825
1	0xbe304848	-0.17215073
2	0x3bbf5a01	0.0058395867
3	0x3e278556	0.16359457
4	0xbe77dee9	-0.24206127
5	0x3e283a19	0.16428412
6	0x3d04df50	0.03243953
7	0xbec22824	-0.3792125

rnn.weight_ih_l1 f4 [8, 8]
0	0xbdfd2283	-0.12360098
1	0xbd94e9f8	-0.072711885
2	0x3e5aaebb	0.21355717
3	0xbe8beb88	-0.27328134
4	0xbead8f2d	-0.33898297
5	0x3e0d669d	0.13808675
6	0xbe1b7b74	-0.15183812
7	0x3dcf6560	0.101267576
8	0xbdcf2926	-0.1011527
9	0xbebe021c	-0.37110984
10	0xbc6c1610	-0.014409557
11	0x3d2ec5dd	0.042669166
12	0xbea4d4bf	-0.32193562
13	0x3c5e7395	0.013577362
14	0x3e28d15a	0.16486111
15	0x3daa32d2	0.083104745
16	0xbe06cab3	-0.13163261
17	0xbe158583	-0.14601712
18	0xbeb1278e	-0.3460049
19	0x3e53682d	0.20645209
20	0xbe314dd3	-0.17314844
21	0xbe946e4e	-0.28990406
22	0x3e74c3ba	0.23902789
23	0xbb568c09	-0.0032737276
24	0x3e315be0	0.17320204
25	0x3ea230a4	0.31677735
26	0xbd0f0fcf	-0.034927186
27	0x3e52cd9c	0.20586246
28	0x3e7262a6	0.23670444
29	0x3e65c3ff	0.22438048
30	0x3e240f1f	0.16021393
31	0xbe5b2947	-0.21402465
32	0x3db23078	0.08700651
33	0xbedd17c6	-0.431822
34	0xbd2c1d06	-0.042019866
35	0x3e4f0fa4	0.2022081
36	0xbe5137ee	-0.20431492
37	0x3e3a39b2	0.18186072
38	0xbe6058c7	-0.21908866
39	0xbe39850c	-0.1811716
40	0xbe019f0e	-0.12658331
41	0x3e5052ee	0.20344135
42	0x3c6b6f7b	0.014369841
43	0xbe91ae1e	-0.28453153
44	0xbdcf3464	-0.101174146
45	0xbe07d1c4	-0.13263613
46	0x3d1a3469	0.03764764
47	0xbe42a595	-0.19008477
48	0x3d96e467	0.07367783
49	0x3f05398d	0.5204094
50	0x3db601bd	0.0888705
51	0xbdb1624d	-0.086613275
52	0x3e0fcdae	0.14043304
53	0x3cab6aa9	0.020924883
54	0x3e07f6f8	0.13277805
55	0x3d69e6f2	0.057105012
56	0xbe29bd5a	-0.16576138
57	0xbd6a3199	-0.057176206
58	0x3da6fb0c	0.08153352
59	0xbdecb9ce	-0.11558877
60	0xbeccdb95	-0.40011278
61	0xbe8af626	-0.2714092
62	0xbd935f00	-0.07195854
63	0x3e2b49b8	0.1672734

rnn.weight_hh_l1 f4 [8, 8]
0	0x3d3e9e30	0.046537578
1	0xbea49b67	-0.32149813
2	0x3e7fc927	0.24979077
3	0x3e2efc1b	0.17088358
4	0x3eb1cef0	0.34728193
5	0x3eedc293	0.4643751
6	0xbe49185e	-0.19638202
7	0xbd4e9f1a	-0.0504447
8	0x3caf121c	0.02137094
9	0xbe812ab5	-0.25227895
10	0xbd740dc4	-0.05958344
11	0x3ec92462	0.3928557
12	0xbd1f7388	-0.03892854
13	0x3d42e47f	0.047581192
14	0xbe48a9c8	-0.19596016
15	0x3df85cc6	0.1212707
16	0xbe3cdd2e	-0.18443748
17	0x3e5e92ab	0.21735637
18	0xbe0291d1	-0.12750937
19	0x3dcb8a8c	0.09938535
20	0x3d979667	0.07401734
21	0xbdf5e419	-0.12006397
22	0x3d546012	0.051849432
23	0x3e139503	0.14412312
24	0x3e1d9577	0.15389048
25	0x3d93eaac	0.072224945
26	0xbd87b7a3	-0.06626823
27	0xbed2b90e	-0.4115681
28	0x3e9a8163	0.3017684
29	0x3e1f4b2e	0.15556023
30	0x3d6fe4cd	0.05856781
31	0xbebafa04	-0.36518872
32	0xbdd80a64	-0.10548857
33	0x3d7440f7	0.059632268
34	0x3ca3ed01	0.020010473
35	0xbe63084d	-0.22171135
36	0xbea6c4a3	-0.32571897
37	0xbe052233	-0.13001327
38	0xbd842531	-0.06452406
39	0xbd833455	-0.06406466
40	0xbe732dd6	-0.23747954
41	0xbdc5d7ab	-0.09660276
42	0xbd81c7e5	-0.06336955
43	0xbd7f46c2	-0.06232334
44	0xbe2de317	-0.16981159
45	0xbe80908b	-0.25110278
46	0x3e61c1c3	0.2204657
47	0x3da31c8d	0.0796443
48	0x3d18721f	0.03721821
49	0x3eb54f70	0.35412169
50	0x3e8e5779	0.2780111
51	0x3e2b9115	0.16754563
52	0x3e63ebc8	0.22257912
53	0xbda4a4ca	-0.080392435
54	0xbe64b777	-0.22335611
55	0xbe173cca	-0.14769283
56	0x3e6188eb	0.22024886
57	0xbcab24d6	-0.020891588
58	0x3d85e028	0.06536895
59	0x3e044fad	0.12921019
60	0xbd7809f1	-0.060556356
61	0x3d9309f6	0.07179634
62	0xbd99d93a	-0.07512136
63	0xbef97c96	-0.48727864

rnn.bias_ih_l1 f4 [8]
0	0x3e3d24e3	0.18471102
1	0xbdd132e0	-0.10214782
2	0xbe12647f	-0.14296149
3	0x3e07ce30	0.13262248
4	0xbce56a84	-0.028004892
5	0xbebea09b	-0.37231907
6	0xbd8a5ef0	-0.06756389
7	0xbd371022	-0.04469312

rnn.bias_hh_l1 f4 [8]
0	0xbe0c751c	-0.13716549
1	0x3d30f562	0.043202765
2	0xbe07a5f6	-0.13246903
3	0xbe882f22	-0.2659846
4	0x3e197bea	0.14988676
5	0x3dc89290	0.097935796
6	0x3c215552	0.009847002
7	0x3e41bf21	0.18920566

fc.weight f4 [2, 256]
0	0x3c00a20e	0.007851137
1	0x3bbc7d92	0.005752274
2	0x3ccd8b14	0.025090732
3	0x3cf1fff2	0.02954099
4	0xbdaa973d	-0.08329628
5	0xbc438550	-0.01193364
6	0x3cfb65a2	0.03068811
7	0xbdbe01ce	-0.09277688
8	0xbc152eb4	-0.009105373
9	0xbd53bc9e	-0.05169355
10	0xbc62df55	-0.013847192
11	0xbc1828a8	-0.009287037
12	0x3c384e7f	0.011249184
13	0x3b30a235	0.0026952152
14	0x3c95d2ed	0.018289054
15	0xbcae9c88	-0.021314874
16	0xbbfd946a	-0.0077386396
17	0xbcfa0f11	-0.030524762
18	0x3c324e2d	0.010882896
19	0x3d0c1738	0.03420183
20	0x3c106a94	0.008814473
21	0xbbfb2736	-0.0076645864
22	0x3b0c7689	0.0021432957
23	0xbc5ac3be	-0.013352333
24	0x3c41e68b	0.011834751
25	0xbd9ab604	-0.07554248
26	0xbcf9b9aa	-0.03048404
27	0x3b26e733	0.0025467395
28	0x3b041988	0.002015682
29	0xb8f85161	-0.000118407195
30	0xbc71316b	-0.014721255
31	0xbb7c3768	-0.0038485173
32	0xbbce80f8	-0.0063019954
33	0x3c8a5db8	0.016890392
34	0x3cae5080	0.02127862
35	0x3cb3208b	0.021866104
36	0x3d50f192	0.05101163
37	0x3c7e834a	0.015534231
38	0x3d370a78	0.04468772
39	0xba957e0b	-0.0011405362
40	0xbbf5d592	-0.007502266
41	0xbd10530b	-0.035235446
42	0xbce08ebe	-0.027411815
43	0x3cd1f4a2	0.025629345
44	0x3c97a7f3	0.018512702
45	0x3a35d723	0.000693666
46	0xbc376835	-0.0111942785
47	0x3c8f95f0	0.01752755
48	0x3c455538	0.0120442435
49	0xbcd65fff	-0.026168821
50	0xbac283c8	-0.0014840299
51	0x3c57ff56	0.013183435
52	0x3d27d3b7	0.04097339
53	0x3c89591a	0.01676612
54	0x3c912672	0.017718527
55	0xbc169ed4	-0.009193141
56	0xbbe8f152	-0.0071088457
57	0xbcd01d6e	-0.025404658
58	0xbbf6a837	-0.007527377
59	0xbc9e95cf	-0.019358544
60	0x3d533100	0.051560402
61	0xbbd43881	-0.0064764624
62	0x3d0349b8	0.032052726
63	0xbb182bfb	-0.0023219574
64	0x3b940cd0	0.004518129
65	0x3c21bbf9	0.009871476
66	0xbc829171	-0.015938492
67	0x3c8a0874	0.016849734
68	0x3d49a5be	0.04923033
69	0x3c192546	0.009347266
70	0x3c90aa34	0.017659284
71	0x3a9ec2a5	0.0012112452
72	0x3c9ff52d	0.019526089
73	0xbcc835b1	-0.024439665
74	0x3c6bc5fc	0.014390465
75	0xbc54d4f8	-0.012990229
76	0x3d554004	0.052063003
77	0xbc2b4e76	-0.010455718
78	0x3ccb44f3	0.024813151
79	0x3b716e18	0.0036839303
80	0x3c6bd2b0	0.0143934935
81	0x3bb791dd	0.005602105
82	0xbcf3a422	-0.02974135
83	0x3b883de2	0.0041577676
84	0x3d80cd59	0.06289167
85	0x3c6ff7b6	0.014646461
86	0x3cecf9cb	0.028927704
87	0x3c4682c2	0.012116136
88	0x3d000932	0.03125877
89	0xbc021470	-0.007939443
90	0x3d1c2687	0.03812268
91	0xbcc45a98	-0.02396898
92	0x3d9e0998	0.077166736
93	0xbc7bb4cc	-0.01536293
94	0x3d54a5a1	0.05191577
95	0x3bb66e08	0.005567316
96	0xbabf29c5	-0.0014584592
97	0x3d0fd60c	0.03511624
98	0xbc8b2151	-0.01698366
99	0x3cf57be0	0.029966295
100	0x3d535916	0.05159863
101	0xbc0e6bbc	-0.008692678
102	0xbb260caf	-0.002533715
103	0x3d629fe9	0.055328283
104	0x3d602e5d	0.054731715
105	0xbcdc6c27	-0.02690704
106	0x3bdbcdde	0.006707891
107	0x3ca09564	0.019602485
108	0x3d659021	0.056045655
109	0x3b672fc6	0.0035276278
110	0xb9db3407	-0.00041809698
111	0x3ce7925c	0.028268032
112	0x3c4e1c95	0.012580057
113	0xbabce478	-0.0014411351
114	0x3c02cec6	0.007983869
115	0xbd0d3ab6	-0.03447982
116	0x3d95fbb6	0.07323401
117	0xbcc91ae3	-0.024548953
118	0x3d258e26	0.040418766
119	0x3c9d706e	0.01921865
120	0x3d352689	0.044226203
121	0x3c0fefd6	0.008785209
122	0x3b05664b	0.002035516
123	0x3c329e75	0.010902037
124	0x3d8e1313	0.06937232
125	0x3ca4f3e1	0.020135822
126	0x3c168859	0.009187781
127	0x3d0f0d1f	0.034924623
128	0x3b671f75	0.0035266553
129	0x3c2d2c63	0.010569665
130	0x3b1ff47a	0.0024407194
131	0xbd03619d	-0.032075513
132	0x3d8fbd49	0.07018525
133	0xbc95dce4	-0.018293805
134	0x3d2451bc	0.04011701
135	0x3cb4f463	0.022089189
136	0x3d32105b	0.04347263
137	0xbc087a0b	-0.008329879
138	0x3c1d6ebd	0.009608922
139	0xbb928dd4	-0.0044724736
140	0x3d54fa2f	0.051996406
141	0xbc89d7cd	-0.016826535
142	0xbbf861fe	-0.007580041
143	0x3cdd4797	0.027011676
144	0x3c1ef900	0.009702921
145	0x3d2697c4	0.04067208
146	0x3c67f431	0.014157341
147	0xbb420475	-0.0029604707
148	0x3d56d643	0.05245043
149	0xbcd5986d	-0.026073659
150	0x3a9c8528	0.0011941539
151	0x3d2a7b6b	0.041621607
152	0x3d2b73dc	0.04185854
153	0x3ca4a2f0	0.020097226
154	0xbb91cb93	-0.0044493168
155	0x3cbbb651	0.022914084
156	0x3d567778	0.052360028
157	0xb9566ca5	-0.00020449104
158	0xbcde91da	-0.027169157
159	0x3d44639b	0.047946554
160	0x3c141c5d	0.009039965
161	0x3d3c5bbe	0.04598593
162	0x3cd117a2	0.025523964
163	0xbb1a4653	-0.0023540452
164	0x3d63d3b5	0.05562182
165	0xbcd6c7e0	-0.026218355
166	0x3b5ee4fc	0.0034010997
167	0x3d1a27f8	0.037635773
168	0x3d07b439	0.033130858
169	0x3cabdcf4	0.020979382
170	0xbc95baf3	-0.01827762
171	0x3c9b6b34	0.018972017
172	0x3d55f4a0	0.052235246
173	0x3c1f115e	0.0097087305
174	0xbd3068d8	-0.043068737
175	0x3d36ebf0	0.0446586
176	0x3c81e5de	0.01585668
177	0x3cc0d749	0.023540156
178	0xbaade9d1	-0.0013268535
179	0xbd316876	-0.043312512
180	0x3d91b694	0.07114902
181	0xb92330f2	-0.00015563125
182	0x3ce6e41c	0.028184943
183	0x3c957449	0.018243926
184	0x3c986ad2	0.018605623
185	0x3d3fab16	0.04679402
186	0x3cc408af	0.023929922
187	0xbc0e2c7d	-0.008677599
188	0x3db42601	0.08796311
189	0xbb952b7e	-0.004552304
190	0x3c0f79a4	0.008757029
191	0x3d33815a	0.04382453
192	0x3b58c2f7	0.0033075192
193	0x3d143319	0.036181543
194	0xbc1940d2	-0.009353833
195	0x3cb4bde3	0.022063201
196	0x3ce02b11	0.027364286
197	0x3ae6283e	0.00175596
198	0xbd2da639	-0.04239485
199	0x3d51334d	0.051074315
200	0x3b75986b	0.0037474881
201	0x3ce0aced	0.027426207
202	0xba0ddb15	-0.0005411369
203	0x3c67d638	0.014150195
204	0x3d9284e6	0.071542546
205	0x3c288d30	0.010287568
206	0xbca7cc28	-0.020483091
207	0x3d7fea49	0.06247929
208	0x3b9c67bb	0.004773108
209	0xbc18ba6f	-0.009321793
210	0xbc95139c	-0.018197827
211	0x3bc3c2bb	0.0059741414
212	0x3cbf437d	0.02334761
213	0x3c362d29	0.011119165
214	0xbcb35e42	-0.021895532
215	0x3cf87f1a	0.030334044
216	0xbbd0ba6f	-0.006369881
217	0x3b41fc64	0.00295999
218	0xbbd15bbe	-0.0063891103
219	0xbc86c88b	-0.016453048
220	0x3d78b53f	0.060719725
221	0x3c6ef99c	0.014585879
222	0x3cae5114	0.021278895
223	0x3cf59ac8	0.029981032
224	0xbc0d5242	-0.008625569
225	0xbc400c62	-0.011721702
226	0xbbf32235	-0.0074198493
227	0x3b9e7916	0.004836212
228	0x3c1c0f83	0.009525183
229	0x3a824680	0.0009939224
230	0x3b4c9c35	0.0031221036
231	0x3ce35169	0.02774878
232	0xbc9e593d	-0.019329662
233	0x3b8cf879	0.004302081
234	0x3b8181fb	0.0039522625
235	0x3ccff63b	0.025385967
236	0x3c93da04	0.018048294
237	0xbb838485	-0.0040136003
238	0xbc01a82d	-0.007913631
239	0x3d61e8e8	0.055153757
240	0xbb6d80d7	-0.0036240125
241	0xbc27677c	-0.010217544
242	0xbccff559	-0.025385546
243	0x3d2d7705	0.042349834
244	0xbcad2b1a	-0.021138716
245	0x3cb553cb	0.022134682
246	0xbd2b79f0	-0.041864336
247	0x3bbb5430	0.005716823
248	0xbc8a90a3	-0.016914671
249	0xbd2e0f06	-0.042494796
250	0x3b1fa71f	0.0024361087
251	0xbd128380	-0.03576994
252	0xbd7ad6c9	-0.06123999
253	0xbcccd245	-0.025002608
254	0x3c5ea17a	0.013588304
255	0xbd439806	-0.047752403

fc.bias f4 [2]
0	0x3c7dc4b8	0.015488796
1	0xbcaa8b2d	-0.020818317
