model/checkpoint/train_sparse_feedback_dict_batch50_epoch_200\150_loss12.pt (torch, 4899 bytes, 10 tensors)

rnn.weight_ih_l0 f4 [8, 3]
00000000: 82a4 823a f6a9 2c3f 550c 503f e6f3 c1bb
00000010: 238b 1e3f 072b 04bf da96 39bc 2f75 923e
00000020: ddb3 ef3e b4e2 ae39 cb65 60bf fcc3 93be
00000030: 8e2b ee3b 1495 23bd aca8 bdbd 0ade c3bb
00000040: 97fc 97be ec90 273f 5a7d 45bc d5d5 853e
00000050: 7f88 b5bc 6c58 17ba 13f5 ce3e d620 1e3e
0.000996724 0.6744684 0.8126882 -0.0059189675 0.61931056 -0.51628155 -0.01132747 0.2860503
0.46816912 0.00033356773 -0.87655324 -0.28860462 0.0072683757 -0.039937094 -0.09260687 -0.005977397
-0.29684898 0.6545551 -0.012053812 0.26139703 -0.022159813 -0.0005773369 0.40421352 0.15442213

rnn.weight_hh_l0 f4 [8, 8]
00000000: 5abf 6a3c 4107 bebe b804 5abf b3d2 a73e
00000010: 4dcf b63e f48d 8e3e 7cbd ebbd b680 923c
00000020: b34a c43e aad7 0dbe e3cb 21be b6a5 963e
00000030: b5eb 3bbd c326 b93e d0b8 263e 7d02 8ebe
00000040: 977b 193d 111d 4a3e 9818 c83e 16b9 1abf
00000050: 341f 20be 1c04 46bf c4da 013e 96d1 b93e
00000060: 2d25 d93d 5031 aa3d f30d fa3d 0038 80bc
00000070: b5e4 9e3d ca57 d93e 103e ba3e 3069 6fbd
00000080: 0d25 05be 0236 06be 713f ac3d 8e22 883d
00000090: 7348 37bf a4a2 ce3e 96ac b63e c8b2 d3bd
000000a0: 5c0b babd ca3a 07bf dac4 8e3c 931d eebb
000000b0: 3e65 f0be b50a f33d 8500 083e 04bd 8c3e
000000c0: 2c23 623d 984b 13be 7cbf 8dbe a6ce 37be
000000d0: 39f6 fd3d 511f 5dbc 2dec 43bf 9910 c13d
000000e0: cf4c 24be d584 2a3e 517b bfbe 0ecb 4d3c
000000f0: b0d7 f43d b8ae f1bd 2d72 2d3d e436 20bf
0.014327848 -0.3711491 -0.8516345 0.32777938 0.35705033 0.27842677 -0.11510751 0.01788364
0.3833824 -0.138518 -0.15800433 0.29423302 -0.045879085 0.36162385 0.16281438 -0.27736273
0.03747138 0.1973765 0.39081264 -0.6043867 -0.15636903 -0.7735002 0.12681109 0.36292714
0.10602794 0.08310187 0.12209692 -0.015651703 0.07758466 0.4244979 0.36375475 -0.058449924
-0.13002415 -0.1310654 0.08410538 0.06647216 -0.71594924 0.4035846 0.35678548 -0.10336834
-0.09084198 -0.5282408 0.01742785 -0.007266709 -0.46952242 0.118672766 0.13281448 0.27487957
0.055209324 -0.14384305 -0.27685153 -0.17949924 0.12400479 -0.013496236 -0.7653225 0.09426994
-0.16044925 0.16652234 -0.3739877 0.012560619 0.119552016 -0.11800903 0.042345215 -0.62583756

rnn.bias_ih_l0 f4 [8]
00000000: 2791 063f e926 e13e 043d 363e 9ef9 13bf
00000010: 9dea 6b3d 0baa 22be 4b1c 913d 1b34 633e
0.52565235 0.43975 0.17796713 -0.5780276 0.05759679 -0.15885179 0.070854746 0.22187845

rnn.bias_hh_l0 f4 [8]
00000000: 9db1 073f f4d9 b83e 0f72 e13e f8ac d6be
00000010: 2fdb c1bd a038 13bf b75c c83e 0ca2 e23e
0.5300539 0.36103785 0.44032332 -0.4192884 -0.09465634 -0.5750828 0.39133236 0.44264257

rnn.weight_ih_l1 f4 [8, 8]
00000000: b887 0bbd 6e86 03be c841 febd 8895 09be
00000010: 1c42 5c39 6272 e1b9 c6b0 e13c 2d0c 813d
00000020: 0ac4 96bc c89b ffbd 959d 29be beeb 5bbe
00000030: d95f 053d f36a 573d 56c4 883c 7786 493d
00000040: 5e16 13be be22 81be 701e 0c3d bc95 abbd
00000050: 5558 c53c 407f 193e 3880 103e de2e 45bd
00000060: d423 9dbd a7df 41be af67 983d 524f 523d
00000070: 3ded 63bd fa36 85bd 0dac f6bd 27aa f73a
00000080: ae6e 003e 3003 a93e a0ff d6bc 9168 babd
00000090: 7893 97bc 1146 9e3d 8f82 01bd 0da5 60bd
000000a0: 1bb0 003d 49b7 0cbd f611 5a3d c3b1 a43d
000000b0: b5c1 03bd d19c e8bd 4d8b 38bd c83f 21bc
000000c0: a860 aabe ff10 80be b2c5 5dbe 9e8a 003f
000000d0: 2bef 433d b363 c5bd 6a4a 0fbe 4924 a43c
000000e0: 4d3a 1cbd df31 233f 3fff 26be af44 b6be
000000f0: 2b27 e3bc 1704 3fbe e1db ee3a 95c2 133e
-0.03406498 -0.1284425 -0.124148905 -0.13435948 0.00021005463 -0.00043000566 0.027550112 0.063011505
-0.018404026 -0.12480885 -0.16564019 -0.21476647 0.03256211 0.05259223 0.016695183 0.0492005
-0.14364001 -0.2522182 0.034208715 -0.08378169 0.024089972 0.14989948 0.14111412 -0.0481404
-0.07672849 -0.18932973 0.07441651 0.051345177 -0.05564617 -0.065046266 -0.12044535 0.0018895314
0.12542221 0.33010244 -0.026244938 -0.09101976 -0.018502936 0.07728208 -0.03161865 -0.054844905
0.031417947 -0.03435448 0.053239785 0.08041718 -0.032167155 -0.11358035 -0.045054723 -0.009841867
-0.33276868 -0.25012967 -0.21657446 0.50211513 0.04783551 -0.09638157 -0.1399323 0.020036833
-0.038141537 0.6374797 -0.16308306 -0.35599276 -0.027728638 -0.18653904 0.0018223488 0.14429696

rnn.weight_hh_l1 f4 [8, 8]
00000000: 8205 28bf 80c3 cebe 45fc 013e 73cc 84be
00000010: 9249 b2be 08b7 ec3d 85f0 5ebe 53c9 9c3c
00000020: 3e9b 603d 7307 70bf 2fbc afbc 933a acbe
00000030: 4620 89be 2306 0f3e ea43 72be 8056 13bd
00000040: 9ee3 ccbe 2c68 193e 0a87 f9be 38f3 8abe
00000050: 466e aebe dcbb dbbd 0a68 d53d ac76 793d
00000060: 7cc1 4abe 19a0 a73e 93cd 59bf 78d8 1bbf
00000070: 4627 1ebd 7e98 1ebd 954e 5dbe 91b8 2abe
00000080: bdfb c03e 70aa d03d ffe7 9e3f c194 cb3e
00000090: 6fe8 6fbd 481a b73e 9fcc dc3e 553e b13e
000000a0: d1bd 6fbe e007 ef3d ad2e f73d 0e89 11be
000000b0: d158 37be d0f9 55bf 3f9c 633c ad13 06bd
000000c0: ba1d 133f ce53 023f 67f5 1cbf 3b5b 3c3e
000000d0: 8ebe aabe 9310 b3be d653 f7be 6960 e0bd
000000e0: 771e a0be b54f bcbe abd9 4dbe 8d88 dcbe
000000f0: 9077 dbbd 03d2 d93d e7be 93be 8fb0 6ebf
-0.65633404 -0.4038353 0.1269389 -0.25937232 -0.34821755 0.11558348 -0.21771438 0.019138968
0.05483555 -0.93761367 -0.021452038 -0.3363844 -0.26782435 0.13967185 -0.2365872 -0.035971165
-0.40017408 0.14981145 -0.4873584 -0.27138686 -0.34068507 -0.10729191 0.104202345 0.06090419
-0.19800371 0.32739332 -0.85079306 -0.6087718 -0.038611673 -0.038719647 -0.21612008 -0.16671969
0.3769206 0.101887584 1.241455 0.39761928 -0.058571275 0.35762239 0.43124864 0.34617868
-0.23412253 0.11671424 0.120694496 -0.14212438 -0.17904975 -0.8358431 0.013892232 -0.032733608
0.57467234 0.50909126 -0.61311954 0.18394177 -0.33348507 -0.34973583 -0.4830615 -0.10955889
-0.31273243 -0.36779562 -0.20102565 -0.4307293 -0.10716164 0.1063576 -0.28856584 -0.9323816

rnn.bias_ih_l1 f4 [8]
00000000: fca3 fdbc ee0b c5bd 2e2f 113e a58c 84be
00000010: 5575 8b3d 7cf4 2fbe dc20 0fbe b7eb 393d
-0.030961983 -0.09621416 0.14178154 -0.25888553 0.06809489 -0.17183107 -0.13977379 0.04539081

rnn.bias_hh_l1 f4 [8]
00000000: 8874 6e3d cd3e 363e 6951 2abe 6b23 433e
00000010: ca48 d83c 1af8 f63d 62db dabc 94ea 1e3e
0.0582166 0.17797394 -0.16632618 0.1905648 0.026401896 0.1205904 -0.026715938 0.15519172

fc.weight f4 [2, 256]
00000000: 0332 863d 16b2 273d 94e7 623c f1f6 a83d
00000010: f2ff b9bd 91d2 6fbc 7011 62bd 8818 5f3d
00000020: 371b 943a a34c 8dbd 5a67 b53d b9ee 463d
00000030: 26e5 4d3c 0451 34bb d426 fcbb 4995 da3d
00000040: 12dc e5bb 2a2b 86bd 5223 15bc 4236 583d
00000050: 7479 48bc 18b5 943c eca1 11bd d216 843d
00000060: 7027 2c3c f60c 9abc c750 4fbc bd82 873d
00000070: bf0d 66bc 62fe 0bbd 7da2 6ebd 3d6d 993d
00000080: 8810 4dbd af08 0dbb 6b91 1ebb 4380 e73c
00000090: b013 58bd c0c8 babd 8793 41bd eb84 4d3d
000000a0: 7ad1 a1bd 04de 053d 393c 32bd 2a05 9d3c
000000b0: b182 bdbb 4ca6 90bd 8c31 92bd 7f60 ab3b
000000c0: 8b97 173c e4ec 6f3d 7dc9 26b9 41f9 35bc
000000d0: c15e a23c 8a96 d6bc babe 59bd 26d2 d73b
000000e0: 4bd5 99bc 0dd7 f03c 5e1b bd3c 14a6 11bd
000000f0: 9157 41bd 9fbe 92bd 1844 35bd b20e 2bbb
00000100: c263 173c 555b 213d 2942 25bd b0cd 87bc
00000110: b2b3 3ebd da57 83bd f341 66bd 289a 3fbc
00000120: caa0 6ebc a467 483d 0207 e9ba 4db5 753b
00000130: f03e 163c fbf1 6e3d 2109 77bd ae42 23bb
00000140: 0838 653b 85d8 7c3d 8da2 29bd 1c20 79bd
00000150: 5b04 3fbc e4a6 a43b be83 8abd 8a19 1abd
00000160: 8e23 553d 6f31 9f3c 57ee d2bc c006 07bd
00000170: cf51 9b3b 774c 77bd c677 7dbd cfbe 52bd
00000180: bd98 e23c 9ae0 aa3d 83bc 93bc b8cc 9bbc
00000190: 3a1d fcbc b14a 63bd 777f b3bd cef6 22bd
000001a0: 551c 553d a167 9e3d ec17 333c 92f4 62bb
000001b0: 819b 3cbc 71a5 53bd 5a67 bdbd b0ba 1abd
000001c0: 3ed0 803d a31c 8f3d a22a 82bd e99d 0fbd
000001d0: f587 01bd 5ee3 67bd 7991 00be 6251 86bd
000001e0: 9a9e 713d e2e8 a13d cf04 2fbd 4c23 48bd
000001f0: 30ca cdbb 3f64 1fbd 5593 01be ee01 bdbd
00000200: 65a3 933d 561c c23d c35a a0bc 9b89 9eba
00000210: e3bb 39bc 448e fcbc a635 11be f0ff 94bd
00000220: ee87 d93d a596 593d 1edc 9dbc 1fbb 643c
00000230: f547 dfbb c0e2 2cbd 7363 17be 0f7a aabd
00000240: ec7d ed3d 15fc f83c c4d3 9cbd 1304 1b3b
00000250: 8730 80bc f5a8 87bd 41e6 26be 2467 dcbd
00000260: b894 063e db33 9e3b e2fd 74bd 1179 013d
00000270: 389d 36bb 7c32 65bd 0f69 26be 706c cfbd
00000280: 9011 3c3d 3609 943d 1e55 8ebd fc6b 033d
00000290: 1b23 50bc eba7 91bc 899e 32be c345 c7bd
000002a0: ba0b a83d c4d4 e93c e3d8 adbd 9261 0c3d
000002b0: c58e a13b ba80 c8bc 10c5 27be 4aa6 e0bd
000002c0: 7740 c33d 3f7c 633c df0f 34bd 88b3 2e3d
000002d0: 17e8 babc 427a 0abd 64a2 14be 0640 abbd
000002e0: 34bf d63c e742 79bb 4f4c f4bd 3d8a 7b3c
000002f0: 1398 7dbd c99e 51bd fa80 18be 67e0 b7bd
00000300: 0c89 943c 2f3e 853c 691e 81bd 0b65 f23c
00000310: baec 37bc b772 f9bb a205 cdbd 3861 76bd
00000320: 4cb2 313c 617a b0bc 12ca 2dbd 2e2c 933d
00000330: c167 4e3b 8ccb 453d db72 93bd c12d f8bb
00000340: 4468 abbd 652d b43c 0366 17bd 3891 fe3b
00000350: b9b6 e7bb 907c ae38 dcd9 27bc 8c94 13bc
00000360: 684e 703a 7211 6abd 0cf7 5dbc 6248 183d
00000370: dc5f 2ebc be8a 2fbd b6fc 8a3d a5f8 033d
00000380: bb8e 50bd 4d00 173c 24e8 af3c c155 4c3c
00000390: e53d f6bc 6dba 4a3d 1efa 003e 00bc d83d
000003a0: b30d 31be 005a 923d ae5f 4c3c 548d 82bc
000003b0: 0aaf aa3d 6626 cbbc f63b 913e 81d4 053e
000003c0: 1f1d fabd d2f4 4bbd c5f1 1d3e ea47 b8bd
000003d0: b346 fa3d 8a9e 3d3e 867f 983e b557 363e
000003e0: c1d8 31be 78b5 8ebe 672d 853e 3261 edbd
000003f0: 3775 8fbd ae10 d3bb 7b4d 733e fcd5 173e
0.06552508 0.04094132 0.013849158 0.08250225 -0.09082021 -0.014637605 -0.05519241 0.054466754
0.0011299615 -0.06899383 0.08857603 0.048567507 0.01256684 -0.002751411 -0.0076950584 0.10673005
-0.00701476 -0.06551202 -0.009102659 0.05278612 -0.012235988 0.018152758 -0.03555481 0.06449665
0.0105074495 -0.018805008 -0.012653536 0.06616733 -0.014041363 -0.034178145 -0.05826043 0.07491539
-0.050064594 -0.0021520068 -0.0024195563 0.028259402 -0.05275315 -0.09120321 -0.047259834 0.05017559
-0.079012826 0.032682434 -0.043514464 0.019167501 -0.005783402 -0.070629686 -0.071383566 0.005230009
0.009252439 0.058575526 -0.00015906054 -0.01110679 0.019820573 -0.02619483 -0.053160407 0.006586331
-0.018778464 0.02939942 0.023084339 -0.035558775 -0.04720265 -0.07165264 -0.044254392 -0.0026101288
0.009240093 0.03939374 -0.0403463 -0.016577572 -0.04655809 -0.06413241 -0.056215238 -0.011694469
-0.014564702 0.048926964 -0.0017778578 0.0037492097 0.009170279 0.05833624 -0.06031144 -0.002491157
0.0034976024 0.061729927 -0.041414786 -0.060821638 -0.011658753 0.0050247777 -0.06763409 -0.037622012
0.05203586 0.019432751 -0.025748415 -0.03296542 0.004739977 -0.060375657 -0.061881803 -0.0514515
0.027660722 0.083436206 -0.018034225 -0.019018516 -0.030775655 -0.055491153 -0.08764546 -0.039786153
0.052028973 0.077346094 0.010930996 -0.0034630639 -0.011511684 -0.05167145 -0.09248228 -0.037775695
0.06289719 0.06987884 -0.06355788 -0.035062704 -0.0316238 -0.05661332 -0.12555493 -0.06558491
0.058989145 0.07905747 -0.042729195 -0.048861787 -0.006280206 -0.03891396 -0.12653859 -0.09228884
0.072088994 0.09478061 -0.019574529 -0.0012095453 -0.0113363 -0.030829556 -0.14180622 -0.07275379
0.1062163 0.05312218 -0.01927 0.013960629 -0.006813998 -0.042208433 -0.1478403 -0.08324062
0.11596283 0.03039364 -0.076575786 0.0023653551 -0.01564814 -0.06624023 -0.16298772 -0.1076186
0.13142669 0.004827959 -0.059812434 0.0316096 -0.0027864706 -0.05595635 -0.16251014 -0.10128105
0.045915186 0.07228319 -0.069498286 0.032085404 -0.012703682 -0.017780265 -0.17443289 -0.09730103
0.08205362 0.028543837 -0.084886335 0.034272738 0.0049303495 -0.024475444 -0.16383767 -0.10969217
0.0953378 0.013884603 -0.04396045 0.042651683 -0.022815747 -0.033808 -0.14515072 -0.08361821
0.02621422 -0.0038034262 -0.11928617 0.015352783 -0.061912607 -0.05117682 -0.1489295 -0.08978348
0.018131755 0.016265003 -0.063046284 0.029589197 -0.011225874 -0.007612552 -0.1001084 -0.06015131
0.010845732 -0.02154273 -0.042429037 0.07186161 0.0031494948 0.04828982 -0.07199641 -0.0075738137
-0.083694965 0.021994302 -0.03696252 0.0077687763 -0.007071343 8.320168e-05 -0.010244813 -0.009007584
0.0009166957 -0.057145543 -0.01354767 0.037178405 -0.010642972 -0.042856924 0.06786482 0.032219548
-0.05091737 0.00921638 0.021472998 0.012471617 -0.03005881 0.049494196 0.12595412 0.10582733
-0.17290382 0.071460724 0.012473984 -0.015936531 0.08334167 -0.024798583 0.2836606 0.13069345
-0.12212586 -0.049794026 0.15424259 -0.089980915 0.12220516 0.18517509 0.29784793 0.17806895
-0.17367841 -0.27872825 0.26011202 -0.11590804 -0.07004779 -0.0064411974 0.23760025 0.14827722

fc.bias f4 [2]
00000000: b501 8e3c 71f6 63bc
0.017334798 -0.013913737
