model/checkpoint/train_sparse_feedback_dict_batch250_epoch_300\220_loss123.pt (torch, 4899 bytes, 10 tensors)

rnn.weight_ih_l0 f4 [8, 3]
000000 fb 55 ef bc d8 54 28 3f 1e 76 b1 be 99 e4 19 3d
       -0.029215803 0.6575446 -0.3466043 0.037571523
000010 92 e3 53 3d 29 7e 47 bf 38 8b eb 3c d8 b8 0b 3f
       0.0517307 -0.7792688 0.028752908 0.54578924
000020 0f a2 82 bd 23 ce 41 3d 0b 9c a4 3e 8d 69 c0 3d
       -0.063785665 0.047315728 0.321503 0.09395132
000030 7f b2 88 3b bb fa 86 3e de 36 90 3e 10 ee 22 3b
       0.004171669 0.26363167 0.2816686 0.0024861135
000040 19 be 09 3f 22 28 93 3e b6 13 06 bd 50 b8 f5 3c
       0.5380569 0.28741556 -0.03273364 0.029995114
000050 5d d2 61 bf 11 55 11 3e a9 a4 60 be ab cb 3d be
       -0.88211614 0.14192607 -0.21937813 -0.18534724

rnn.weight_hh_l0 f4 [8, 8]
000000 cb d7 88 be a4 7a ab 3d d3 e0 bc bd c4 63 e1 3e
       -0.26727137 0.08373001 -0.09222569 0.44021428
000010 bc 37 45 be ae f3 47 3e 37 16 b5 be 20 69 b8 bd
       -0.19259542 0.1952655 -0.3536851 -0.09004426
000020 e5 6a c3 3e f6 17 fb be cd a7 30 be 6e 3c 8d be
       0.38167492 -0.49041718 -0.17251511 -0.27585167
000030 b6 43 58 3c e9 81 98 be ae 22 25 bd 22 87 01 3d
       0.013199737 -0.29786614 -0.040316276 0.031623013
000040 19 73 e7 3e 49 b5 a0 be 5e eb cf 3d b2 3b c2 3d
       0.45205 -0.3138831 0.101523146 0.09484042
000050 cd 63 3b be 40 96 b4 3e 71 cf 07 3d 4b 51 66 bd
       -0.1829979 0.35270882 0.033156816 -0.05622987
000060 ac 92 82 3e ff 36 4b be 62 3e f6 be e3 09 eb be
       0.25502527 -0.19845198 -0.4809447 -0.4590598
000070 27 76 9e be 6c 6d 50 bd 1d 05 a4 be 8f 48 33 be
       -0.30949518 -0.050885603 -0.3203515 -0.17508148
000080 56 c6 d5 be 6d e5 b8 3c a5 2a f9 3b 64 43 ee be
       -0.4175288 0.022570336 0.0076039606 -0.4653579
000090 96 6a 16 3e 08 a0 14 bf 8f 69 03 3e 3a 4d 4d 3d
       0.14689097 -0.5805669 0.12833236 0.050122477
0000a0 a8 26 8e bd e9 85 d0 bd 0c 3c d8 be b7 00 c6 3d
       -0.06940967 -0.10181791 -0.42233312 0.09668105
0000b0 4d c9 bd 3d ca 42 cd be 2d e4 2e be b4 73 80 bd
       0.09266911 -0.4009002 -0.1707923 -0.062720686
0000c0 1e 96 3d 3e 5e bd a4 be f2 82 0a 3e b2 a1 0b 3d
       0.18514296 -0.32175726 0.13526514 0.03408975
0000d0 a0 17 24 be 08 96 d0 3e 31 ee 8d be c7 97 20 3e
       -0.16024637 0.40739465 -0.27720788 0.15682898
0000e0 9c f1 ef 3e df cf 26 bd dd ed 91 bd a4 09 7e be
       0.4686402 -0.040725585 -0.07125447 -0.24808365
0000f0 5a b1 c4 be e3 ea 7b 3e a4 36 40 3b d7 85 73 be
       -0.38416559 0.24601321 0.0029329443 -0.23781525

rnn.bias_ih_l0 f4 [8]
000000 95 2d aa 3e 9d da c7 be bd b6 e2 3d 62 14 02 3f
       0.332379 -0.39033976 0.11070011 0.5081235
000010 87 2d 14 be 77 ce b7 3e 0c b6 49 be 00 18 71 3e
       -0.14470492 0.35899708 -0.19698352 0.23544312

rnn.bias_hh_l0 f4 [8]
000000 2d 8a 70 3e fa 6f 31 be c9 fa f1 3e 08 b4 a2 3e
       0.2349021 -0.17327872 0.47261646 0.31777978
000010 b3 3c 00 3f 02 8a b6 3d 28 54 8f bd 0a 94 07 3e
       0.5009262 0.08913042 -0.069984734 0.13240066

rnn.weight_ih_l1 f4 [8, 8]
000000 7f 22 b5 bd ef 42 37 3e 23 3f 3c 3d 97 e1 c0 3e
       -0.0884447 0.17896627 0.04595865 0.3767211
000010 3c 52 a3 bc bd 5e a7 bd a1 ba 83 3e 46 aa 09 be
       -0.019936673 -0.08172367 0.25728324 -0.1344386
000020 6a 1d 88 3d 46 16 1a 3d 99 02 bf bd d8 ef 61 3e
       0.06646235 0.037618898 -0.09326667 0.2206415
000030 84 3c db 3d 47 0b 02 be b0 3d a9 bc db 33 71 bd
       0.10704902 -0.12699614 -0.020659298 -0.058887344
000040 29 fd d2 bd 1e ed df 3d d1 e2 54 be 5c 4c 98 3e
       -0.10302193 0.109338984 -0.20789649 0.29745758
000050 0d fa 59 3e d1 4a 75 be a0 d7 4b 3e 84 e8 26 bd
       0.21286793 -0.23954321 0.19906473 -0.040749088
000060 bd 13 b6 be 65 76 a3 3d 50 3b 76 3e 6d bc 14 be
       -0.35561934 0.07981566 0.24046063 -0.14525004
000070 4d 7c dd bd 92 13 74 be d6 c9 32 3e f7 6f 42 bd
       -0.10814724 -0.2383559 0.17459807 -0.04747006
000080 eb d3 8c be ae 75 80 3e 9a 71 a6 be b6 da 9c bd
       -0.2750543 0.25089782 -0.32508546 -0.07658903
000090 00 0f e4 bd 71 cf 86 be 5c 81 b2 bd 62 26 29 bd
       -0.111356735 -0.2633014 -0.087160796 -0.04129637
0000a0 6c d9 f3 3e f2 68 c6 3d 43 91 a5 3e 8f 22 1e bd
       0.47626817 0.096879855 0.32337388 -0.038607176
0000b0 a2 11 81 3e 37 bf fd 3d 77 63 c7 bd 4a 6c 1c bd
       0.25208765 0.12389987 -0.09735768 -0.03818921
0000c0 4e 24 8c be 76 c1 18 be 8c 25 26 be a0 70 16 3e
       -0.27371448 -0.1491755 -0.1622526 0.146914
0000d0 e0 d2 63 bd 18 28 1b 3e 7d ee 99 be c0 8e d2 bd
       -0.055621028 0.15152013 -0.30064765 -0.10281134
0000e0 0d 7a 10 bd 44 8f d7 3d 5c 67 67 3b ec d3 03 be
       -0.035272647 0.105253726 0.003530941 -0.1287381
0000f0 2e 91 e4 3d 57 7b 15 be 67 2f 47 3e a3 5f 97 3d
       0.11160503 -0.14597832 0.19451676 0.07391288

rnn.weight_hh_l1 f4 [8, 8]
000000 6c 18 ef 3c fb 14 ed be ab f8 4b 3d 05 f5 a4 3e
       0.02918645 -0.4630507 0.049797695 0.32218185
000010 52 69 9e be 7e e9 45 bd 35 9b b7 3e 1e 47 ff bc
       -0.30939728 -0.04831838 0.358606 -0.031161841
000020 cd 2c ba 3e 25 fc 46 bf 5e 13 00 bd eb e1 7a bc
       0.36362305 -0.7772849 -0.03126847 -0.015312652
000030 51 1f 8e be 3f dd 0a be 87 73 f7 3c 17 ba 72 3d
       -0.27758268 -0.13560961 0.030206455 0.0592595
000040 97 06 0f 3e ff 07 9c 3e 9e 85 5a be 78 b1 b0 3e
       0.13967358 0.3047485 -0.21340033 0.34510398
000050 eb 63 18 bf 13 36 82 3d b0 ac 36 3e f0 37 e0 be
       -0.5952746 0.0635797 0.17839313 -0.43792677
000060 c6 2f f6 be 62 58 cc bc 16 74 b5 3c 93 06 75 3e
       -0.48083323 -0.024944488 0.02215008 0.23928289
000070 7f c9 90 be 96 a6 4e bc a6 db 7e 3e e6 f0 02 bf
       -0.2827873 -0.012612959 0.24888477 -0.5114883
000080 7f 15 be 3d 93 b5 c7 3e 50 72 c3 bd 95 ad a0 3e
       0.09281444 0.39005718 -0.09543288 0.31382433
000090 15 4f 05 bf b0 38 d5 3d 1f 32 0b 3b bb 3f e2 bd
       -0.52073795 0.10411203 0.0021239591 -0.11047312
0000a0 fe 81 20 be a1 70 01 3e fc 8c 6e 3e 56 9c 17 bf
       -0.15674588 0.12640621 0.23295969 -0.59222925
0000b0 91 37 cc 3e f8 90 c9 be 04 b7 c6 3e 55 12 08 3e
       0.39886144 -0.39368415 0.38811505 0.13288243
0000c0 9e b5 b6 3b 12 09 1c 3c 31 e4 1d be ea e7 28 3e
       0.0055758497 0.009523647 -0.1541908 0.16494718
0000d0 0e be 12 3e 1e aa a7 be 54 88 7b bc 9d 35 0a 3f
       0.14330313 -0.32746977 -0.015352327 0.5398806
0000e0 bb 33 1b 3e 53 07 6c 3d d6 7c fc 3d 3c d5 f0 3e
       0.15156452 0.057624172 0.12328498 0.47037685
0000f0 d7 a6 b7 bd 91 0d 16 be ff 42 ac 3e 75 4e 3f 3c
       -0.08967369 -0.14653613 0.33644864 0.01167642

rnn.bias_ih_l1 f4 [8]
000000 c1 47 58 bd 8f 95 24 be 3a 6f 19 3d 9b ae c5 bd
       -0.052802805 -0.16072677 0.03745959 -0.09652444
000010 05 98 6d be 3b 22 2b 3e 8d 85 fd bd 6c 6a 98 3e
       -0.23202522 0.16712277 -0.123789884 0.29768693

rnn.bias_hh_l1 f4 [8]
000000 ec 3f bd 3d 59 50 f6 3d 7e a7 fb bd 48 8e 2b 3e
       0.09240708 0.12027044 -0.12287806 0.16753495
000010 12 b5 2f 3e 7c ba db 3d b5 95 f5 bd 5e bc 4b be
       0.17158917 0.107289284 -0.11991445 -0.19896075

fc.weight f4 [2, 256]
000000 b7 a1 6a bd 98 22 e0 bc 7d 7d 6e 3d 05 b6 10 bc
       -0.05728313 -0.027360246 0.058225144 -0.008832459
000010 9f 15 17 3d 2d 56 2d 3d 16 68 39 3d ff 37 31 bd
       0.036885854 0.04231851 0.04526528 -0.043266293
000020 14 be cb 3b 3a c6 8f bd e5 bc e3 bc dd 4e 89 bd
       0.0062177274 -0.070202306 -0.027800033 -0.06704495
000030 aa 9e 9e bc 49 18 0e 3d 76 8c bb 3c 0a 25 3b bd
       -0.019362766 0.03469113 0.022894125 -0.04568962
000040 ec d3 4d 3b 1c 31 d5 bc 56 32 3b bd c9 12 30 bd
       0.0031406833 -0.026024394 -0.0457023 -0.042986665
000050 ec 66 54 bc da 39 1f 3c 1b 7a 74 3d 93 ee 1c 3a
       -0.012963992 0.009718383 0.05968676 0.0005986478
000060 ba 77 c9 bb fa f0 17 3c cb ca 70 bd d6 08 21 bc
       -0.0061483057 0.009273762 -0.05878715 -0.009828767
000070 dd e0 36 bd 1e 8a 98 3b 20 9e 4c 3d 9e 82 90 bc
       -0.04464804 0.0046551367 0.049955487 -0.017640408
000080 1f a5 b4 bb a2 10 47 bb af 83 53 bd 70 cc 89 bc
       -0.005512848 -0.0030374904 -0.051639255 -0.016821116
000090 7e 66 c8 bc 1e 62 33 3c dd 60 81 3d 37 e1 ef bc
       -0.024462935 0.010948686 0.06317303 -0.029282195
0000a0 08 71 98 3c 0f b3 89 bb 80 5a 81 bd a3 b7 c8 3b
       0.018608585 -0.0042022537 -0.0631609 0.006125407
0000b0 78 4b e9 bc bd 41 9f 3a fe 95 39 3d 57 a1 a5 bc
       -0.02847837 0.0012150329 0.04530906 -0.020218534
0000c0 a3 5f 6d 3a ea 79 d3 bd 04 54 79 3a 4b 0d d1 3c
       0.00090550835 -0.10325988 0.00095111155 0.025519034
0000d0 f5 7b 9f bd 1e 2f a2 3c f4 c6 22 3d 69 e9 52 bd
       -0.07787315 0.019797858 0.039740518 -0.05149213
0000e0 f3 7d 15 bc 1e bb 8e bd c3 da 8d bc 64 60 47 3c
       -0.009124267 -0.069692835 -0.017316228 0.012168977
0000f0 37 e1 a3 bd 3b 03 bc 3c 17 28 5d 3d 9a 82 83 bd
       -0.08001941 0.02295076 0.05399331 -0.06421395
000100 c7 88 c2 3c 45 d8 05 bd 04 9f 92 bd a5 cf f9 3b
       0.023746861 -0.032676954 -0.07159236 0.00762363
000110 c6 fd 46 bd 8d de 44 bb 75 2f 84 3d ac 31 5b bd
       -0.04858186 -0.0030039877 0.06454364 -0.053514168
000120 38 b0 a6 3c 70 37 ee bb f1 ea 6b bd 7c 55 83 3c
       0.0203477 -0.0072697923 -0.057597104 0.016031973
000130 66 5b 65 bd b6 a3 89 bb 0c 99 10 3d d6 39 5d bd
       -0.055995367 -0.004200424 0.035302207 -0.054010235
000140 82 90 bc bc 68 82 6e bc 5d 33 b6 bc aa 43 5b 3d
       -0.023018125 -0.014557458 -0.022241289 0.053531326
000150 4a 53 a0 bd b9 87 a0 3c 75 cc 44 3d 79 eb 98 bd
       -0.07828386 0.019595968 0.048046548 -0.07466788
000160 dd 7b ca bb 42 c7 6d bc 00 24 48 bd 42 43 0b 3d
       -0.0061793164 -0.014512839 -0.048862457 0.03399969
000170 b0 38 c8 bd 53 8c b8 3c 81 bd 2a 3d b7 31 9f bd
       -0.09776437 0.02252785 0.04168463 -0.07773154
000180 d3 8a ea 3b 1b 1e 4e bc 0f 98 87 bd 58 2f 06 3b
       0.0071576624 -0.01258042 -0.066208 0.0020474996
000190 a2 69 ac bd a1 e5 1d 3d 47 3a 20 3d 6c 0b 8f bd
       -0.08418585 0.03854907 0.039118078 -0.069846004
0001a0 7d c1 9b bc 4e 30 0f 3d 53 7b 45 bd 67 0f d7 3c
       -0.01901316 0.034958176 -0.048213314 0.026252462
0001b0 79 91 c3 bd 7e f3 27 3d cb 77 37 3d de d3 41 bd
       -0.09549231 0.041003697 0.044791978 -0.047321193
0001c0 3f 54 e0 3c 93 6b 93 bc 0d 38 65 bd 70 38 f5 3c
       0.027383922 -0.017995631 -0.055961657 0.029934138
0001d0 60 2a 9d bd 8e ca 88 3c 64 1c 55 3d 71 d4 67 bc
       -0.07674098 0.016698148 0.05202903 -0.014149771
0001e0 c9 1f 6c bc 1e a9 ba bc 2c 3c 25 bc 3c d7 a6 3c
       -0.014411875 -0.02278572 -0.010085147 0.020366304
0001f0 33 2b 9a bd 93 57 59 3d bb 4a f5 3a 19 b4 b0 bd
       -0.07527771 0.053062033 0.0018714288 -0.08628101
000200 c3 81 ad 3a c8 eb d0 3b b0 ac df bc 5f 7b 2f 3d
       0.0013237525 0.0063757636 -0.027304024 0.042842265
000210 a0 4e 9c bd c3 4a ef 3c 8b 7f 40 3d 79 64 b7 b9
       -0.07632184 0.029210454 0.046996634 -0.00034979338
000220 97 94 9b 3c 40 91 d7 bc aa 72 03 bd 87 d0 bb 3c
       0.018991752 -0.026314378 -0.032091774 0.022926582
000230 ca eb 8b bd 99 2a a4 3c 64 ef ad 3b 8f 56 83 bd
       -0.068320826 0.020039843 0.0053080786 -0.06412994
000240 9d 74 8a 3b 22 6c bb bb 03 fc 47 bc 9b 8f d1 3c
       0.004225327 -0.0057196775 -0.01220608 0.025581172
000250 9e 10 3b bd f2 97 e4 3c 72 ae 10 3c 00 b7 0c bc
       -0.045670144 0.027904484 0.0088306535 -0.0085885525
000260 86 98 f6 bc 0c bd 6f 3d 08 25 4d 3c 3c 24 18 3d
       -0.030102026 0.0585299 0.012521036 0.03714393
000270 e7 8b 2d bd 1d e0 02 3d 73 42 a1 3b 6f 4e 30 bd
       -0.04236975 0.031952012 0.0049212514 -0.04304355
000280 cf be f8 3c dd 5f f2 3b b9 f6 3c bd e7 38 be 3c
       0.030364422 0.0073966817 -0.04613373 0.023220493
000290 2f f2 49 bd 57 e8 14 3c b4 d7 7a bc a3 6a d4 bb
       -0.04930323 0.009088597 -0.015310217 -0.0064824386
0002a0 eb a8 7a bc 28 58 c1 3c 86 a9 14 3c f6 9b bf 3b
       -0.015299062 0.023601606 0.009073621 0.0058474494
0002b0 e6 bb 3e bd 39 34 35 3d a2 e1 a5 bc 15 93 b3 bc
       -0.046565913 0.044239257 -0.020249192 -0.02192072
0002c0 ac b2 e5 3b b8 14 1d 3d 59 12 ce bc a9 c3 e7 3c
       0.0070098247 0.038349837 -0.025155233 0.02829154
0002d0 20 4b f2 bc 04 57 cb 3b 07 73 ed 3b 16 01 f1 3c
       -0.029576838 0.0062054414 0.0072463783 0.029419463
0002e0 70 50 5f 3d 26 e3 9c bb 87 8a 93 bc 88 3d be bc
       0.05452007 -0.0047878204 -0.01801039 -0.0232227
0002f0 95 63 d6 3c 16 65 06 bc 09 df 0f bd 48 d2 d6 3c
       0.026170531 -0.008202812 -0.035124812 0.026223317
000300 9c ce 3a bc 69 f9 56 3c dd f9 7c 3d 57 6e de 3c
       -0.011401799 0.013120987 0.061761726 0.027152224
000310 25 ed 76 3c c2 2b 9b 3c d9 1f 77 bd 17 bb de 3c
       0.015071188 0.018941764 -0.060333107 0.02718882
000320 8e 89 be b9 26 2b 0c 3d 3b dd 00 3d 23 bd 6a bc
       -0.0003634211 0.034220837 0.03146098 -0.01432732
000330 3f 3c c8 3c 3b f1 ad 3b 53 f6 0c bd ac d5 d4 3c
       0.02444279 0.005308298 -0.0344146 0.025980793
000340 e2 17 2d 3d 1b 77 6b 3d 7d 05 df bc 33 70 03 bc
       0.042259105 0.057486635 -0.027224297 -0.008022356
000350 3e 30 c9 3c 11 9d f3 bc 75 a1 63 bd ba d7 43 3d
       0.024559136 -0.029737981 -0.0555739 0.047813155
000360 5d ce d3 3c 7f 8a 44 3d 05 00 33 3c 0f 8c 23 bd
       0.025855238 0.047983643 0.010925298 -0.039928492
000370 a2 80 87 3d 71 5d da bc 2a d8 21 bd d0 0d 8d 3d
       0.06616332 -0.026655884 -0.03951279 0.068874
000380 89 85 91 3b 3f 1e 15 3d 91 4a 9a 3d 01 47 2e bc
       0.0044409675 0.036405798 0.07533754 -0.010637046
000390 2f 21 ca 3d 6c 88 39 bc d3 07 93 bd 32 47 8d 3d
       0.098696105 -0.011324029 -0.07179227 0.06898345
0003a0 79 0f 09 bd 9b 9e 2c 3d cf 3e af 3d bd 49 86 bb
       -0.03346202 0.042143445 0.08556902 -0.0040981458
0003b0 32 9d 71 3d dc 9d 68 bc 8c 13 33 bd d2 a0 0f 3d
       0.058987804 -0.014197793 -0.043719813 0.03506548
0003c0 5e c9 e2 3c cc 72 00 3d 18 95 f3 3c f6 a1 7b bd
       0.02768391 0.03135948 0.02973418 -0.061433755
0003d0 f7 d5 d5 3d 92 ca d3 bc 0d 95 74 bd 79 07 70 3d
       0.10441201 -0.025853429 -0.05971246 0.058600876
0003e0 de 6e 7a bc 15 7b 87 3d 97 08 13 3d bb 8a 02 3d
       -0.015285222 0.06615273 0.035896864 0.031870585
0003f0 69 77 2a ba 88 47 2e bc d7 2c 15 bd 42 40 7e 3d
       -0.0006502779 -0.010637172 -0.036419716 0.062073

fc.bias f4 [2]
000000 56 e0 2b 3b 72 1f bb bd
       0.0026226244 -0.09136857
