model/checkpoint/train_sparse_feedback_dict_batch250_epoch_300\70_loss123.pt (torch, 4899 bytes, 10 tensors)

rnn.weight_ih_l0 f4 [8, 3]
000000 67 11 14 bd 80 52 0d 3f e6 f9 99 be a5 a2 a9 3d
       -0.03614941 0.5520401 -0.3007347 0.08282975
000010 6c 82 22 3e f1 c3 30 bf 62 ca 07 3d 1f df da 3e
       0.15870064 -0.6904898 0.03315199 0.42748353
000020 d3 63 2e bd 65 fb 6d 3d 0a 58 44 3d ab cd 8a 3e
       -0.04257567 0.058101077 0.047935523 0.27110037
000030 43 dc 61 3c 53 95 de 3c 86 3d 88 3e 62 ad 66 3c
       0.013785425 0.027170813 0.2660944 0.014079424
000040 41 b1 c8 3e 6e e5 93 3e 39 8b 01 bd 9b 06 31 3e
       0.39197734 0.28885978 -0.031626914 0.17287676
000050 38 27 32 bf 93 2f fa 3d 2b 01 85 be 99 24 0e be
       -0.69591093 0.12216105 -0.25977454 -0.13881148

rnn.weight_hh_l0 f4 [8, 8]
000000 80 00 a9 be e0 12 e9 3c 12 e3 40 bd 0d 47 d9 3e
       -0.33008194 0.028451383 -0.04709155 0.4243702
000010 6c 5d 2c be f9 db 9e 3d e4 15 9f be b5 54 f4 bd
       -0.16832513 0.077568 -0.3107139 -0.11930219
000020 ef f1 83 3e a7 66 80 be b1 82 32 be 07 e9 76 be
       0.25770518 -0.25078318 -0.17432667 -0.2411233
000030 f9 3b 57 3e 99 fc 8b be 5a 0c ec 3d 23 1a 3a 3e
       0.21018972 -0.27341154 0.115257934 0.18174033
000040 c9 96 df 3e 00 00 58 be cd f4 70 3e c2 bb 6e 3d
       0.43669727 -0.2109375 0.23530884 0.05828453
000050 1a 59 f1 bc 54 84 90 3e 5f 2f 9a 3d 16 19 8f bb
       -0.029461432 0.28225958 0.075285666 -0.004367004
000060 ed 29 72 3e 2f d0 3f be dc e7 88 be 5f eb 7f be
       0.23648806 -0.1873176 -0.26739395 -0.2499213
000070 be 2e 5c 3c 79 7e 30 3e da 31 c6 be da 3f 28 be
       0.013438879 0.17235745 -0.3870991 -0.16430607
000080 93 a9 9d be 1a aa 86 bd bc 36 a7 bd f6 0d 05 bf
       -0.30793437 -0.06575413 -0.08164737 -0.5197443
000090 56 10 57 3e 7d 0d 0b bf 3e 0c 38 bd 47 4e c4 3c
       0.21002325 -0.54317456 -0.04493355 0.023963107
0000a0 df 7f e5 bd 5e 1f 2b be 06 a9 8f be 38 6b 46 3e
       -0.1120603 -0.16711184 -0.28058642 0.19376838
0000b0 5b 6c 82 3e 0e 71 b7 be 1a 52 65 be ab 20 db bd
       0.25473294 -0.3582844 -0.223946 -0.1069959
0000c0 5c 3b 82 3d 6f cd a0 be 37 34 05 3c 52 7d a6 bd
       0.06358978 -0.31406733 0.008130125 -0.08129372
0000d0 69 fc 4c be 68 5a aa 3e a0 55 83 be 11 2c 5a 3e
       -0.20018162 0.332721 -0.25651264 0.21305872
0000e0 1e 52 85 3e 97 e1 24 bd af fe 9f bd 69 81 94 be
       0.26039213 -0.0402542 -0.07812249 -0.29004982
0000f0 e7 57 be bd c1 25 3e 3e bb e9 15 3d 05 1f 9d bd
       -0.0929411 0.1856909 0.036599856 -0.07671932

rnn.bias_ih_l0 f4 [8]
000000 ce c9 6f 3e 44 1a 8f be 7f 15 92 3c 9e a3 cf 3e
       0.23416826 -0.27949727 0.017832516 0.40554518
000010 3d cc 8f be fd 2e 5b 3e be 15 47 be 4e 7b 9e 3e
       -0.2808551 0.21404643 -0.19441888 0.3095345

rnn.bias_hh_l0 f4 [8]
000000 2c f9 0b 3e 54 bb 7f bd 43 6e c2 3e fd 5d 5c 3e
       0.1366927 -0.06243451 0.37974748 0.21520229
000010 7b c3 ba 3e 3f a1 64 bd 59 13 8a bd d9 72 53 3e
       0.36477265 -0.05581784 -0.067419715 0.2064928

rnn.weight_ih_l1 f4 [8, 8]
000000 91 40 79 3d bc e7 25 3e 5b 5e 3e 3d 0c a1 b9 3e
       0.06085259 0.16201681 0.046476703 0.36255682
000010 2d 59 6d 3d bc 2d d5 3c fe f7 a8 3e ec 7e 32 be
       0.057946373 0.026022784 0.33001703 -0.1743123
000020 26 46 12 3d c2 c8 4a 3b 01 9e 0f bc 6c 78 b6 3d
       0.03571143 0.0030942415 -0.008765698 0.089096874
000030 58 75 23 3e 23 46 49 be dd 14 87 bd 08 a4 e5 bc
       0.15962732 -0.19655661 -0.06595776 -0.028032318
000040 7f ed 8e bd a9 c4 06 3e a6 d2 64 be 5d a6 9c 3e
       -0.069788925 0.13160957 -0.22345981 0.30595675
000050 a4 e0 3a 3e b3 12 48 be 34 83 61 3e c9 65 93 bd
       0.18249756 -0.19538383 0.22022706 -0.07197148
000060 e4 8a 50 be 8e 74 35 3d a3 42 8b 3e b5 78 3c be
       -0.20365483 0.04430061 0.27199277 -0.18405421
000070 14 f1 17 be 4f 90 77 be 4f c6 ec 3d be fb 19 bd
       -0.14838058 -0.24176143 0.11561262 -0.037593596
000080 9c 16 89 be 30 4e 0e 3e f1 39 9f be 73 29 6f bd
       -0.26775062 0.13897014 -0.31098893 -0.05838914
000090 2f 28 09 be da 07 21 be e3 2f 25 be 68 09 b1 bd
       -0.13394235 -0.15725651 -0.16131549 -0.08644372
0000a0 03 c9 d3 3e 9e 80 56 3d f1 c9 a4 3e 23 f9 87 bd
       0.41364297 0.052368753 0.3218532 -0.06639316
0000b0 24 16 82 3e f3 38 81 3d ad 41 22 bd 68 16 98 bd
       0.25407517 0.0630969 -0.039613415 -0.07426149
0000c0 93 cb 32 be d5 b5 eb bd fc c7 15 be e4 17 2a 3e
       -0.1746047 -0.11509291 -0.14627069 0.16610676
0000d0 dd 2b 5e 3d e2 06 4c 3e 8c c0 a7 be b6 bc 07 be
       0.05424105 0.199245 -0.3276409 -0.13255581
0000e0 e4 32 8d bb 2d 1e fa 3d 29 ee b1 bc 30 9a 2d be
       -0.004309045 0.12212787 -0.021720009 -0.16953349
0000f0 e7 be 15 3d 3d 58 2d be e5 c0 78 3e 85 bc cf 3d
       0.03655901 -0.16928191 0.24292333 0.10143379

rnn.weight_hh_l1 f4 [8, 8]
000000 4a 50 ee 3c 51 95 06 be e6 4d 3e be 6d 4e 1c 3e
       0.02909102 -0.13142897 -0.18584403 0.15264292
000010 cd 4a a6 be c9 28 50 3e 4b af 9c 3e ff 5b 3b 3e
       -0.32478943 0.20328058 0.30602488 0.18296812
000020 45 a4 85 3e 54 66 f9 be 4d ad d0 3d 1e 14 9a 3d
       0.2610189 -0.48710883 0.101893045 0.07523368
000030 1e 8c 8a be 70 84 51 be a1 47 06 3e ec 01 d9 3d
       -0.27060026 -0.20460677 0.13113262 0.1059607
000040 5d ce 66 3e c6 cb 8c 3c 2b 42 54 bd c0 46 7f 3e
       0.22539659 0.01718701 -0.051820915 0.24929333
000050 86 fa d6 be c3 ae 00 3e d5 23 0b 3e 48 83 86 be
       -0.4198801 0.12566666 0.13587888 -0.26272035
000060 f8 18 8e be 21 16 41 bb ec 67 20 3d 72 20 31 3e
       -0.27753425 -0.0029462653 0.039161608 0.17297533
000070 ad 6d 80 be ca 12 00 3e aa d7 0a 3e 39 6e ef be
       -0.25083676 0.12507167 0.13558832 -0.4676378
000080 40 09 f4 3d c6 a4 21 3e bc 91 b7 bd 92 8b 70 3e
       0.11915827 0.15785512 -0.089633435 0.23490742
000090 d1 3b f9 be 49 3a 01 3e 3f 34 5e 3d a2 88 35 3b
       -0.4867845 0.1261989 0.054249045 0.0027699848
0000a0 25 c5 15 be 6e 3d 1c 3e 3b 6b 21 3e bd 45 96 be
       -0.14625986 0.15257809 0.15763561 -0.2935008
0000b0 6f a3 6c 3e 86 1d 8f be f8 10 4a 3e de 89 9d 3d
       0.2310922 -0.27952212 0.19733036 0.07692312
0000c0 56 41 26 be a5 a0 1f 3e e5 87 52 be 80 54 0e 3e
       -0.16235861 0.15588625 -0.20559652 0.13899422
0000d0 cb ae fd 3d cc b4 d7 be 74 be 26 3e eb 8d d5 3e
       0.12386855 -0.42130125 0.1628359 0.41709837
0000e0 95 cd 0c 3d 53 0c 48 3e ad 13 65 3d 50 70 c9 3e
       0.034375746 0.19535951 0.055926967 0.393435
0000f0 29 cd c7 3c 22 01 81 be fa c6 8f 3e 9b 04 51 3e
       0.02438982 -0.25196177 0.28081495 0.20411913

rnn.bias_ih_l1 f4 [8]
000000 5e 7c d6 bc 64 05 33 be 28 f6 c5 3c 4e 53 26 bd
       -0.02618235 -0.17482525 0.024165228 -0.04060679
000010 16 bd 83 be d8 62 29 3e d8 56 f6 bd 9f c7 a2 3e
       -0.257302 0.16541612 -0.12028283 0.31792924

rnn.bias_hh_l1 f4 [8]
000000 65 c4 f3 3d 15 71 d9 3d cd 70 0b be dd d0 64 3e
       0.11902694 0.10617272 -0.13617249 0.223453
000010 f4 d2 15 3e d3 3b d8 3d ff 66 ee bd 00 02 37 be
       0.14631253 0.105582856 -0.11640739 -0.17871857

fc.weight f4 [2, 256]
000000 4d 7f fc bc f2 d3 c9 3b 1b 0a 09 bc 09 02 5d bc
       -0.03082242 0.006159299 -0.008364226 -0.013489255
000010 66 34 d6 bc 91 ae 69 3d 0f b4 a0 3d 6a 86 e1 bd
       -0.026148032 0.057051245 0.078468435 -0.110119656
000020 66 ad 86 bb 22 ac b6 3c 4e f6 51 bc ec 8e 2f bd
       -0.004110026 0.022298876 -0.012815071 -0.04286091
000030 c7 ce 40 bd e9 c2 41 3d 1e e4 54 3d 7d 0a 9d bd
       -0.0470722 0.04730502 0.051975362 -0.07668016
000040 4d 92 a4 bb 2e 06 93 39 f6 87 34 bd 79 ba 4e bc
       -0.005022323 0.0002804263 -0.044074975 -0.012617701
000050 a5 ac 33 bd 97 7d 07 bb 00 a4 9e 3d c9 ef f7 bc
       -0.04386582 -0.0020674223 0.07746124 -0.030265706
000060 cf 1f 33 bd d6 60 28 bc a0 ef b7 3c 2a 29 44 3c
       -0.043731507 -0.010276994 0.02245313 0.011972705
000070 98 05 47 bd 77 13 e7 3c 22 b7 84 3d 33 cd 19 bd
       -0.04858932 0.028207524 0.06480242 -0.03754921
000080 9a c0 bc bc 4a b4 71 3c e0 71 b9 bc 88 6c 66 bc
       -0.023041058 0.014752457 -0.022637308 -0.014063962
000090 ea e3 c4 bc d5 20 7a 3c e5 af 82 3d ce 3c 17 bd
       -0.02403446 0.015266617 0.063812055 -0.036923222
0000a0 25 64 89 bb 6a 29 e7 3c d4 0c 86 bc 2d 99 1c 3c
       -0.0041928464 0.02821799 -0.016363539 0.009558004
0000b0 0d ac 7b bc 9f f0 12 bb c8 02 80 3d 5a 82 d0 bc
       -0.015360844 -0.0022421253 0.062505305 -0.025452781
0000c0 1c a6 bc bc ca 8e bb bc ff 4c 07 3d ae 8c 66 3d
       -0.023028426 -0.022895236 0.033032414 0.056286506
0000d0 2f e5 a3 bd cd 56 c8 3c 8d 62 44 3d a6 1a 2f bd
       -0.08002698 0.024455452 0.047945548 -0.042750023
0000e0 5f 9b e7 bc a5 ed 64 bd 98 30 06 3d 27 4e 16 3d
       -0.028272329 -0.055890698 0.032761186 0.036695626
0000f0 b4 da 6c bd ec 49 e9 3c ba 6d 94 3d 62 2f 5e bd
       -0.05782576 0.028477632 0.07247491 -0.054244407
000100 8f d4 ab 3c 47 c3 7e bc bb ac 33 bd c3 2d 74 3c
       0.02097538 -0.015549487 -0.0438659 0.014903489
000110 3e 64 b3 bc a1 bf 06 bd 11 6f 78 3d 81 ce 0e bd
       -0.021898385 -0.032897595 0.060652796 -0.034864906
000120 d2 af ff 3c f8 b6 ed ba e9 9a 3d bd b6 a7 76 3c
       0.031211767 -0.0018136194 -0.046290312 0.015054634
000130 61 60 7a bc e0 b9 9c bc cb 19 24 3d b3 f2 34 bd
       -0.015281768 -0.0191316 0.04006366 -0.04417677
000140 99 51 49 bc fc 9d 0f bb af 11 80 3c 3b 7e 38 3d
       -0.012287521 -0.0021914234 0.015633432 0.045042258
000150 0c 26 57 bd da 57 0a bb b1 5a 31 3d a9 9e 72 bd
       -0.05252652 -0.0021109493 0.04329938 -0.05923334
000160 5c 6a 80 3c 89 2c cc bc 9a 53 19 bc 50 d7 1b 3d
       0.015675716 -0.02492358 -0.009358311 0.038047135
000170 d9 d3 34 bd 24 5a 04 3c c7 6a 15 3d ce 81 85 bd
       -0.044147346 0.008078132 0.036478784 -0.06518899
000180 fd cf ca 3c 1c 69 e4 bc ac b8 80 bc e0 bf 95 bc
       0.02475738 -0.027882151 -0.015713058 -0.01827997
000190 ad d4 2c bd bb b3 c5 3c 50 a5 e3 3c 5d 40 42 bd
       -0.04219501 0.024133554 0.027788788 -0.047424663
0001a0 43 8e 65 bb 60 80 05 3c 8c 68 40 bc 67 3c 00 3d
       -0.0035027422 0.008148283 -0.011743676 0.031307604
0001b0 ad d8 f9 bc 84 fb fe 3c 59 9f 20 3d 1a 89 c5 bc
       -0.030498827 0.031125791 0.039214466 -0.024113227
0001c0 1d 91 0e 3d 58 d0 4b 3c ac fb 50 bc 69 67 44 3c
       0.03480636 0.01243981 -0.012755316 0.0119875455
0001d0 9c f7 30 bd 4d 39 69 bb 88 c5 2b 3d 5b 41 99 3c
       -0.04320489 -0.0035587132 0.041936427 0.018707922
0001e0 ac e6 7b bc 42 0e 69 bd ec a6 a7 3b 22 39 76 3c
       -0.015374821 -0.056898363 0.005116334 0.01502827
0001f0 02 5b c0 bc f4 c1 3c 3d 9e c3 7f bc 3c d3 55 bd
       -0.023480896 0.046083406 -0.015610604 -0.052203402
000200 3a 8a ae 3c ed e1 2e 3d bc 66 7c 3c 66 4e ab 3c
       0.021306146 0.04269593 0.015405353 0.020911407
000210 9d de 42 bd cb 93 6d 3c 57 27 0f 3d d1 6b 03 3d
       -0.04757558 0.014500569 0.034949627 0.032085244
000220 81 3a ff 3b ee bc a2 bd a1 10 3c bd a0 4a ae 3c
       0.0077889566 -0.07946192 -0.045914296 0.021275818
000230 cb 1f d6 bc 9d d4 8a 3b de 8d 4d bc b6 3f 08 bd
       -0.026138207 0.0042367713 -0.012546031 -0.033263884
000240 24 be 9c 3b 6b 1c 31 3d 82 63 ec 39 b1 e0 42 bc
       0.0047834087 0.043239992 0.00045087567 -0.011894391
000250 08 dc 68 bc cd c8 25 3d 56 dd 95 bc 80 87 c0 3c
       -0.014212616 0.0404747 -0.018294018 0.023502111
000260 c9 7f 77 bc 8f d7 de bc f5 97 0d 3d 52 79 66 3c
       -0.01510615 -0.027202396 0.034568746 0.014067011
000270 62 07 94 3c 3f 97 9a 3c 6f 8f 83 ba bb 21 0b bd
       0.018069927 0.018870948 -0.0010037253 -0.033967715
000280 4b e3 23 3d 1a ff c0 3c 6f 70 7f bd ac 65 df 3c
       0.040011685 0.023559142 -0.062363084 0.02727016
000290 ac 4e ac bc 3c a0 30 3b c7 3c 7e bc f7 fe 44 3b
       -0.021033607 0.0026950976 -0.01551742 0.0030059197
0002a0 1d cf 83 bc 96 ea cc 3b 5a 49 04 3d 45 91 2c bc
       -0.01608997 0.0062535508 0.032296516 -0.010532682
0002b0 90 a1 c8 bc fd e3 70 3d 85 7f a8 bc 04 69 c1 bb
       -0.024491102 0.058811177 -0.020568619 -0.0059024114
0002c0 1c 2a 8b 3c b0 79 6c 3c b6 df 0b bd 9f e9 c1 3c
       0.016987853 0.014433309 -0.034148894 0.02367097
0002d0 d7 a0 7f bb e5 61 63 bb ca 44 c7 3b ca 27 1d 3d
       -0.003900578 -0.00346958 0.0060811983 0.038368024
0002e0 8c fd 1f 3d e8 11 d6 bc 75 a7 1d bd 07 32 7b bd
       0.03906016 -0.026131585 -0.038489778 -0.061327007
0002f0 fb 79 00 3d 73 12 bd 39 d8 fb 4d bd 22 07 3c 3d
       0.03136633 0.00036062635 -0.050289005 0.04590524
000300 54 54 f0 bb 67 ed 02 bd 5a f3 40 3d dc 9a b5 bc
       -0.0073342714 -0.031964686 0.047107078 -0.02216857
000310 b8 c1 c6 3c 58 a4 36 3d b2 39 8b bd 1b 59 ec 3c
       0.024262294 0.044590324 -0.06798114 0.028851083
000320 c9 cf a5 ba ee c9 d5 bc f7 3f c6 3c 65 5f a3 bc
       -0.0012650426 -0.026097264 0.024200423 -0.019942949
000330 1b da 11 3d 44 0d d2 3c b0 1d 62 bc a2 e3 4f 3c
       0.035608392 0.025641091 -0.013801023 0.012688549
000340 f8 ae fa 3c 84 f4 c0 3c 7f 34 63 bd 02 bd 31 3c
       0.03060101 0.023554094 -0.055469986 0.010848286
000350 c7 fc 45 3c d9 36 97 bc c3 8e 0b bd 21 82 40 3d
       0.012084193 -0.01845877 -0.034071695 0.0469991
000360 18 28 a2 3c 67 b1 08 3d 52 4c 06 bd 5b 97 e4 bc
       0.019794509 0.03337231 -0.03278763 -0.027904203
000370 ae ca 0c 3d b0 3e 0d bc dd 74 4c bc 0f 77 8f 3d
       0.034372978 -0.008620903 -0.012479034 0.070051305
000380 78 43 09 bc d4 41 a1 bc f1 85 16 3d 8a 5b c0 bc
       -0.008377902 -0.01968471 0.03674883 -0.02348115
000390 c5 ff 6a 3d 28 24 23 bc 36 a4 14 bd 13 fd 64 3d
       0.057372827 -0.009957351 -0.036289416 0.055905413
0003a0 c3 90 35 bc 33 37 62 3b af 3d 5a 3d de ab 47 3d
       -0.011081877 0.0034517765 0.053281482 0.04874789
0003b0 2f bd 61 39 7d f1 d6 bc 6b d2 c2 bb 6a 3c 84 3c
       0.00021528148 -0.026238197 -0.005945494 0.016142089
0003c0 45 60 97 3c 06 d8 1a bd b1 93 1d bd 8d c9 48 bd
       0.018478522 -0.037803672 -0.038470928 -0.04902034
0003d0 78 fd ee 3c 87 d8 64 bd 91 f2 99 bc a3 50 f0 3c
       0.029173598 -0.05587056 -0.018792422 0.029335326
0003e0 35 17 ca bc 6e 9d 2d 3d ea 81 0d 3d 4a ab ad bb
       -0.02466927 0.042386465 0.034547724 -0.0052999603
0003f0 69 32 a9 3c c6 b2 8a bc f8 ac b5 bc 78 b5 c2 3c
       0.02065392 -0.016930949 -0.022177204 0.023768172

fc.bias f4 [2]
000000 c3 ee 8e 3b 76 55 47 bd
       0.0043619587 -0.048665486
