model/checkpoint/train_sparse_feedback_dict_batch250_epoch_300\1_loss12.pt (torch, 4899 bytes, 10 tensors)

rnn.weight_ih_l0 f4 [8, 3]
000000 b9 c7 1d 3e 69 d1 05 3e fe 07 1b 3e c2 93 9f bd
       0.1540822 0.13068165 0.15139768 -0.077918544
000010 59 6a 88 3e f3 94 91 be c8 bb 57 3e da a5 99 3e
       0.26643637 -0.28433952 0.21067727 0.30009347
000020 4b e2 24 3e 8d 50 df bd 3b 10 48 be c0 25 5c bd
       0.16101949 -0.10904036 -0.19537441 -0.05374694
000030 8b c4 5e 3c be 5d af be 60 42 29 bd c7 6d 83 be
       0.013596664 -0.34251207 -0.041323066 -0.2566969
000040 10 da ba be 76 0b 17 3d 95 f8 98 be 04 2d 17 be
       -0.36494493 0.036876164 -0.29877153 -0.14763266
000050 57 01 fd bd 65 ed 1b 3e bb e5 5b 3e 34 00 bd 3e
       -0.12353771 0.15227278 0.21474354 0.36914217

rnn.weight_hh_l0 f4 [8, 8]
000000 5d 7a 74 be a7 9b 2c be ba 02 b0 be 07 c4 86 be
       -0.23874803 -0.16856252 -0.3437708 -0.26321432
000010 27 9e 93 be da d2 24 3e 99 91 bd be 45 10 9e bd
       -0.28831598 0.16096058 -0.37025145 -0.07717947
000020 91 5f ec 3d 30 51 f4 3d ea 82 ad bd cc 16 8c 3e
       0.11541665 0.11929548 -0.084722355 0.27361143
000030 40 d5 90 be 79 24 d2 3d 0b 36 c0 3d 91 0e a6 3e
       -0.28287697 0.10260863 0.09385308 0.32432988
000040 d6 bf 96 bb 07 d9 72 be 0f f0 95 3d 47 b1 d7 3d
       -0.0046005053 -0.23715602 0.07321178 0.1053186
000050 29 44 c5 bd e5 ee de bd 2b 27 c8 3d 92 d4 90 3e
       -0.09632141 -0.10885409 0.09773096 0.28287178
000060 cf e3 44 3d cb 2b e1 3d 65 2c 83 be 20 8c 8c 3e
       0.048068818 0.10994681 -0.25619808 0.27450657
000070 72 f1 af 3e 85 44 49 be c5 fb 70 3e a4 37 e2 3d
       0.34363896 -0.19655044 0.23533542 0.11045769
000080 cf c4 37 be 6f 06 78 3d b2 18 61 be 43 95 a8 3e
       -0.1794617 0.06055301 -0.21982077 0.32926378
000090 75 d8 b4 3e 0a 5b 96 3e 56 eb a1 be 78 0f 1d 3e
       0.35321394 0.29366332 -0.3162486 0.15337932
0000a0 ee 56 5b 3e b6 c9 94 bd 0d 95 23 3e a5 94 6e bd
       0.2141988 -0.07265036 0.15974827 -0.058247227
0000b0 1c 48 8f be 31 53 d6 3d 0e 45 0f 3e 79 12 9d 3e
       -0.27984703 0.10465086 0.13991186 0.30678156
0000c0 85 3e 1a bc 69 0c 8c be 1a d2 42 3a 74 cd 7e 3c
       -0.00941432 -0.27353218 0.000743182 0.0155519135
0000d0 f3 0f 84 3e bf 4c 57 be 22 08 c8 bd b6 70 85 bd
       0.25793418 -0.2102537 -0.09767176 -0.065156385
0000e0 c7 31 68 be 49 69 9b be 15 b4 a0 bc 79 d0 4e 3d
       -0.22675239 -0.30353764 -0.01961712 0.050491784
0000f0 3b 70 ad ba a9 9d b7 be 86 b8 99 be 1c e9 86 3e
       -0.00132323 -0.35862473 -0.30023593 0.26349723

rnn.bias_ih_l0 f4 [8]
000000 35 18 2c 3e b8 15 ff bd ed ff cc 3c 8e 46 2d 3d
       0.16806109 -0.124553144 0.025024379 0.042303614
000010 70 91 1a 3e 57 71 b9 bd 66 72 0d be a6 07 ee bd
       0.15094543 -0.09054821 -0.13813171 -0.116225526

rnn.bias_hh_l0 f4 [8]
000000 17 0a 61 be 1c d0 11 be e3 d0 88 3e 4a 84 7f 3e
       -0.21976505 -0.14239544 0.26721868 0.24952808
000010 5a 91 93 3e cb 24 a0 3e 11 42 69 be 23 58 8e 3d
       0.28821832 0.3127807 -0.22779109 0.069504045

rnn.weight_ih_l1 f4 [8, 8]
000000 4b b1 b1 3d 6c 54 90 be a4 2e 7d 3b 5b 34 7c be
       0.08676394 -0.2818941 0.0038632536 -0.24629347
000010 34 bf 11 3e 0b 89 57 3e cc 98 41 bc d8 b0 5b bc
       0.14233094 0.21048371 -0.011816215 -0.013408862
000020 56 c0 32 be ca 18 ae 3c d2 6d 98 be e2 95 a4 be
       -0.17456183 0.021252055 -0.29771286 -0.32145602
000030 46 85 ea bc c3 3e c0 3d a4 d3 c1 be 20 0e 32 bd
       -0.028628003 0.09386971 -0.3785678 -0.043470502
000040 48 7e 77 3e a5 b7 b2 3d 11 6b 5b 3e e5 e1 f9 bc
       0.24169266 0.08726434 0.21427561 -0.030503223
000050 b6 75 5c 3e e9 02 80 3e 47 92 8b 3e f4 b4 5d be
       0.21529278 0.2500222 0.27260038 -0.2165106
000060 5c 15 b2 3e 99 be b1 3c b3 dd 50 3e 4d 37 9d 3e
       0.3478192 0.02169733 0.20397072 0.30706254
000070 dd 2f 7e 3c a5 7a 8c 3e 84 c9 89 3e 98 de ea bb
       0.015514341 0.2743732 0.26911557 -0.0071676485
000080 6f 57 9c bd 88 28 77 bd d0 03 90 be 32 a5 4d 3e
       -0.07633864 -0.060341388 -0.2812791 0.20082548
000090 81 62 f1 bd 5a e2 22 be fa 64 9b be a4 77 9c bc
       -0.11786366 -0.15906659 -0.30350477 -0.019100018
0000a0 46 ff 05 be 89 df c0 bd 53 02 9f 3e 08 71 8a be
       -0.1308566 -0.09417636 0.3105646 -0.2703936
0000b0 4f 58 f7 3c e2 de 93 bd 65 3e 53 3e 6d d4 25 be
       0.030193476 -0.07220246 0.2062927 -0.16194315
0000c0 d5 cf 4f be 50 9d 0a ba ed 01 9f 3d 2c ae 38 3e
       -0.20294125 -0.00052877236 0.07764039 0.18035191
0000d0 8f 32 57 3e c2 b6 13 3d 17 fd 42 3c 6f bf 4f be
       0.2101538 0.036062963 0.011901162 -0.2028787
0000e0 11 4c a3 be 63 d3 87 3e c5 1f 23 3e be 2c 9c 3e
       -0.31893972 0.26528463 0.15930088 0.30502886
0000f0 13 d2 81 3c 32 76 88 be 0a ad 31 be c4 66 62 be
       0.015847242 -0.26652676 -0.17351165 -0.22109514

rnn.weight_hh_l1 f4 [8, 8]
000000 db 52 7e 3e 79 cf 9d be db f8 78 3e 4f 05 8d be
       0.24836294 -0.30822352 0.24313681 -0.27543113
000010 73 7f 40 3d ec e5 99 3e 1b a5 28 3e 2f 6c 69 3e
       0.046996545 0.3005823 0.16469233 0.22795175
000020 fa ef 56 bd f3 51 0b be b4 5c 9f 3e 5c 78 3a be
       -0.052474953 -0.1360548 0.31125414 -0.18209976
000030 1a 98 69 3e 90 95 85 bd 0e 15 95 bd 24 2c 56 3e
       0.22811928 -0.065226674 -0.072794065 0.20915276
000040 16 e3 e2 bd e7 e2 01 be 93 20 89 3e 09 6c 04 3d
       -0.110784695 -0.12684213 0.26782665 0.032329593
000050 85 b2 00 be e6 dd e3 bc dd 33 b0 3e 65 c7 36 be
       -0.125681 -0.02781577 0.3441457 -0.178495
000060 c2 be 5d 3e d8 55 60 be 53 10 f9 3d 94 a9 de bc
       0.216548 -0.21907747 0.12161317 -0.02718047
000070 05 41 8f be 5b a8 d3 bd 6b c5 9d 3e 46 fb e1 3d
       -0.27979293 -0.10334846 0.3081468 0.11034255
000080 2c 10 80 3e c1 c0 a3 be ac 6e 69 be dd 91 92 3d
       0.25012338 -0.31982997 -0.22796124 0.071567275
000090 de cf 9d 3d 51 52 96 be 64 59 6b 3d d9 3d 40 be
       0.07705663 -0.29359677 0.057458296 -0.18773593
0000a0 f9 ca 9e 3d e1 86 9d be d5 c6 2d 3e fa f9 42 3e
       0.07753558 -0.30766967 0.1697038 0.19040671
0000b0 9a e6 9f 3e 99 fc 2d bc 55 1a 88 bd 00 7f 4b bd
       0.31230623 -0.010619306 -0.066456474 -0.049681664
0000c0 ae 9b 79 be 10 28 51 be c1 a2 2f 3d 6e ec 48 be
       -0.24375793 -0.20425439 0.042879824 -0.19621441
0000d0 2d 8a ae be 9e 33 a4 3e 7a 27 8f 3e db 18 58 bd
       -0.34089795 0.3207063 0.27959806 -0.05275808
0000e0 fa d6 20 be 78 79 9a 3e a5 85 75 be 63 96 13 be
       -0.15707007 0.30170798 -0.23976763 -0.14412837
0000f0 37 71 28 bd ae 17 a7 bd ba a5 40 bb be 07 9d 3d
       -0.041123595 -0.081588134 -0.0029395656 0.07667492

rnn.bias_ih_l1 f4 [8]
000000 84 8b a4 be 63 06 48 bc 4a 56 63 3e 71 99 82 be
       -0.32137692 -0.012208554 0.22200885 -0.25507692
000010 3b 73 1a 3e 8b 98 02 3e 52 11 83 3e 66 14 c4 3c
       0.1508302 0.12753503 0.25599152 0.023935508

rnn.bias_hh_l1 f4 [8]
000000 ab 83 9f 3d 57 ee 3e 3d cb 2b f0 3d 80 c6 8e 3e
       0.077887855 0.046614017 0.11727103 0.27885818
000010 ad 1b 39 3e d8 a7 98 be 50 0e a9 bd 6c 7c 7e bd
       0.18076964 -0.29815555 -0.08254683 -0.062130377

fc.weight f4 [2, 256]
000000 c0 d3 30 3d cc da 26 bd 2e a3 50 bd 18 ad e2 3c
       0.04317069 -0.040736005 -0.05093687 0.027670428
000010 bc 6b fc 3c d4 97 c9 bc 36 71 93 3c 5c 80 44 3d
       0.03081309 -0.02460853 0.01799832 0.047973976
000020 52 9b 91 bc 7f 98 1a bd 86 fd b0 bc aa ec ff 38
       -0.017774258 -0.037743088 -0.021605264 0.0001220343
000030 97 42 41 3d d9 c1 79 bd 53 d9 b9 bc dc 2e 28 bc
       0.047182646 -0.060975883 -0.022686636 -0.010265078
000040 5b 77 13 3c 64 50 38 3d de 26 14 3d 0d 8c 05 bd
       0.0090006245 0.04499854 0.03616988 -0.032604266
000050 3a e0 ea 3c cd 77 3d bd 6d 5c f3 3c 14 a8 b7 bc
       0.028671373 -0.04625683 0.029707158 -0.022419013
000060 9f 30 19 3d 52 dc df 3c 57 c2 59 bc 17 28 34 bd
       0.037399884 0.027326737 -0.013290963 -0.043983545
000070 ee 05 11 bb 91 39 3a bb 41 2d 39 bb 48 07 3f 3d
       -0.0022128779 -0.002841566 -0.0028255733 0.046637803
000080 a6 e6 57 3d ac a6 21 3d cb 4f c6 3c ed 55 08 3d
       0.052710198 0.03946559 0.02420797 0.03328507
000090 60 64 8e 3d 83 b9 58 3c ea e9 65 3c 18 6d 65 bd
       0.06952739 0.013227823 0.01403282 -0.056012243
0000a0 26 65 09 bd c0 79 61 bd c0 76 0e 3d 0b bd de 3c
       -0.03354373 -0.05504775 0.034781218 0.027189752
0000b0 92 01 28 bd e1 a7 c1 3c 6c 41 1e bd 15 20 1c 3d
       -0.041017123 0.023639621 -0.03863661 0.038116533
0000c0 ab 53 1b bd 0a 9c 67 bd 6c ec 71 bc 95 aa 6a bd
       -0.03792159 -0.056545295 -0.01476584 -0.057291586
0000d0 97 76 03 3d 22 62 42 bd 66 0c 85 bc 7f 11 78 bd
       0.032095518 -0.047456868 -0.016241264 -0.06056356
0000e0 64 f7 ef bc d2 f6 92 bb f0 f6 45 3d 9a 91 60 bc
       -0.02929277 -0.0044849897 0.0483312 -0.013706589
0000f0 87 f8 21 bd bb 4d 41 3d 5e 30 3e 3d e1 c1 f7 3c
       -0.039543655 0.04719327 0.046432845 0.030243816
000100 b8 df 70 3c aa e2 fe 3b c2 b1 7a bd 5f d6 14 bc
       0.014701776 0.0077784853 -0.06120468 -0.009084313
000110 39 b3 0f bd 11 03 26 3d 5b 87 a6 bc 67 17 20 3d
       -0.03508303 0.040530268 -0.020328214 0.03908482
000120 26 11 16 bd 3e d6 b4 bc d2 d9 1b 3d 25 5a 89 3a
       -0.036637448 -0.022074815 0.038049527 0.0010479136
000130 09 3f d5 bc 47 dc cd 3c 76 ac 2a 3d 5a 3c 30 bc
       -0.026031034 0.02512945 0.041668378 -0.010756576
000140 27 0d 71 3d 1f 3d 63 3d ce 64 82 3c b7 98 82 bd
       0.058850434 0.05547821 0.015917208 -0.06376784
000150 3d f2 af bc a4 cf 22 bd 44 ca 61 bc d4 e8 0f bd
       -0.021477813 -0.039748803 -0.013781134 -0.03513415
000160 28 0e 0c bd 78 22 11 3d 7c 86 4a 3d 1c bf 21 3c
       -0.034193188 0.035433263 0.04944466 0.009872224
000170 f5 14 e1 3b be 78 38 3d 1a 6b cf bc 1e ff 30 bc
       0.0068689534 0.045037024 -0.025319625 -0.010803012
000180 a8 ae 70 bc ce b7 01 3d f1 12 43 3d bc a3 e7 bc
       -0.014690079 0.03166943 0.047625486 -0.028276317
000190 91 46 17 bc 5c 40 32 3d df 23 96 3c 55 6b a9 3b
       -0.009233133 0.04351841 0.018327652 0.0051702657
0001a0 17 bb 20 3c fb 45 6e bd a5 e9 5e bd e3 32 cb 3c
       0.009810231 -0.058172207 -0.05442204 0.024804538
0001b0 7e e4 0d bd 76 01 32 bd 80 8a 31 3c 66 a5 87 bc
       -0.034641735 -0.043458425 0.010836244 -0.01655836
0001c0 eb 1c 65 3d 3d 98 59 bd c2 90 d7 bb 6a 23 2c 3d
       0.05593578 -0.0531237 -0.006578536 0.04202596
0001d0 83 08 d9 bb bb d4 a6 3c 46 7c c0 bc ff a3 0a 3c
       -0.006623329 0.02036511 -0.023496758 0.008461951
0001e0 e8 32 2e bd f6 6b 0f bd cc e6 3c 3c 90 78 3e 3d
       -0.042529017 -0.03501507 0.011529636 0.046501696
0001f0 bc cc 24 bc 72 72 52 bd af 24 15 bd 24 4d 38 bd
       -0.010058578 -0.051378675 -0.036411937 -0.044995442
000200 db be e4 3c 6b 20 cb bc f6 ea e0 3b c0 29 c2 bc
       0.027923038 -0.024795732 0.006863947 -0.023701549
000210 52 b7 87 bd aa 7b fd bc 00 c9 8e ba 9b c7 01 3d
       -0.066267624 -0.030942757 -0.0010893643 0.0316845
000220 e5 50 51 bd cf 4e 0e 3d 1b 82 85 bb 28 4f 93 bb
       -0.051102538 0.034743126 -0.0040743477 -0.00449552
000230 cd d0 9a bb 6e 06 f2 bb df 9c 30 bc 15 4b 09 bd
       -0.004724598 -0.0073860204 -0.0107795885 -0.03351887
000240 1f 7f 99 3c 2a 5d 3c bd 2b 29 8f 3c b7 6c 90 bc
       0.018737374 -0.045987286 0.017475685 -0.017629964
000250 70 b3 e1 bc 83 cc 0a bd 3a 7d 1f 3d 34 dc 90 bb
       -0.027551383 -0.033886444 0.038937785 -0.0044207815
000260 99 85 8e bc 47 e4 d7 bb 09 f9 4f bd 06 e4 3f 3d
       -0.017397689 -0.006588492 -0.050774608 0.04684832
000270 44 24 35 bd 2d 0a 26 3d de 6d 82 bd 17 d3 ff 3c
       -0.04422404 0.040537048 -0.06368612 0.031228585
000280 37 e0 fa 3c ee 94 f7 3c d8 fa fc 3c e3 ba f6 3b
       0.030624492 0.030222382 0.03088133 0.007529603
000290 d7 0a 68 3c 35 6e bb 3b 84 e0 34 3d 22 74 b7 bc
       0.014162741 0.005719925 0.044159427 -0.022394244
0002a0 86 a8 0f bc 14 67 55 bd 3f bf 5c bb bf 2f 8f bc
       -0.008768206 -0.052100256 -0.0033683327 -0.017478822
0002b0 21 64 01 3d b2 86 af 3c da 72 e6 bc 46 91 16 3c
       0.03158963 0.021426532 -0.028130937 0.009189909
0002c0 e4 f1 b4 3c 8e 8f 88 3b bc 06 e1 ba db 6e 9c 3d
       0.022087999 0.0041675037 -0.0017168145 0.076383315
0002d0 8a 41 60 3c b7 27 3d bd 33 6e da bc 71 66 64 3d
       0.013687501 -0.046180453 -0.026663875 0.05576176
0002e0 68 98 c2 bc 63 d6 03 bd 3d 22 c4 bc d2 8b 52 bd
       -0.023754314 -0.032186877 -0.023942107 -0.051402874
0002f0 17 35 93 bc f0 e1 97 bc 3d 53 d1 3c b0 4a de bc
       -0.017969651 -0.018540353 0.025552386 -0.027135223
000300 0b b9 3d bc f2 d1 9e 3a 59 3b 3d 3d ec 1c 68 3b
       -0.011579762 0.0012117012 0.046199176 0.003541763
000310 cd 11 00 3d b5 c4 2f bd 11 e8 25 bd d5 4a 0a 3c
       0.031266976 -0.042912204 -0.04050452 0.008440693
000320 de 37 2a 3d 1a c3 2b bd 21 be 36 3d 46 ff 28 bd
       0.041557185 -0.04193411 0.044614915 -0.041259073
000330 51 34 ae bb 87 e3 21 3b f2 be 24 3d 75 a8 00 bc
       -0.005316295 0.0024702267 0.040221162 -0.007852663
000340 ee 30 e6 ba 12 c0 ac bb 53 dd 2b bd 64 79 93 3c
       -0.001756219 -0.00527192 -0.041959118 0.01800222
000350 fe 3d 03 3d 12 54 a4 bc a6 c8 ed 3a 9f 21 53 3c
       0.032041542 -0.02005962 0.0018141463 0.012886434
000360 a8 0b d2 3c 43 75 8d ba 74 ed 12 bd ba 6b aa bc
       0.025640324 -0.0010792393 -0.035870984 -0.020803321
000370 a7 7b 01 bd 0d 37 43 bb d9 ea b4 3c 1c 30 42 3d
       -0.031612065 -0.0029787451 0.02208464 0.047409162
000380 26 84 e9 3c 6a dc 65 3d 75 d4 10 3b cf b3 65 3d
       0.028505396 0.056118406 0.002209929 0.056079682
000390 87 bb 5f bd 22 cc b6 3c 7d 4d b6 bc 2a ba 6a 3c
       -0.0546222 0.022314135 -0.022253746 0.0143266115
0003a0 7b f8 cc bc df 18 c0 bc 72 83 5e 3c ee 68 67 bc
       -0.025020828 -0.02344936 0.013581144 -0.014124138
0003b0 f0 e8 5d bd e9 cd 59 3d 55 54 14 bc f2 f0 09 3d
       -0.054177225 0.053174887 -0.009053309 0.03367705
0003c0 b5 a2 ec bc a6 ff c9 bc 14 d3 62 bc fc 54 35 bc
       -0.028886179 -0.024658035 -0.01384427 -0.011067625
0003d0 75 91 df bc c9 3a e6 bc fa 9c d5 3c fb fd 0b bd
       -0.027291039 -0.028104203 0.026075829 -0.03417776
0003e0 36 21 32 3d 7c 9a 33 bd 0b 13 a7 3c 0e da 04 bc
       0.043488704 -0.0438485 0.020394823 -0.008108629
0003f0 8c e9 4e bb 17 5b 32 3b 05 ff 51 bb bc e7 ef 3c
       -0.003157231 0.0027214938 -0.0032042873 0.029285304

fc.bias f4 [2]
000000 92 10 38 3d 92 01 20 3b
       0.044937678 0.0024414998
