model/checkpoint/train_sparse_feedback_dict_batch250_epoch_300\240_loss123.pt (torch, 4899 bytes, 10 tensors)

rnn.weight_ih_l0 f4 [8, 3]
0	0xbce9d2e8	-0.02854295
1	0x3f2b2edd	0.6686838
2	0xbeaff049	-0.3436301
3	0x3d1a882a	0.037727512
4	0x3d4e1bb5	0.050319392
5	0xbf493942	-0.78602993
6	0x3cf7817c	0.03021311
7	0x3f0fac3b	0.5612218
8	0xbd79a4d4	-0.060948208
9	0x3d3ff450	0.046863854
10	0x3ea6785b	0.325137
11	0x3d853c2d	0.06505618
12	0x3b63e842	0.0034775888
13	0x3e905a95	0.2819411
14	0x3e901df0	0.2814784
15	0x3ac6c967	0.0015166224
16	0x3f0f2bbe	0.5592612
17	0x3e94924e	0.29017872
18	0xbd0eb583	-0.03484107
19	0x3c09d6e2	0.008413048
20	0xbf677d32	-0.9042541
21	0x3e196b23	0.14982276
22	0xbe6fd046	-0.23419294
23	0xbe43f5ca	-0.1913673

rnn.weight_hh_l0 f4 [8, 8]
0	0xbe82c842	-0.2554341
1	0x3dbef9b9	0.093249746
2	0xbdc760c6	-0.09735255
3	0x3ed9c32e	0.42531723
4	0xbe5437fa	-0.20724478
5	0x3e6c6bcf	0.23088
6	0xbebd932c	-0.37026346
7	0xbdc39122	-0.09549166
8	0x3ecd4f46	0.40099543
9	0xbf0129ea	-0.5045458
10	0xbe3398c2	-0.17538741
11	0xbe8a88dc	-0.2705754
12	0x3bf2e3b8	0.0074124
13	0xbe9e68bd	-0.30939284
14	0xbd251b6b	-0.04030935
15	0x3cc55e33	0.02409277
16	0x3eea417d	0.4575309
17	0xbea57f55	-0.3232371
18	0x3dc4e949	0.09614808
19	0x3de4e168	0.11175805
20	0xbe62923d	-0.22126098
21	0x3ebb8422	0.36624247
22	0x3cf5a841	0.029987456
23	0xbd88b414	-0.06674972
24	0x3e7a456b	0.24440543
25	0xbe573366	-0.210157
26	0xbf03b5b0	-0.5144911
27	0xbee859c8	-0.45380998
28	0xbeba0cd4	-0.36337912
29	0xbdbe44bb	-0.09290453
30	0xbea20e02	-0.31651312
31	0xbe2fb7b6	-0.17159924
32	0xbedb10e2	-0.42786318
33	0x3bf50d3b	0.007478384
34	0x3ce47696	0.027888577
35	0xbee5f429	-0.44912842
36	0x3ddaa772	0.10676469
37	0xbf19a4f2	-0.6001731
38	0x3e0dbd6b	0.13841788
39	0x3d5cd67e	0.053915493
40	0xbd94be8f	-0.07262909
41	0xbdc98bb6	-0.09841101
42	0xbeda8873	-0.42682227
43	0x3db7149e	0.08939479
44	0x3d804049	0.062622614
45	0xbece1b71	-0.4025531
46	0xbe2f8fa0	-0.17144632
47	0xbd6620f5	-0.056183774
48	0x3e5641d6	0.20923552
49	0xbea2f07d	-0.31824103
50	0x3e1b805f	0.15185688
51	0x3d2f2d7a	0.04276798
52	0xbe191d87	-0.1495267
53	0x3ed4d239	0.41566637
54	0xbe8b8dea	-0.2725671
55	0x3e191a9d	0.14951558
56	0x3f023be6	0.5087265
57	0xbd43a3fa	-0.047763802
58	0xbdb24d33	-0.08706131
59	0xbe8cfa2a	-0.2753461
60	0xbeeddeb6	-0.46458977
61	0x3e6b72dc	0.22993034
62	0x3c5a60ce	0.013328744
63	0xbe89d7c1	-0.2692242

rnn.bias_ih_l0 f4 [8]
0	0x3eb06f75	0.34460035
1	0xbed2a96e	-0.4114489
2	0x3df80e29	0.12112076
3	0x3f084ce0	0.532423
4	0xbe049ef3	-0.1295126
5	0x3ebe2855	0.37140146
6	0xbe4a63e4	-0.19764668
7	0x3e78e6ea	0.24306837

rnn.bias_hh_l0 f4 [8]
0	0x3e7d0dd9	0.24712314
1	0xbe470dc4	-0.19438845
2	0x3ef750b2	0.48303753
3	0x3eaf24e7	0.34207842
4	0x3f04205f	0.51611894
5	0x3dcff14f	0.10153448
6	0xbd90afe0	-0.070647955
7	0x3e0f62f4	0.14002591

rnn.weight_ih_l1 f4 [8, 8]
0	0xbdbebc2c	-0.09313235
1	0x3e37497b	0.17899124
2	0x3d579357	0.05263075
3	0x3ebea8dc	0.37238204
4	0xbce7c4c1	-0.028292062
5	0xbdbae1b7	-0.09125083
6	0x3e7c417a	0.24634352
7	0xbe01d458	-0.12678659
8	0x3d9effcf	0.07763635
9	0x3d2c648d	0.04208808
10	0xbdd8d890	-0.10588181
11	0x3e673987	0.22580539
12	0x3dc5ea31	0.09663809
13	0xbe06cb9a	-0.13163605
14	0xbd16ceb2	-0.036818214
15	0xbd69d26e	-0.057085447
16	0xbddf765f	-0.10911249
17	0x3dec61be	0.1154208
18	0xbe51e430	-0.20497203
19	0x3e9651ba	0.29359227
20	0x3e504aaa	0.20340982
21	0xbe77ceca	-0.24199978
22	0x3e47c3f6	0.19508347
23	0xbd0b3123	-0.033982407
24	0xbebe0b95	-0.3711821
25	0x3da3e4f6	0.08002655
26	0x3e7316ec	0.23739213
27	0xbe0fc042	-0.14038184
28	0xbdbf81fb	-0.09350964
29	0xbe6d3090	-0.23163056
30	0x3e32fba7	0.1747881
31	0xbd47601b	-0.048675638
32	0xbe8dc585	-0.27689758
33	0x3e86aeb0	0.2630515
34	0xbea989f4	-0.33113062
35	0xbdab46a1	-0.08363081
36	0xbdec6723	-0.11543109
37	0xbe8ddb27	-0.27706262
38	0xbd9c71e0	-0.076389074
39	0xbcfe263d	-0.031024093
40	0x3ef84fee	0.48498482
41	0x3dce0a94	0.10060611
42	0x3ea28ea8	0.31749463
43	0xbd0ad403	-0.033893596
44	0x3e7a94a6	0.24470767
45	0x3e052a23	0.13004355
46	0xbdd3f7c5	-0.10349993
47	0xbd292a88	-0.041300327
48	0xbe8cea0e	-0.2752232
49	0xbe190294	-0.1494239
50	0xbe25a66e	-0.16176769
51	0x3e0f2100	0.13977432
52	0xbd9fe2bb	-0.07806917
53	0x3e12aa21	0.14322712
54	0xbe94f631	-0.2909408
55	0xbdc95e18	-0.098324
56	0xbd0aedab	-0.033918064
57	0x3dcb37fa	0.09922786
58	0x3c36c4bd	0.0111553045
59	0xbe030768	-0.12795794
60	0x3de420fe	0.11139105
61	0xbe10dc7e	-0.14146611
62	0x3e463bb9	0.1935872
63	0x3d9805d8	0.074229896

rnn.weight_hh_l1 f4 [8, 8]
0	0x3d4f178c	0.050559565
1	0xbf095c05	-0.53656036
2	0x3c6585b6	0.01400893
3	0x3eaf0e3c	0.34190547
4	0xbea519c8	-0.32246232
5	0xbd5ac8f7	-0.05341431
6	0x3ebcd2fa	0.36879712
7	0xbd767766	-0.06017246
8	0x3ec4ae13	0.38414058
9	0xbf494b3c	-0.78630424
10	0xbd6c34df	-0.05766761
11	0xbd4d37ef	-0.05010217
12	0xbe866cc7	-0.26254866
13	0xbdf197d6	-0.117965385
14	0x3cb64c95	0.022253314
15	0x3d6d478f	0.05792957
16	0x3e2b4f52	0.16729477
17	0x3e947227	0.2899334
18	0xbe772e86	-0.24138841
19	0x3ea848ca	0.32868034
20	0xbf1c379f	-0.6102237
21	0x3d8867e4	0.066604406
22	0x3e4645dc	0.19362587
23	0xbeeba919	-0.4602745
24	0xbefe1fbf	-0.49633595
25	0xbcca8e4a	-0.024726052
26	0x3d22b1b4	0.039720252
27	0x3e83aa06	0.25715655
28	0xbe947a48	-0.28999543
29	0xbc97e6b8	-0.018542632
30	0x3e843721	0.2582331
31	0xbf059240	-0.52176285
32	0x3dc19e1c	0.09453985
33	0x3ede761f	0.43449494
34	0xbd8c6a57	-0.0685622
35	0x3e9ddcc5	0.30832496
36	0xbf054326	-0.52055585
37	0x3dc132a9	0.09433491
38	0xbb2d31ca	-0.0026427382
39	0xbdf52543	-0.11969998
40	0xbe0ceb63	-0.13761668
41	0x3de47ead	0.11156974
42	0x3e87df06	0.2653734
43	0xbf1ce72a	-0.6129023
44	0x3ed74b14	0.42049468
45	0xbecc4d97	-0.39902946
46	0x3ed2e053	0.4118677
47	0x3e182678	0.14858425
48	0x3cdb3237	0.026757343
49	0xbcfbb6d8	-0.030726835
50	0xbe24e4cf	-0.16102909
51	0x3e1b7ec2	0.15185073
52	0x3e1d289d	0.15347524
53	0xbea0c065	-0.31396785
54	0xbd389ec8	-0.0450733
55	0x3f0fef1b	0.5622422
56	0x3e126379	0.14295758
57	0x3d77a426	0.06045928
58	0x3dd22c06	0.10262303
59	0x3ef0785e	0.46966833
60	0xbdde46a6	-0.10853319
61	0xbdfe9542	-0.124308124
62	0x3eafab2e	0.34310287
63	0xbc8996b1	-0.016795488

rnn.bias_ih_l1 f4 [8]
0	0xbd791eb1	-0.060820285
1	0xbe293069	-0.16522373
2	0x3d0dae71	0.03459019
3	0xbdc6504c	-0.09683284
4	0xbe625578	-0.22102916
5	0x3e27cc9a	0.16386643
6	0xbdfb2f10	-0.12264836
7	0x3e96a7e4	0.29424965

rnn.bias_hh_l1 f4 [8]
0	0x3dacd489	0.08438975
1	0x3ded1aa9	0.11577351
2	0xbe00c3e6	-0.1257473
3	0x3e2b3d5b	0.16722624
4	0x3e3af79f	0.18258522
5	0x3dd50f01	0.104032524
6	0xbdf33f36	-0.11877291
7	0xbe4f41a4	-0.20239884

fc.weight f4 [2, 256]
0	0xbd829a4e	-0.063770875
1	0xbcf41771	-0.029796334
2	0x3d8361bb	0.06415125
3	0xbc0080f0	-0.007843241
4	0x3d54d44c	0.051960275
5	0x3d2557c3	0.0403669
6	0x3d3d2802	0.046180733
7	0xbd248695	-0.04016741
8	0x3bd8be6e	0.006614498
9	0xbd88ee0d	-0.066860296
10	0xbd0302e7	-0.03198519
11	0xbd8de9d2	-0.06929363
12	0xbc4dc91b	-0.012560154
13	0x3d09ba59	0.03362498
14	0x3cb8c79a	0.022556115
15	0xbd338aa3	-0.043833386
16	0x3ba496d3	0.0050228625
17	0xbce07b52	-0.027402554
18	0xbd3916ac	-0.045187637
19	0xbd2d6554	-0.042332962
20	0xbc24f164	-0.010067318
21	0x3bbc8f7d	0.00575441
22	0x3d872aa8	0.06599933
23	0x3a87a7d4	0.0010349699
24	0xbafa5fa6	-0.0019101992
25	0x3c700e75	0.014651884
26	0xbd7e88cd	-0.062142182
27	0xbc39bc59	-0.0113364095
28	0xbd330bb8	-0.043712348
29	0xbac54740	-0.0015051141
30	0x3d538beb	0.051647108
31	0xbc8a7482	-0.016901258
32	0xbbaf8b6f	-0.005357198
33	0xb9956b72	-0.00028499548
34	0xbd5ffa27	-0.054681923
35	0xbc8720ee	-0.016495194
36	0xbcbde292	-0.023179326
37	0x3be8dcad	0.0071063847
38	0x3d89df93	0.067320965
39	0xbd02f6ab	-0.031973522
40	0x3c969ac0	0.018384337
41	0xbb8e4206	-0.0043413667
42	0xbd7e07fa	-0.062019326
43	0x3bc4ae44	0.0060022194
44	0xbcd51466	-0.026010703
45	0xb88eab53	-6.802999e-05
46	0x3d3c487f	0.045967575
47	0xbcb0bbec	-0.021573983
48	0x3b597261	0.0033179747
49	0xbdd9e93f	-0.10640191
50	0xbb723a9c	-0.0036961203
51	0x3cae9368	0.021310523
52	0xbd9c715c	-0.07638809
53	0x3c903d8a	0.01760747
54	0x3d2f4e03	0.042799007
55	0xbd5ff1ef	-0.054674085
56	0xbc08f445	-0.00835902
57	0xbd88eb52	-0.06685509
58	0xbc9b5d06	-0.018965255
59	0x3c5a6435	0.013329555
60	0xbda08316	-0.07837503
61	0x3cb22506	0.02174617
62	0x3d60a2bf	0.054842707
63	0xbd88ee4f	-0.06686079
64	0x3cbc6f4b	0.023002287
65	0xbcefc75c	-0.029269867
66	0xbd95ed0e	-0.07320605
67	0x3b9eeb91	0.004849859
68	0xbd51b5bf	-0.051198717
69	0xbb555f22	-0.0032557924
70	0x3d8bac35	0.06819955
71	0xbd6a7684	-0.05724193
72	0x3c999e49	0.018752234
73	0xbc6bed6a	-0.014399866
74	0xbd61401c	-0.05499278
75	0x3caadd5d	0.020857507
76	0xbd63bf50	-0.05560237
77	0xbb510b86	-0.0031897738
78	0x3d122c76	0.035686933
79	0xbd64f4ae	-0.055897407
80	0xbcbd3b8f	-0.023099689
81	0xbc0d64ec	-0.008630019
82	0xbcdb8bf7	-0.026800139
83	0x3d50ed44	0.051007524
84	0xbda66029	-0.0812381
85	0x3ca3cba7	0.01999457
86	0x3d497dd3	0.04919226
87	0xbd9c9028	-0.07644683
88	0xbc19749e	-0.009366183
89	0xbcacc5bf	-0.021090386
90	0xbd38b137	-0.04509088
91	0x3d1d3ac3	0.038386118
92	0xbdc8eb31	-0.09810484
93	0x3cc8043a	0.024416078
94	0x3d2d7012	0.042343207
95	0xbda2d41e	-0.079506144
96	0x3bb43a1f	0.0055000926
97	0xbba0bd44	-0.0049053747
98	0xbd8d575d	-0.06901429
99	0x3af71d59	0.0018853351
100	0xbdb4ca06	-0.088275954
101	0x3d284295	0.041079123
102	0x3d25cc37	0.040477958
103	0xbd921ce2	-0.07134415
104	0xbcbb5ddc	-0.022871904
105	0x3cedb498	0.029016778
106	0xbd381651	-0.044943158
107	0x3cfe0371	0.0310075
108	0xbdc60044	-0.096680194
109	0x3d32e5a0	0.04367602
110	0x3d3b304f	0.045700368
111	0xbd4a74be	-0.04942774
112	0x3cdba386	0.026811372
113	0xbc60b875	-0.013715853
114	0xbd77f9b0	-0.060540855
115	0x3cf45c6a	0.029829223
116	0xbda58df6	-0.080837175
117	0x3cb7dfff	0.022445677
118	0x3d574483	0.052555572
119	0xbc804cea	-0.015661675
120	0xbc91f7ab	-0.017818293
121	0xbce9ff05	-0.028563986
122	0xbc03dedf	-0.008048742
123	0x3cc5fc8d	0.024168277
124	0xbd9c6a15	-0.07637421
125	0x3d5e8475	0.05432554
126	0x3b0ea55e	0.0021766047
127	0xbdb50f82	-0.088408485
128	0x3b34209c	0.0027485257
129	0x3c41a2b3	0.011818576
130	0xbd017a51	-0.03161079
131	0x3d30ba5a	0.04314647
132	0xbda5cf74	-0.08096209
133	0x3d0c7849	0.0342944
134	0x3d3f5184	0.0467086
135	0xbb12088e	-0.002228293
136	0x3c778d2c	0.015109342
137	0xbcf3db8f	-0.02976778
138	0xbcec3a45	-0.028836379
139	0x3cc49676	0.023997527
140	0xbd8d8652	-0.06910385
141	0x3cc052f3	0.023477053
142	0x3bb71770	0.0055875108
143	0xbd895afc	-0.06706807
144	0x3b9a9082	0.0047169337
145	0xbbe24117	-0.006904732
146	0xbc5f7f01	-0.01364112
147	0x3cf1b778	0.02950643
148	0xbd4a0fe4	-0.04933156
149	0x3d01dad8	0.031702846
150	0x3c0b5b6f	0.008505686
151	0xbc260bbf	-0.010134636
152	0xbd060d20	-0.03272736
153	0x3d6a3d18	0.05718717
154	0x3c7fecb8	0.015620403
155	0x3d19badd	0.037531722
156	0xbd3869aa	-0.045022644
157	0x3d0cee27	0.034406807
158	0x3b8ec34b	0.004356777
159	0xbd33c169	-0.043885622
160	0x3cf13009	0.02944185
161	0x3bd303a6	0.006439644
162	0xbd342d3d	-0.043988455
163	0x3cd9167c	0.02649998
164	0xbd4f2504	-0.05057241
165	0x3c5fa4f7	0.0136501705
166	0xbc911e06	-0.017714512
167	0xbbc609d8	-0.006043654
168	0xbc823c2d	-0.015897835
169	0x3ca70d13	0.020391976
170	0x3c4bbf3e	0.012435732
171	0x3b994090	0.004676886
172	0xbd3d99b0	-0.046289146
173	0x3d39d535	0.045369346
174	0xbcab51e4	-0.020913072
175	0xbcb6e7b9	-0.02232729
176	0x3c023c76	0.007948985
177	0x3d21ba2b	0.039484184
178	0xbcc4018e	-0.023926523
179	0x3d00009d	0.031250585
180	0xbcfc4a30	-0.030797094
181	0x3c24bd9d	0.010054973
182	0x3bad0a93	0.0052808016
183	0x3cf824a7	0.030290915
184	0x3d55170f	0.052023944
185	0xbbfcda2e	-0.0077164387
186	0xbc57ad32	-0.013163852
187	0xbcc394ef	-0.023874728
188	0x3ce4b164	0.027916618
189	0xbb92cf0d	-0.004480249
190	0xbd11b600	-0.03557396
191	0x3cd9569b	0.026530555
192	0xbc203f0b	-0.009780656
193	0x3c179d1f	0.009253769
194	0x3d833c0c	0.064079374
195	0x3d0da970	0.034585416
196	0x3c8a816f	0.016907422
197	0x3ca26fae	0.019828644
198	0xbd7e02d9	-0.062014434
199	0x3cf0319e	0.029320534
200	0xba55f235	-0.0008161397
201	0x3d1b6fdc	0.037948474
202	0x3d200b78	0.039073437
203	0xbca7daa3	-0.020489996
204	0x3cd7f096	0.026359838
205	0x3bc20caf	0.005921922
206	0xbd0fac49	-0.035076413
207	0x3ce8837b	0.028383007
208	0x3d2d360f	0.042287882
209	0x3d6260df	0.055268165
210	0xbc98ec0e	-0.018667247
211	0xbb7e8e00	-0.0038841963
212	0x3cf98e2b	0.030463299
213	0xbcf9b3b2	-0.030481193
214	0xbd724ba2	-0.05915416
215	0x3d517417	0.051136103
216	0x3cdb942b	0.02680405
217	0x3d38b7bf	0.04509711
218	0x3c9a3f4a	0.018829007
219	0xbd496090	-0.049164355
220	0x3d9798e0	0.074022055
221	0xbcd12cf1	-0.025534125
222	0xbd2a6518	-0.041600317
223	0x3d938762	0.072035566
224	0x3bf3b14a	0.007436906
225	0x3d0b1348	0.033953935
226	0x3da17fcc	0.078857034
227	0xbbd0e7f0	-0.0063753054
228	0x3dddd700	0.108320236
229	0xbc866af8	-0.016408429
230	0xbd9d48ba	-0.07679887
231	0x3d9689ef	0.073505275
232	0xbd03b766	-0.032157324
233	0x3d3512e3	0.044207465
234	0x3dcb1dea	0.09917815
235	0xbcaef006	-0.021354686
236	0x3d92a6e3	0.07160737
237	0xbc4cfaf2	-0.012511002
238	0xbd415fa0	-0.047210336
239	0x3d24a881	0.04019976
240	0x3cf5ab3a	0.029988874
241	0x3cd959ee	0.02653214
242	0x3d177706	0.036978744
243	0xbd7a6598	-0.061132044
244	0x3df2a96d	0.11848722
245	0xbcf5323f	-0.029931186
246	0xbd87b426	-0.066261575
247	0x3d84452a	0.064585045
248	0xbc26f886	-0.010191089
249	0x3d79df48	0.061003953
250	0x3d1f5ab8	0.038904876
251	0x3cd2e6b9	0.025744783
252	0x3a75cbf7	0.00093764014
253	0xbbabf2f1	-0.0052474667
254	0xbd1c5a4b	-0.038172048
255	0x3d89ea6e	0.06734167

fc.bias f4 [2]
0	0x3bc45296	0.0059912903
1	0xbdc5f8a8	-0.09666568
