model/checkpoint/train_sparse_feedback_dict_batch250_epoch_300\171_loss12.pt (torch, 4899 bytes, 10 tensors)

rnn.weight_ih_l0 f4 [8, 3]
0.18305406 -0.06482645 0.39850533 -0.038468894 0.49914134 -0.725206 0.062147964 0.04773903
-0.27471504 -0.057711072 -0.20903745 -0.112269565 0.021487568 -0.49786708 -0.114862494 -0.10496153
-0.35849604 0.49271914 -0.04611909 -0.4243483 0.26530582 0.021744888 0.35086986 0.9347606
00000000: 8672 3b3e bbc3 84bd e408 cc3e 8f91 1dbd
00000010: 748f ff3e 1aa7 39bf dd8e 7e3d 008a 433d
00000020: 73a7 8cbe 7262 6cbd ea0d 56be 96ed e5bd
00000030: b206 b03c 6fe8 febe 073d ebbd 12f6 d6bd
00000040: cb8c b7be af45 fc3e 5fe7 3cbd 2e44 d9be
00000050: 2ad6 873e 5622 b23c 37a5 b33e 784c 6f3f

rnn.weight_hh_l0 f4 [8, 8]
-0.4688988 -0.26696047 -0.26975504 -0.0866932 -0.19965777 0.15916222 -0.36134633 -0.23754303
0.29029715 0.087845154 0.01244163 0.24159601 -0.19553304 0.10378095 -0.095519155 0.470346
-0.10578328 0.015635516 -0.24952552 0.13313323 -0.21263874 0.14833999 0.06912678 0.20505467
0.0039758454 0.029197427 -0.42410508 0.099310435 0.4135344 -0.079571284 0.40379012 0.33838975
-0.01611397 0.07615113 -0.20661204 0.2996624 0.30351216 0.107171185 -0.3416309 0.39671722
0.16041209 -0.01982106 0.21284167 -0.09886516 -0.41804042 0.116869606 0.0941822 0.18343845
0.008031528 -0.21915461 -0.009307692 0.025506023 0.14417897 -0.24797958 -0.17681952 -0.1912012
-0.4158888 -0.4491164 -0.03626919 0.15457623 0.08995866 -0.21111041 -0.10847306 0.17492552
00000000: 8113 f0be 0baf 88be 551d 8abe 348c b1bd
00000010: 1673 4cbe 6cfb 223e 6302 b9be 7b3e 73be
00000020: d4a1 943e 29e8 b33d fad7 4b3c f264 773e
00000030: d039 48be 1b8b d43d 8c9f c3bd 31d1 f03e
00000040: e8a4 d8bd 0e16 803c 9e83 7fbe 1454 083e
00000050: f8bd 59be 70e6 173e 5792 8d3d daf9 513e
00000060: cf47 823b 712f ef3c 4d24 d9be 4563 cb3d
00000070: c8ba d33e 45f6 a2bd 94bd ce3e 6c41 ad3e
00000080: 7201 84bc 20f5 9b3d 1b92 53be 5a6d 993e
00000090: f265 9b3e 917c db3d 3fea aebe 851e cb3e
000000a0: 1143 243e c75f a2bc 2bf3 593e d179 cabd
000000b0: 6509 d6be 5559 ef3d 99e2 c03d 4ad7 3b3e
000000c0: ac96 033c 116a 60be 4a7f 18bc 02f2 d03c
000000d0: a7a3 133e 5cee 7dbe 2d10 35be 3fca 43be
000000e0: 60ef d4be 96f2 e5be 018f 14bd 3b49 1e3e
000000f0: 3f3c b83d 542d 58be 2027 debd ad1f 333e

rnn.bias_ih_l0 f4 [8]
0.23910327 0.0045613335 -0.12309562 0.16713029 -0.22402246 -0.29329985 -0.3342009 0.18520258
00000000: 7dd7 743e 3d77 953b 8e19 fcbd 3424 2b3e
00000010: 2566 65be 662b 96be 611c abbe bfa5 3d3e

rnn.bias_hh_l0 f4 [8]
-0.14872287 -0.013280844 0.11909933 0.37435272 -0.08674929 0.11002798 -0.42385986 0.37093297
00000000: cf4a 18be e697 59bc 59ea f33d 29ab bf3e
00000010: 9da9 b1bd 5956 e13d 2904 d9be edea bd3e

rnn.weight_ih_l1 f4 [8, 8]
0.093252756 -0.44656494 -0.06572438 -0.06037326 0.21444878 0.1720777 0.06396382 -0.08163729
-0.0920078 0.017215448 -0.19691142 -0.4096831 0.020576922 0.056292392 -0.42351303 -0.0057077324
0.21299084 0.25009954 0.17112392 -0.12771483 0.35185352 0.21676308 0.20436263 -0.30253866
0.28362525 -0.034374014 0.19325812 0.39782712 -0.07249191 0.20771721 0.24001245 -0.017419297
-0.044871926 -0.09557243 -0.3392678 0.204382 -0.06289348 -0.1675899 -0.21855305 -0.100438476
-0.081154354 -0.25419667 0.1690088 -0.10950463 0.24002682 -0.074749544 0.2450391 -0.20549014
-0.021902036 -0.1079575 0.034883603 0.056375287 0.2785263 -0.0035307943 -0.02104976 -0.18289053
-0.21092118 0.277425 0.07204973 0.22410297 0.074254535 -0.29796514 -0.18523818 -0.26670143
00000000: 4dfb be3d 29a4 e4be 819a 86bd f449 77bd
00000010: 7698 5b3e 2335 303e 77ff 823d 7431 a7bd
00000020: 966e bcbd 6907 8d3c 26a3 49be fcc1 d1be
00000030: ef90 a83c da92 663d b3d6 d8be ee07 bbbb
00000040: 451a 5a3e 0c0d 803e 1c3b 2f3e adc7 02be
00000050: 2526 b43e 24f7 5d3e 7044 513e 59e6 9abe
00000060: 5437 913e c4cb 0cbd 75e5 453e ffaf cb3e
00000070: a376 94bd d2b3 543e d3c5 753e eab2 8ebc
00000080: a0cb 37bd 7abb c3bd 82b4 adbe 8449 513e
00000090: 4cce 80bd b09c 2bbe 5fcc 5fbe b0b2 cdbd
000000a0: 4134 a6bd 1126 82be a510 2d3e f743 e0bd
000000b0: 97c9 753e 4a16 99bd 88eb 7a3e 026c 52be
000000c0: e66b b3bc d218 ddbd 1ce2 0e3d c6e9 663d
000000d0: 009b 8e3e e664 67bb 8c70 acbc a847 3bbe
000000e0: b9fb 57be a60a 8e3e cf8e 933d 407b 653e
000000f0: c312 983d e38e 98be 14af 3dbe 178d 88be

rnn.weight_hh_l1 f4 [8, 8]
0.08924779 -0.2469894 0.29867965 -0.30892295 -0.048411783 0.28248554 0.20784485 0.42524207
0.32927766 -0.6736397 0.33479467 0.14069627 0.39493322 0.09082606 -0.08819866 -0.107347034
-0.19163154 -0.048322793 -0.5486114 -0.07275732 -0.19750892 -0.3047852 0.26665938 -0.19047248
0.09663676 0.12548006 0.07788726 -0.35160592 -0.29799968 -0.034829702 0.33884498 0.33552772
0.14120841 -0.15344824 0.040311605 0.07471114 -0.20010853 -0.3388921 0.017460233 -0.27109835
-0.11768988 -0.1342231 0.11584218 0.092427045 0.19792496 -0.35283476 -0.1363147 0.028327368
-0.28761467 -0.02119016 -0.29319778 -0.23272386 -0.39325368 -0.20383477 -0.20724025 -0.15261532
-0.24181461 0.3196601 -0.25086454 -0.12350228 -0.11952614 -0.2960474 -0.06602079 -0.08317888
00000000: 8cc7 b63d caea 7cbe 8aec 983e 262b 9ebe
00000010: 6f4b 46bd f2a1 903e 48d5 543e 54b9 d93e
00000020: 1597 a83e a773 2cbf 356a ab3e af12 103e
00000030: b034 ca3e 0303 ba3d 80a1 b4bd c3d8 dbbd
00000040: 0f3b 44be 1fee 45bd cc71 0cbf ca01 95bd
00000050: c73f 4abe ce0c 9cbe 9487 883e 380b 43be
00000060: 7ee9 c53d d87d 003e 5b83 9f3d b105 b4be
00000070: 6a93 98be 97a9 0ebd 177d ad3e 4aca ab3e
00000080: f098 103e 8921 1dbe c81d 253d 2702 993d
00000090: 40e9 4cbe 4483 adbe c308 8f3c 67cd 8abe
000000a0: 6407 f1bd c871 09be aa3e ed3d 644a bd3d
000000b0: d7ac 4a3e c2a6 b4be 1596 0bbe cc0e e83c
000000c0: 3b42 93be fd96 adbc 051e 96be 2a4f 6ebe
000000d0: 8c58 c9be 10ba 50be ca36 54be 3147 1cbe
000000e0: 409e 77be 7daa a33e 5171 80be c3ee fcbd
000000f0: 1fca f4bd 8693 97be e835 87bd b059 aabd

rnn.bias_ih_l1 f4 [8]
-0.3524831 0.14419474 0.092884615 -0.40858105 -0.084199674 0.14229867 0.046373896 0.048196398
00000000: aa78 b4be c9a7 133e 4a3a be3d 8931 d1be
00000010: e170 acbd beb6 113e 8ef2 3d3d 9669 453d

rnn.bias_hh_l1 f4 [8]
0.04678049 0.20301628 -0.011852534 0.12535277 -0.05426007 -0.28339007 -0.29216582 -0.037869323
00000000: e69c 3f3d 80e3 4f3e 2131 42bc 7a5c 003e
00000010: cf3f 5ebd 8118 91be c296 95be dd1c 1bbd

fc.weight f4 [2, 256]
-0.012766788 -0.091552675 -0.051775277 -0.023591632 -0.027316114 -0.01549531 -0.052598253 -0.09935318
-0.039108817 -0.040503304 0.035928816 -0.0014711713 -0.024100568 -0.04106346 0.09680345 -0.045198858
0.037186068 -0.057070434 -0.016060364 -0.017963903 0.0056477613 -0.057294276 0.01855389 -0.062422708
-0.009740602 -0.0017621067 -0.011642955 -0.024821943 -0.012954224 -0.016106993 0.021718238 -0.019946884
-0.02563078 0.003042651 -0.016489694 0.007237475 0.049436275 -0.022411922 0.016687082 -0.08997626
-0.0049226754 -0.0010232789 0.008487003 0.0007286338 0.02124204 -0.017867438 -0.0074604517 -0.018276628
-0.03040342 -0.0013117411 -0.011606684 -0.013074022 0.026193658 -0.07719936 0.06443302 -0.09100128
-0.029090285 -0.0020964781 -0.018015629 -0.012142722 -0.0065021985 -0.037265178 -0.011908404 -0.05519954
-0.02771799 0.02052758 -0.01465217 -0.011629858 0.006319079 -0.035447095 -0.002471749 -0.04929227
-0.048344094 0.005609586 -0.008158323 0.025756918 0.026006911 -0.039220776 -0.0056744907 -0.0749881
-0.006769634 -0.0015852178 -0.02517761 -0.037787165 -0.028140685 -0.08267746 0.014465114 -0.046385024
-0.045629278 0.017506888 -0.016853243 0.00062980823 0.008019252 -0.02093976 -0.032857135 -0.05212044
-0.03209947 0.0086678 -0.015189861 -0.011116087 0.0048793014 -0.04720768 0.00455125 -0.055346943
-0.053420763 0.010806195 -0.04427723 -0.0156136975 -0.032433536 -0.055040807 -0.011955521 -0.07311752
-0.009728841 0.027242625 -0.026003206 -0.001372679 -0.0076728007 -0.017104808 -0.06479608 -0.01622104
-0.034372292 0.017020615 -0.020882368 0.0149412975 0.0027030287 -0.048353184 -0.015391351 -0.0557616
0.024095912 0.009452659 -0.015620638 -0.03806473 -0.026469825 -0.03928758 -0.020767761 0.0071748015
-0.05078981 0.024726862 -0.013387756 0.015348369 0.016780593 -0.0014346564 -0.006227393 -0.043110404
-0.0027874112 0.012802879 -0.027237356 -0.024029383 -0.030547079 -0.037282724 -0.004356759 -0.026363084
-0.016457168 0.03749414 -0.01634716 0.013920614 -0.0046473737 0.015175765 -0.06115845 0.005546094
0.0041455696 0.032550007 -0.009396824 0.0062678317 0.005026618 -0.022749934 0.0026017767 -0.0142661445
-0.0049788663 0.023945548 -0.022272214 -0.0011310729 -0.029246947 0.0014165316 -0.02572188 -0.004930792
0.03621162 0.03190973 0.013987132 0.019038124 0.008788218 0.005427731 -0.038149826 0.034180492
0.004366876 0.014332024 -0.014688938 -0.01599032 -0.028563058 0.00899605 0.014565339 0.0024702025
0.038905293 0.027615422 0.026313694 0.022139592 0.012044215 0.03311036 -0.04135237 0.046193156
0.03380906 0.0067219757 0.013177878 -0.020204399 -0.016372196 0.028186917 0.022386553 0.04196617
0.0126661705 0.017266816 0.023508377 0.020399878 0.00033054335 0.046045706 -0.006745272 0.029444363
0.04215865 0.006057565 0.009104272 -0.0058570225 -0.02428256 0.044205386 -0.008963491 0.052038442
0.03651779 0.021648172 0.02641864 0.031122979 0.0039252704 0.07374035 -0.013051342 0.053087585
0.050287332 0.0051594907 0.03130723 0.02679331 0.01731012 0.06775981 0.038847633 0.07060138
0.011272339 0.016342377 -0.0052533303 0.035023928 0.0025422832 0.049581885 0.06313119 0.019168347
0.052620135 0.0044774576 0.035479944 0.022126516 0.018561566 0.042774875 -0.013589483 0.07188367
00000000: ca2b 51bc f87f bbbd 5012 54bd 3d43 c1bc
00000010: 0bc6 dfbc 0ae0 7dbc 4471 57bd ae79 cbbd
00000020: 9130 20bd cbe6 25bd 182a 133d 51d4 c0ba
00000030: 8e6e c5bc 2932 28bd e340 c63d 7022 39bd
00000040: 6b50 183d b0c2 69bd 0691 83bc 0929 93bc
00000050: db10 b93b 67ad 6abd 54fe 973c f4ae 7fbd
00000060: 0c97 1fbc 7df6 e6ba 18c2 3ebc 6357 cbbc
00000070: f43d 54bc d0f2 83bc 72ea b13c a667 a3bc
00000080: a4f7 d1bc 3767 473b 6515 87bc 5728 ed3b
00000090: b17d 4a3d 3599 b7bc 59b3 883c 7945 b8bd
000000a0: 654e a1bb 8b1f 86ba 120d 0b3c c901 3f3a
000000b0: c903 ae3c bc5e 92bc ce76 f4bb deb8 95bc
000000c0: 9810 f9bc baee abba f629 3ebc 6c34 56bc
000000d0: 1594 d63c b31a 9ebd 76f5 833d e15e babd
000000e0: c04e eebc 1165 09bb 8395 93bc 44f2 46bc
000000f0: 6510 d5bb 5fa3 18bd 771b 43bc ea18 62bd
00000100: d710 e3bc 7529 a83c a80f 70bc 298b 3ebc
00000110: 4710 cf3b f930 11bd 11fd 21bb b1e6 49bd
00000120: 7504 46bd 9ed0 b73b 7daa 05bc 2c00 d33c
00000130: 720c d53c f7a5 20bd 14f1 b9bb 5c93 99bd
00000140: ced3 ddbb 15c7 cfba 4641 cebc b7c6 1abd
00000150: 4b87 e6bc cd52 a9bd 16ff 6c3c 39fe 3dbd
00000160: c4e5 3abd 9b6a 8f3c d00f 8abc b719 253a
00000170: 2e63 033c dc89 abbc 3495 06bd 3e7c 55bd
00000180: bc7a 03bd 6303 0e3c e5de 78bc 4020 36bc
00000190: 8ce2 9f3b d75c 41bd a722 953b 7ab3 62bd
000001a0: bbcf 5abd 780c 313c 0a5c 35bd 98d0 7fbc
000001b0: 07d9 04bd 7872 61bd 17e1 43bc a3be 95bd
000001c0: b765 1fbc ed2b df3c ad04 d5bc 77eb b3ba
000001d0: 1e6c fbbb 621f 8cbc cfb3 84bd fde1 84bc
000001e0: f6c9 0cbd d16e 8b3c 8011 abbc 58cc 743c
000001f0: 4c25 313b fd0d 46bd 012c 7cbc 4766 64bd
00000200: ca64 c53c 53df 1a3c b4ed 7fbc c3e9 1bbd
00000210: 3fd7 d8bc 03ec 20bd 2721 aabc 991a eb3b
00000220: fa08 50bd fd8f ca3c 5258 5bbc ba77 7b3c
00000230: 7477 893c 150b bcba 290f ccbb 8994 30bd
00000240: 00ad 36bb 2bc3 513c e020 dfbc 45d9 c4bc
00000250: de3d fabc c5b5 18bd 25c3 8ebb 65f7 d7bc
00000260: 2fd1 86bc 7593 193d 7bea 85bc 4913 643c
00000270: ff48 98bb c6a3 783c 4881 7abd 02bc b53b
00000280: 8fd7 873b 2853 053d 23f5 19bc 6262 cd3b
00000290: 54b6 a43b 125e babc 9282 2a3b 8cbc 69bc
000002a0: c225 a3bb 7429 c43c 3874 b6bc 8240 94ba
000002b0: 4b97 efbc eaaa b93a b1b6 d2bc 7b92 a1bb
000002c0: a352 143d c7b3 023d 492a 653c d7f5 9b3c
000002d0: 75fc 0f3c 1cdb b13b fe42 1cbd d800 0c3d
000002e0: 0318 8f3b ded0 6a3c dfa9 70bc 22fe 82bc
000002f0: 13fd e9bc 2b64 133c 76a3 6e3c 1fe3 213b
00000300: 285b 1f3d bd39 e23c d18f d73c 175e b53c
00000310: 1955 453c bb9e 073d 1a61 29bd 0935 3d3d
00000320: 5e7b 0a3d 0544 dc3b 07e8 573c b283 a5bc
00000330: fc1e 86bc 40e8 e63c 0164 b73c b8e4 2b3d
00000340: c585 4f3c 2373 8d3c a494 c03c a51d a73c
00000350: c74c ad39 6c9a 3c3d 7107 ddbb 4e35 f13c
00000360: 8cae 2c3d 8a7e c63b 162a 153c 44ec bfbb
00000370: 38ec c6bc b510 353d 9bdb 12bc 4326 553d
00000380: ae93 153d 8257 b13c e76b d83c 9ef5 fe3c
00000390: 8e9f 803b 2e05 973d 4cd5 55bc 5e72 593d
000003a0: 17fa 4d3d f210 a93b 033c 003d a57d db3c
000003b0: f4cd 8d3c a8c5 8a3d b21e 1f3d 7597 903d
000003c0: 9eaf 383c 73e0 853c 2124 acbb 4075 0f3d
000003d0: 6f9c 263b 6016 4b3d ed4a 813d f006 9d3c
000003e0: 3688 573d a3b7 923b 6b53 113d ab42 b53c
000003f0: 6d0e 983c b534 2f3d 6ca6 5ebc bf37 933d

fc.bias f4 [2]
0.0038509648 -0.03129391
00000000: 7860 7c3b 0b2e 00bd
