model/checkpoint/train_sparse_feedback_dict_batch50_epoch_200\50_loss12.pt (torch, 4899 bytes, 10 tensors)

rnn.weight_ih_l0 f4 [8, 3]
000000 5e 64 8b b7 7e c8 a9 3e d2 47 39 3f d5 13 25 bb
       -1.6616828e-05 0.33160776 0.72375214 -0.0025188823
000010 32 a6 03 3f 17 d8 c0 be fa df 6b ba f1 23 0e 3e
       0.5142547 -0.37664863 -0.00089979137 0.13880898
000020 06 51 b2 3e 03 6b 70 b9 5b ba 13 bf 04 e8 92 be
       0.3482744 -0.00022928049 -0.5770623 -0.2869264
000030 17 60 f8 bb 52 6f 32 3c bb bf aa be a4 1f 52 3a
       -0.007579814 0.010890799 -0.33349404 0.0008015579
000040 dd 50 82 be 17 85 0b 3f 05 ef 3d 3b 9e 5b 88 3e
       -0.2545232 0.54499954 0.0028981578 0.26632398
000050 7b 16 b9 3d 3b 42 b1 39 2d 4a c0 3e f5 f9 54 3e
       0.09037491 0.00033809416 0.37556592 0.20798476

rnn.weight_hh_l0 f4 [8, 8]
000000 3e 2a d2 bd 19 12 63 be 00 1b 09 bf 7e 8f ba 3d
       -0.10261963 -0.22174872 -0.53556824 0.091094
000010 a2 52 9e 3e b0 b8 34 3e d2 92 97 bd c9 b9 f0 3d
       0.3092242 0.17648578 -0.074010506 0.11754186
000020 18 77 0e 3e 37 5c 09 be e0 ab 92 3d 3a 4f 55 3e
       0.13912618 -0.13414083 0.07161689 0.20831004
000030 30 36 e7 3c fe 85 e1 3d d9 6b 4e 3e 84 66 f3 3d
       0.02822408 0.11011885 0.20158328 0.11884788
000040 e4 d9 d4 bd 0d 2e d8 3d 7f 8e 4f 3e 57 fa 50 be
       -0.10393122 0.105556585 0.20269202 -0.20407997
000050 7e 53 a3 bd eb 29 03 bf c1 8b 9c 3e f5 2f 0f 3e
       -0.07974909 -0.51235837 0.30575374 0.13983138
000060 78 9a 4a 3d b2 75 d6 3d 5f 06 eb 3d 71 dc 14 be
       0.04946372 0.10471667 0.114758246 -0.14537217
000070 0f 28 63 3e fb c5 ba 3e 8a 8f 02 3f ed dd 7c be
       0.2218325 0.36479172 0.51000273 -0.24694033
000080 a1 80 26 3e fb d6 9b be 20 e0 80 be f0 e0 24 be
       0.16260006 -0.30437455 -0.25170994 -0.16101432
000090 c7 90 8d be 99 02 c5 3e 34 bb a9 3e 91 10 fd be
       -0.2764952 0.38478544 0.33150637 -0.49426702
0000a0 a8 a8 fa 3d 17 5f da be 4d 65 ac bd 58 b1 92 bd
       0.122392 -0.42650673 -0.08417759 -0.07162732
0000b0 ef 50 b5 bd 30 1c 04 3d 62 48 52 3d fd a3 5a be
       -0.088533275 0.032253444 0.05133856 -0.21351619
0000c0 3c f8 eb bd f4 74 70 be 26 4b be bd 07 68 49 bd
       -0.11521956 -0.23482114 -0.09291677 -0.049171474
0000d0 7d 95 05 3c f3 d5 8e bd fd 7e 24 bf 45 b5 c4 3d
       0.008153317 -0.06974401 -0.6425627 0.09604887
0000e0 46 a8 19 be d1 32 1e 3e 29 c8 98 bd 5d 93 96 3d
       -0.15005597 0.15449072 -0.074600525 0.07352326
0000f0 a3 d2 44 3d 70 79 8c 3d 6f bf 49 3e 5d dc 11 bf
       0.04805244 0.068591 0.19701932 -0.5697687

rnn.bias_ih_l0 f4 [8]
000000 44 7b 60 3e b3 07 a7 3e 73 ec 8a 3d 7f 75 b1 be
       0.21922022 0.32623062 0.0678338 -0.34659955
000010 63 01 8e 3d b5 4f df bc 59 04 5a 3d dc 48 c2 3d
       0.06933858 -0.027259687 0.053226802 0.09486553

rnn.bias_hh_l0 f4 [8]
000000 11 fd 64 3e 5b 75 7d 3e e1 0e a9 3e 31 60 40 be
       0.22362162 0.24751799 0.33019164 -0.18786694
000010 0f cf a9 bd 48 11 e3 be 3e 56 bf 3e 7a 9a a1 3e
       -0.082914464 -0.44349122 0.37370485 0.3156317

rnn.weight_ih_l1 f4 [8, 8]
000000 1c 98 1d be f3 33 b4 be 66 9e df bd d7 b2 77 be
       -0.15390056 -0.35195884 -0.10918884 -0.24189316
000010 f6 d2 4d 3c 2c 45 b7 3d 2a 0d e3 3d 57 38 4b 3d
       0.012562504 0.0894874 0.11086495 0.049614277
000020 fc 38 23 bd 5c 0b ad be bd 0a 5c be 96 4f a4 be
       -0.039849266 -0.3379773 -0.21488471 -0.3209197
000030 49 08 b8 3d 3b ef ab bd cb 90 d0 bd ca 9f a0 3d
       0.08985955 -0.08395239 -0.10183867 0.07842977
000040 44 c3 63 be c1 d1 a5 be 2c 53 13 bd 19 70 8a 3d
       -0.22242457 -0.32386592 -0.03596799 0.06759662
000050 77 b3 77 bd 0b f9 10 3e f2 16 85 3e 44 9a ad bd
       -0.060473885 0.14157502 0.25994068 -0.084766895
000060 98 4f ae bd 46 af 4b be 56 51 3b 3e 2c 7d 62 3e
       -0.08511275 -0.1989108 0.18292746 0.22118062
000070 db 38 9f bd 8f fa 39 3c 44 1e 54 be 2a 80 fa bd
       -0.07774516 0.011351242 -0.2071467 -0.122314766
000080 9e c4 dc 3d b1 58 af 3e 63 90 18 bd 94 b6 4f be
       0.10779689 0.34247354 -0.037247073 -0.20284492
000090 c7 0e a8 bd 83 f6 09 3e 0d 76 7f bd 7f cc 11 bd
       -0.082059436 0.13472943 -0.06236844 -0.035595413
0000a0 f1 a1 4a 3c 16 65 1f be 21 69 d4 3d 96 f4 6e 3d
       0.012367711 -0.15565905 0.10371614 0.058338724
0000b0 65 0c e6 3d 8b 98 eb bd 19 7c 4b 3d 8f 2b 74 3e
       0.11232833 -0.11503705 0.049678896 0.23844741
0000c0 ad 75 96 be 8a cb 37 be a9 43 4d be 73 53 e0 3e
       -0.29386654 -0.17948738 -0.20045342 0.43813667
0000d0 14 eb 15 3d 7c d0 e5 bd 77 26 5f be 67 ac 36 bd
       0.03660114 -0.11221406 -0.21792017 -0.04459801
0000e0 68 8d e2 bd 65 a5 05 3f 02 e1 15 be 0b 73 88 be
       -0.11062127 0.522055 -0.14636615 -0.2665027
0000f0 fd c3 fb 3c 9e 55 98 be f9 4f bd bd b0 d6 41 3e
       0.030733103 -0.2975282 -0.09243769 0.18929553

rnn.weight_hh_l1 f4 [8, 8]
000000 a1 2e f6 be ba 30 24 be 4e 67 68 3e 46 07 07 be
       -0.4808245 -0.16034213 0.22695658 -0.13186368
000010 63 69 63 be d3 c1 89 be cb b5 96 be 0c 87 7b 3e
       -0.2220817 -0.2690569 -0.29435572 0.24563235
000020 97 76 52 3e 39 01 1a bf 26 bb e2 3c 37 7a 23 be
       0.20553051 -0.60158116 0.02767713 -0.1596459
000030 dc 41 4d be 73 39 9c 3d 33 cf 89 be 88 25 07 3e
       -0.20044655 0.07628145 -0.26915893 0.13197911
000040 73 12 84 be bf 23 48 be 89 39 05 be f1 4d 45 bd
       -0.25795326 -0.19544886 -0.13010229 -0.048170034
000050 4b 8c 63 be ea 32 37 be 53 28 5a 3e 1b a8 48 3d
       -0.22221486 -0.17890516 0.21304445 0.048988443
000060 e9 0c d0 be ae 86 0f 3f 3d 1f 31 be 6f b3 08 bf
       -0.4063485 0.5606488 -0.17297073 -0.53398794
000070 2d 5b 30 be c1 52 93 be e4 bb 77 be 3c b0 a9 bd
       -0.17222281 -0.28774074 -0.24192768 -0.08285567
000080 31 52 f9 3d ee 3b 03 be 51 e1 15 3f 5e a7 67 3e
       0.1217388 -0.1281583 0.5854693 0.2262244
000090 c5 46 b6 be 3a 3a 0e 3f 2e 8f 75 3e 83 b4 67 3e
       -0.35600868 0.55557597 0.239804 0.22627454
0000a0 df 98 66 3e 1c cd 15 3e ac 73 26 3e f5 45 d4 bd
       0.22519253 0.14629024 0.16255063 -0.10364906
0000b0 a0 7b 52 bc 9d 08 1e bf 41 28 06 3b 29 3e 97 bd
       -0.012846857 -0.6173189 0.002047077 -0.07384903
0000c0 3e 2e ba 3e 46 95 93 3e bb 17 a1 be 03 5b 83 bd
       0.36363405 0.28824824 -0.31463417 -0.064138435
0000d0 22 59 b8 bd 9c c6 93 be f9 bd 95 be f0 b1 41 be
       -0.09001376 -0.28862464 -0.292465 -0.18915534
0000e0 e2 bd e6 bc bb 28 f2 bd 31 3f 19 3e be 36 83 bd
       -0.028166715 -0.11824175 0.14965512 -0.064069256
0000f0 8b b8 4d be 15 0e f5 bd 84 5e 9e be 9a eb fb be
       -0.20089929 -0.119655766 -0.30931485 -0.49203187

rnn.bias_ih_l1 f4 [8]
000000 01 f5 df bc bd 7a c0 bd 5b b3 da 3d 88 4f 94 be
       -0.027338507 -0.093984105 0.106787406 -0.28966928
000010 ab c3 9e 3d 6f 3c 1d be cf 6b 0c be 06 06 7c 3d
       0.077521645 -0.15355085 -0.13713 0.061529182

rnn.bias_hh_l1 f4 [8]
000000 e7 4b 7d 3d 3d 87 38 3e 25 27 4e be 0c 9e 23 3e
       0.061839964 0.1802034 -0.2013212 0.15978259
000010 76 c0 12 3d 27 34 0e 3e 32 2e c5 bc 3c 71 2f 3e
       0.035828076 0.13887082 -0.02406988 0.17133039

fc.weight f4 [2, 256]
000000 45 4e 3b 3d ba 30 a1 3c 0f 0a 86 bd 86 77 07 3d
       0.04572894 0.019676555 -0.06544887 0.03307297
000010 9f 7a 01 bd 4a af 72 3d 83 1e 21 bd 41 52 41 3d
       -0.03161108 0.0592492 -0.03933574 0.047197584
000020 ce 7b 43 bd 0b 3b 3d 3c a1 0b b2 bc 27 0e bf 3c
       -0.04772549 0.0115497215 -0.02173406 0.023322178
000030 65 3d 89 3d 31 e7 09 bd fa 33 78 bd 71 2b 84 3d
       0.06701163 -0.033667747 -0.060596444 0.06453598
000040 64 6f 0d bd ec ec 3b bb aa 68 46 3c 45 37 ac bd
       -0.03453006 -0.0028675152 0.012109915 -0.08408979
000050 2c 35 75 3d dd cb 60 bd 38 d5 85 bc 02 b0 bb bb
       0.05986516 -0.05488192 -0.016337022 -0.005727769
000060 ce eb 0c bd a6 51 24 bd 75 68 50 bd f1 90 8b bc
       -0.03440457 -0.04011693 -0.050880868 -0.017036887
000070 80 0c 83 3d e9 9d 9f bd c0 e3 22 bd bd 36 03 3d
       0.063988686 -0.07793791 -0.03976798 0.032034624
000080 ca d1 29 bd 90 28 02 3d c1 91 92 3b 47 4b 17 bb
       -0.041459836 0.031776965 0.0044729416 -0.002308564
000090 5a 2c 89 3c bd c2 33 bd 21 f0 5b bd 40 26 86 3c
       0.016744781 -0.04388689 -0.0536958 0.01637566
0000a0 98 16 3c bc 61 99 12 3c 25 4f 31 bd 10 41 81 bd
       -0.011479996 0.008947701 -0.04328837 -0.06311238
0000b0 b3 d8 2a 3d 12 4b b9 bd d8 39 a4 bd 50 2a 90 3c
       0.041710567 -0.09047522 -0.08018845 0.017598301
0000c0 99 14 27 bd eb 80 a5 bc e8 21 4c bb f0 3e 82 bd
       -0.040791128 -0.020203074 -0.003114814 -0.063596606
0000d0 0f 05 45 3d f1 ac 92 bd 70 3b 7f bd 8c ae 4d bc
       0.048100527 -0.07161892 -0.062312543 -0.012553822
0000e0 81 6c d4 3c 59 84 4b 3a 9b 6c 97 3c 4c 85 2f bd
       0.025930645 0.0007763557 0.018484404 -0.04285173
0000f0 9d 4e 02 3d 0f a8 a2 bd af d9 43 bd 08 53 d5 bb
       0.031813253 -0.07942211 -0.04781502 -0.0065101422
000100 22 95 08 bc a1 77 0e 3d 29 a2 34 bd 73 6a 35 bd
       -0.008336337 0.034782056 -0.04409996 -0.04429097
000110 a0 50 f2 bc 4c 3d 3f bd 03 6d a0 bd 1d 10 17 bd
       -0.02957946 -0.046689317 -0.07833292 -0.0368806
000120 2d 55 00 3c a3 c4 8b 3c 4a b2 8f 3c fa 9b b6 bc
       0.0078328075 0.017061537 0.01754107 -0.022291172
000130 91 18 d5 3c 6a 39 80 bd a7 06 be bd 3c a5 41 3c
       0.02601269 -0.06260951 -0.092786126 0.01181918
000140 f3 89 83 3c f7 62 b2 3c 33 3d d0 bb 76 51 4b bd
       0.01605699 0.021775706 -0.0063549518 -0.049638234
000150 59 13 12 3d b0 f7 3d bd fa 58 9d bd 7e e0 04 bd
       0.035662983 -0.04637879 -0.076829866 -0.032440655
000160 7a 4a 3e 3d 16 1a 82 bc 9e 24 02 bd 6f 11 e2 bc
       0.046457745 -0.01588158 -0.031773202 -0.027596204
000170 5e 8b 37 3c ae 63 12 bd b5 93 47 bd 55 36 88 bd
       0.011202661 -0.035739593 -0.04872485 -0.06650988
000180 3b 19 8d 3c a7 d4 93 3d 1c f5 b2 bc 78 fb 10 3d
       0.017223945 0.072182946 -0.021845393 0.03539607
000190 52 72 41 bb b8 08 fb bc 92 3a c7 bd b9 6e 0b bd
       -0.0029517603 -0.030643806 -0.09727968 -0.03404114
0001a0 88 f9 0f 3d 41 0a 41 3d 48 b4 cb bb 76 12 0b 3d
       0.03515008 0.04712892 -0.0062165596 0.033953153
0001b0 73 c3 cc bc 2e a3 fe ba a0 02 ba bd 7c da 97 bc
       -0.024995541 -0.0019427293 -0.09082532 -0.018536799
0001c0 9e ac 65 3d 00 6f d7 3c 9d cc 83 bd f6 7c b1 bc
       0.056072824 0.026298046 -0.06435511 -0.021666031
0001d0 a0 97 47 bd 17 25 43 bd a8 37 01 be 11 22 24 bd
       -0.048728585 -0.047642794 -0.12618887 -0.04007155
0001e0 61 cf 06 3d 61 e3 19 3d 17 cc 3d bd 18 64 e4 bc
       0.032912616 0.03757036 -0.046337213 -0.02787976
0001f0 c0 5f 16 bc 6a 2d 68 bc ee ce ca bd 7e 55 a6 bd
       -0.009178102 -0.014170984 -0.0990275 -0.08121775
000200 f5 b0 03 3d 04 6e 89 3d 85 6b 18 bd bf 55 de 3c
       0.03215118 0.06710437 -0.037211914 0.027140496
000210 56 35 ae bb 1c 7d bd 3c 5f 8e dc bd b1 7a 76 bd
       -0.0053164167 0.023130946 -0.10769343 -0.0601756
000220 29 f7 74 3d c3 94 b5 3c 88 d8 d9 bc 8f 8e 18 3d
       0.059806023 0.022165662 -0.026592508 0.03724533
000230 94 15 7f bd 17 4a 95 3c 26 13 d7 bd 4b 23 45 bd
       -0.062276438 0.018223805 -0.10501699 -0.04812936
000240 2f b9 8b 3d dd b4 7f 3c eb ed a8 bd 65 d2 6d 3c
       0.0682243 0.015607086 -0.08248504 0.014515494
000250 91 e4 bd bd f1 2d 97 bc 43 a9 d1 bd 33 8d ac bd
       -0.09272111 -0.018454524 -0.10237362 -0.08425369
000260 6f 0a a0 3d c8 c8 4a 3d 25 b6 a5 bd 5c 6b 2b 3d
       0.0781449 0.049507886 -0.08091382 0.041850433
000270 ca aa 95 bd c0 5a 0e 3d 05 c8 cc bd 61 b1 77 bd
       -0.07307966 0.034754515 -0.09999088 -0.060471896
000280 30 50 f7 3b b7 2f 64 3d 88 c1 2d bd 61 71 09 3d
       0.007547401 0.055709567 -0.042420894 0.033555392
000290 fe 29 b4 bd 45 71 a6 3c c8 f4 0a be 81 75 2b bd
       -0.08797072 0.020317683 -0.13569939 -0.041860107
0002a0 65 83 69 3d f2 6c a0 3c ec 05 84 bd 2f 16 b9 3a
       0.057010073 0.0195832 -0.06446442 0.0014120991
0002b0 cf 92 6a bd 99 43 aa 3b 98 bf b3 bd 9e c1 74 bd
       -0.057268914 0.0051960465 -0.08776778 -0.05975496
0002c0 cc 3e 65 3c 52 9c 1a 3d ef da 11 bd 8a ab 03 3d
       0.013992023 0.037746735 -0.035609182 0.032146014
0002d0 a0 12 a5 bd 37 6a ce 3c 99 63 8f bd 6d d8 56 bd
       -0.08060193 0.025197132 -0.070014186 -0.052452493
0002e0 8d 76 27 3d df 25 d4 3c a8 82 b5 bd 42 c7 07 bc
       0.040884543 0.025896965 -0.08862811 -0.008287253
0002f0 4b 08 dc bd 78 7e 18 bd 11 41 c6 bd f6 32 4f bd
       -0.10743769 -0.037229985 -0.09680379 -0.05058571
000300 5b 3c 51 bc ca 02 15 3d 0e 4a 33 bd 20 59 30 bc
       -0.0127707375 0.036379613 -0.043771796 -0.010763437
000310 11 b3 90 bc a7 82 ef 3b ac 5d 35 bd 78 e1 08 bd
       -0.01766351 0.007309276 -0.044278786 -0.03341815
000320 a4 a5 0a 3d 86 70 89 bb ab d6 e8 bc dc cd de 3c
       0.033849373 -0.004194322 -0.028422674 0.02719777
000330 28 96 df 3c 2e dc d4 3b 56 91 0d bd 42 58 ef 3c
       0.02729328 0.006495974 -0.03456243 0.02921689
000340 df 74 90 bd 67 a6 f7 3b 48 42 53 3c 8c 09 9e bc
       -0.070535414 0.0075576785 0.012894221 -0.019291662
000350 17 f1 a1 bb 13 dc ec 3b 5f e7 8c 3b 7a 10 37 bc
       -0.00494207 0.0072283833 0.0043000425 -0.011173362
000360 17 53 6d 3b 59 8f c8 bc 16 20 34 bd c7 10 47 bc
       0.0036212855 -0.024482416 -0.043975912 -0.012149996
000370 0d 9f 8a 3c 67 a8 73 3c a9 25 a6 3d 8e 08 c2 3b
       0.016921544 0.014871693 0.08112652 0.00592143
000380 64 3a 1d bd ee a9 db bc cb df 6a 3c 01 e7 96 3c
       -0.038385764 -0.026814427 0.014335583 0.018420698
000390 96 9b 2d 3d 14 f5 62 3d fd 24 53 3d 46 21 b5 3d
       0.042384706 0.055409506 0.051548947 0.08844237
0003a0 0a df 9e bd 2d 7e 8e bd 4d 74 fd 3c d1 75 07 bd
       -0.07757385 -0.0695766 0.030939246 -0.033071343
0003b0 8a 86 0d 3e 00 e4 85 bb 87 af 27 3e 5a 67 95 3d
       0.13820854 -0.0040860176 0.16375552 0.07295103
0003c0 55 b2 83 bd cc 62 85 bc 7c c4 dd 3d 46 b8 2c bc
       -0.064304985 -0.016282462 0.10828492 -0.010541981
0003d0 82 b1 24 3e 19 c0 e3 3d 3c 50 30 3e b7 2a 0d 3e
       0.16083339 0.11120624 0.17218107 0.13785826
0003e0 2b dc 74 bb b4 34 43 be f0 69 1e 3e 9c f3 30 3c
       -0.0037362676 -0.19063073 0.154701 0.0108002685
0003f0 11 08 ba 3c a2 65 39 bc 58 d5 3c 3e 6a 32 c8 3d
       0.022708924 -0.011315735 0.18440759 0.09775241

fc.bias f4 [2]
000000 94 ed a8 3c 3b 30 90 bc
       0.020621099 -0.017601123
