model/checkpoint/train_sparse_feedback_dict_batch250_epoch_300\261_loss12.pt (torch, 4899 bytes, 10 tensors)

rnn.weight_ih_l0 f4 [8, 3]
0	0x3e0dd6d2	0.13851479
1	0xbdee96e6	-0.11649875
2	0x3ee28d25	0.4424831
3	0xbd03a54a	-0.032140054
4	0x3f0ad48f	0.5423059
5	0xbf419ef6	-0.7563318
6	0x3ce5d267	0.02805443
7	0xbb9c7ad8	-0.0047753863
8	0xbe8a8dff	-0.2706146
9	0xbd8b989a	-0.06816216
10	0xbe7b6744	-0.24551111
11	0xbdc1331e	-0.09433578
12	0x3ca7bcb6	0.020475727
13	0xbf107ae2	-0.56437504
14	0xbdadbd34	-0.08483353
15	0xbd99478e	-0.07484351
16	0xbec25532	-0.37955624
17	0x3f020002	0.5078126
18	0xbcda7adf	-0.026669918
19	0xbefaeafc	-0.49007404
20	0x3ea1b215	0.31581178
21	0x3cbbdb6b	0.022931775
22	0x3ed4b7ea	0.41546565
23	0x3f7aac2f	0.9791898

rnn.weight_hh_l0 f4 [8, 8]
0	0xbf12ebf2	-0.57391274
1	0xbe6ed6a9	-0.23324074
2	0xbed051d6	-0.40687436
3	0xbd416535	-0.04721566
4	0xbe331b60	-0.17490911
5	0x3e2ef235	0.17084582
6	0xbec3bf40	-0.3823185
7	0xbe1cf708	-0.1532861
8	0x3eb6c507	0.35697195
9	0x3d8b1660	0.06791377
10	0xbc9a1f6e	-0.018813815
11	0x3e6fe30c	0.23426455
12	0xbe4ace8a	-0.19805351
13	0x3e029635	0.12752612
14	0xbdc0e969	-0.094195195
15	0x3f048d15	0.51777774
16	0xbd9f3817	-0.0777437
17	0x3d8ae3e7	0.0678175
18	0xbeb3fe28	-0.35154843
19	0x3de04c6e	0.10952078
20	0xbe8f74d3	-0.28018817
21	0x3e642904	0.22281271
22	0x3d32735d	0.04356705
23	0x3e7d48ff	0.24734877
24	0xbe2c7db7	-0.16844831
25	0xba9132bb	-0.0011077741
26	0xbecbffca	-0.3984359
27	0x3dd3b9ba	0.10338159
28	0x3edd3ba0	0.43209553
29	0xbbd04169	-0.0063554537
30	0x3edd4e43	0.4322377
31	0x3eb0969b	0.34489903
32	0xbcb28105	-0.021790037
33	0x3dfe0455	0.1240317
34	0xbe4383d2	-0.19093254
35	0x3e9e2433	0.30886993
36	0x3e7925c5	0.24330814
37	0x3d9f58c6	0.07780604
38	0xbeab7855	-0.33490244
39	0x3ec52f94	0.38512862
40	0x3e295b36	0.165387
41	0xbcbb1a1e	-0.022839602
42	0x3e296214	0.1654132
43	0xbdc30a5e	-0.09523462
44	0xbed94c58	-0.42441058
45	0x3d51c202	0.05121041
46	0x3d01800d	0.03161626
47	0x3e1ce7df	0.15322827
48	0x3c73ca5b	0.014879788
49	0xbe18cf15	-0.14922746
50	0xbcf644a8	-0.030062035
51	0xbca7fcca	-0.020506281
52	0x3df6f407	0.12058263
53	0xbea24a86	-0.31697482
54	0xbe7974b8	-0.24360931
55	0xbe625853	-0.22104006
56	0xbec9ce8e	-0.394154
57	0xbf01c8ef	-0.50697225
58	0xbd385a6f	-0.04500812
59	0x3dcdb22f	0.100437514
60	0x3d67cd64	0.05659236
61	0xbe62474e	-0.22097513
62	0xbce02320	-0.027360499
63	0x3e3f5775	0.18685706

rnn.bias_ih_l0 f4 [8]
0	0x3e9681f8	0.29396033
1	0x3cfd72ff	0.030938623
2	0xbe00fc7b	-0.12596314
3	0x3e6c4486	0.23073015
4	0xbe97ade7	-0.29624864
5	0xbe9d6e9a	-0.30748445
6	0xbeb7787c	-0.3583411
7	0x3e6dd652	0.23226288

rnn.bias_hh_l0 f4 [8]
0	0xbdc03c44	-0.09386495
1	0x3c56926d	0.013096434
2	0x3dee0aee	0.116231784
3	0x3ee03b98	0.43795466
4	0xbe22cb2e	-0.1589782
5	0x3dc449d1	0.09584392
6	0xbee56044	-0.44800007
7	0x3ed6034e	0.41799396

rnn.weight_ih_l1 f4 [8, 8]
0	0x3da49618	0.080364406
1	0xbee8500f	-0.4537358
2	0xbdc1be23	-0.09460094
3	0xbd0d3d2c	-0.034482166
4	0x3e71cea4	0.23613983
5	0x3e331cbb	0.17491429
6	0x3db55fe8	0.08856183
7	0xbdbc2e8e	-0.09188567
8	0xbdc3fe47	-0.09569984
9	0x3ca86592	0.020556245
10	0xbe15b3df	-0.14619397
11	0xbed368a0	-0.4129076
12	0xbcadd08f	-0.021217613
13	0x3d597e4b	0.053098958
14	0xbecc5b99	-0.39913633
15	0xbcff5644	-0.031169064
16	0x3e58515c	0.21124786
17	0x3e8f44cb	0.27982172
18	0x3e1b82f7	0.15186678
19	0xbe0221d2	-0.12708214
20	0x3ec614bc	0.38687694
21	0x3e3cb8dc	0.18429893
22	0x3e4f0199	0.20215453
23	0xbea179ad	-0.31538144
24	0x3e8eb1f0	0.2787013
25	0x3bfd321b	0.0077269203
26	0x3dfa13e0	0.12210822
27	0x3ec2049b	0.3789414
28	0xbd3a1b35	-0.045436103
29	0x3e32d4dc	0.17464012
30	0x3e01e316	0.12684283
31	0x3baab585	0.005209627
32	0xbd8b6651	-0.06806625
33	0xbdb5497d	-0.088519074
34	0xbe9d4f59	-0.307246
35	0x3e50aa9b	0.20377581
36	0xbd435273	-0.04768605
37	0xbe0fbba6	-0.14036426
38	0xbe3db823	-0.18527274
39	0xbd6afe7a	-0.057371594
40	0xbd573c80	-0.05254793
41	0xbe7432ea	-0.23847547
42	0x3e043614	0.12911254
43	0xbdb82d38	-0.08993
44	0x3e93a7b7	0.28838894
45	0xbdb7cdb0	-0.08974779
46	0x3e82e7e1	0.25567535
47	0xbe59df4e	-0.2127659
48	0xbbfe29db	-0.0077564544
49	0xbe092ad6	-0.13395247
50	0x3b9fd459	0.0048776087
51	0x3d67b694	0.056570604
52	0x3e9da5c5	0.30790535
53	0xbc61b30c	-0.013775598
54	0x3bba4ad2	0.005685189
55	0xbe3c0be5	-0.18363912
56	0xbe1a8bd9	-0.1509241
57	0x3e8891fd	0.2667388
58	0x3c5c169b	0.013433124
59	0x3e593f6d	0.21215601
60	0x3d969b4d	0.0735384
61	0xbe9ccfee	-0.30627388
62	0xbe2799d1	-0.1636727
63	0xbe86502b	-0.26233038

rnn.weight_hh_l1 f4 [8, 8]
0	0x3d3d0a3a	0.04615233
1	0xbe645a0a	-0.22299972
2	0x3e8df1ff	0.2772369
3	0xbea36f91	-0.31921056
4	0xbde6a8f7	-0.11262696
5	0x3e85b9cd	0.26118317
6	0x3e254481	0.16139413
7	0x3efc1f92	0.49242836
8	0x3ea96275	0.3308293
9	0xbf2a7944	-0.66591287
10	0x3ec69ba7	0.38790628
11	0x3dbe300e	0.092865095
12	0x3f0e9a1a	0.5570389
13	0x3e09b74f	0.13448833
14	0xbda42989	-0.08015735
15	0xbe31588e	-0.17318937
16	0xbe42d822	-0.1902776
17	0xbe120d64	-0.1426292
18	0xbf2a2200	-0.6645813
19	0xbd884525	-0.06653813
20	0xbdc322a1	-0.09528089
21	0xbed06d39	-0.4070833
22	0x3e8f4a88	0.2798655
23	0xbe56274a	-0.20913425
24	0x3df0bc6c	0.117546886
25	0x3ebb8d57	0.3663127
26	0xbd1aa449	-0.03775433
27	0xbf008253	-0.5019886
28	0xbe73ae8d	-0.23797055
29	0xbcc46ddb	-0.023978164
30	0x3e6ad5c7	0.22933112
31	0x3eb5b5fe	0.35490412
32	0x3d3b7f38	0.045775622
33	0xbdfd0d3f	-0.12356042
34	0x3dbf8833	0.0935215
35	0x3db1cd60	0.0868175
36	0xbed6e239	-0.4196947
37	0xbe9ea675	-0.30986372
38	0x3d787eac	0.06066768
39	0xbe7e46d0	-0.248317
40	0xbe4624a0	-0.19349909
41	0xbe049e06	-0.12950906
42	0x3c33cbae	0.010973854
43	0x3e23b5cb	0.15987317
44	0x3d399066	0.045303725
45	0xbf00c39f	-0.50298494
46	0xbe590044	-0.21191508
47	0xba05d8a7	-0.0005105831
48	0xbeaa4b83	-0.33260736
49	0xbd15e5a8	-0.03659597
50	0xbeb183f4	-0.34670985
51	0xbe1f1d7b	-0.1553859
52	0xbee18756	-0.44048566
53	0xbeadbcad	-0.3393301
54	0xbe7f8ee0	-0.24956846
55	0xbe040d1b	-0.12895624
56	0xbe840037	-0.25781414
57	0x3ea5646d	0.3230318
58	0xbe835c36	-0.2565629
59	0xbdddc501	-0.10828591
60	0xbe157b98	-0.14597929
61	0xbeb7a6d8	-0.3586948
62	0xbdb6b0a8	-0.08920413
63	0xbe2eb318	-0.17060506

rnn.bias_ih_l1 f4 [8]
0	0xbebd6630	-0.36992025
1	0x3e2cb0f2	0.16864374
2	0x3d8d17e0	0.068893194
3	0xbeda2668	-0.42607427
4	0xbdd4db9e	-0.10393451
5	0x3e015871	0.12631394
6	0x3d13f8c3	0.03612591
7	0x3d2a423c	0.041567072

rnn.bias_hh_l1 f4 [8]
0	0x3cf05ea9	0.029342012
1	0x3e68eca9	0.22746529
2	0xbd12d0b7	-0.035843577
3	0x3ddce5b7	0.10786002
4	0xbd978a9f	-0.07399487
5	0xbe9947bf	-0.2993755
6	0xbe9ad5ca	-0.30241233
7	0xbd364437	-0.04449865

fc.weight f4 [2, 256]
0	0xbc85b89d	-0.016323382
1	0xbdbd5368	-0.09244424
2	0x3b0207eb	0.0019841145
3	0xbd04432c	-0.032290623
4	0xbcac01a2	-0.020996872
5	0x3d078d39	0.033093665
6	0xbd212b70	-0.039348066
7	0xbdaca599	-0.08430023
8	0x3a9ffebb	0.0012206653
9	0xbba03d93	-0.0048901527
10	0x3c9bb93c	0.019009225
11	0x3c6a1e45	0.014289443
12	0xbc13bd5b	-0.009017314
13	0xbcc190fb	-0.023628702
14	0x3da8decc	0.0824562
15	0xbcfc6e1b	-0.030814221
16	0x3d4424f9	0.047886822
17	0xbcf81538	-0.030283555
18	0xbc02dbc7	-0.007986969
19	0x3a8bfd2b	0.0010680308
20	0x3cc68866	0.024234962
21	0xbccfb7da	-0.025356222
22	0xbaa551fa	-0.0012612932
23	0xbd3cb421	-0.04607022
24	0x3c3af2ec	0.011410456
25	0xbb3c51c4	-0.002873526
26	0xbbd0efe7	-0.006376255
27	0xbca6a84b	-0.02034392
28	0x3c796825	0.015222584
29	0xbc6a2d39	-0.0142930085
30	0x3d066f4a	0.032820977
31	0xbc7a8a6b	-0.0152917905
32	0xbcb23d4c	-0.021757744
33	0x3c7467ec	0.014917355
34	0x3bc3ddea	0.005977382
35	0x3c874f39	0.016517268
36	0x3d88a29f	0.066716425
37	0xbca085e6	-0.019595098
38	0x3ce0ad72	0.027426455
39	0xbda85f42	-0.08221294
40	0x3c01cf76	0.007922998
41	0x3c365d76	0.011130681
42	0x3c999d05	0.01875163
43	0x3b77d4b7	0.0037815997
44	0x3d147459	0.03624377
45	0xbc8e8596	-0.017397683
46	0xbbe47199	-0.0069715497
47	0xbc7d6eae	-0.015468283
48	0xbd1678bd	-0.03673624
49	0x3c17f0b4	0.009273697
50	0x3b69ed64	0.0035694474
51	0xbaa6fc4d	-0.0012739986
52	0x3d40cd3f	0.047070738
53	0xbda13e98	-0.07873267
54	0x3d87547d	0.06607912
55	0xbdad54e4	-0.08463457
56	0xbce04819	-0.027378129
57	0x3b827a97	0.003981899
58	0xbc343751	-0.010999517
59	0xbab8f9ed	-0.001411257
60	0x3c8b9a6b	0.017041406
61	0xbd45da33	-0.048303794
62	0xbc87cc35	-0.016576866
63	0xbd5c14ab	-0.053730648
64	0xbcfcb602	-0.030848507
65	0x3c90b248	0.017663136
66	0xbbcb2c98	-0.0062003843
67	0xbb151a6b	-0.0022751342
68	0x3ce77dd7	0.028258247
69	0xbd3e88fc	-0.046517357
70	0xbbc008eb	-0.005860438
71	0xbd527e77	-0.051390138
72	0xbd59a9d2	-0.05314047
73	0x3b31cf08	0.0027131457
74	0xbc00201d	-0.007820156
75	0x3d004c63	0.031322848
76	0x3cfe99ee	0.031079259
77	0xbd51bd18	-0.051205724
78	0xbccee447	-0.025255335
79	0xbda2fa5e	-0.0795791
80	0xbcb92e3f	-0.02260506
81	0xbbf209dd	-0.0073864297
82	0xbcf9ce0a	-0.030493755
83	0xbc96c00b	-0.01840212
84	0xbc78afc7	-0.015178627
85	0xbdc7313b	-0.09726187
86	0x3ac6403d	0.0015125346
87	0xbd4a2962	-0.049355872
88	0xbd5d0a95	-0.05396517
89	0x3b29ded1	0.0025920162
90	0xbce01498	-0.02735357
91	0x3b050f8d	0.0020303458
92	0x3cc86e5f	0.024466692
93	0xbd14b0b3	-0.036301326
94	0xbd35a3b2	-0.044345565
95	0xbd7763ff	-0.060398098
96	0xbd4105ca	-0.04712466
97	0x3b201318	0.0024425443
98	0xbcb079ce	-0.021542456
99	0x3a92bd3b	0.0011195311
100	0x3cb95c94	0.022627153
101	0xbd89e00d	-0.067321874
102	0xbc2cc0d1	-0.010544018
103	0xbd7fa4c7	-0.062413003
104	0xbd936a84	-0.071980506
105	0xbc302231	-0.010750339
106	0xbd80287b	-0.06257721
107	0xb902a9ea	-0.00012461064
108	0xbcb7b265	-0.022423932
109	0xbd993ea3	-0.0748265
110	0xbd0122ef	-0.031527456
111	0xbda5dd3d	-0.080988385
112	0xbcd6670b	-0.026172182
113	0x3c467a9d	0.012114194
114	0xbd2a01fb	-0.041505795
115	0x3b8bbc12	0.004264363
116	0x396d5e77	0.00022637272
117	0xbd1b15dc	-0.037862644
118	0xbd9296bf	-0.07157659
119	0xbce11d2d	-0.027479732
120	0xbd5ee822	-0.054420598
121	0x3b4df4aa	0.0031426349
122	0xbd206815	-0.03916176
123	0x3cb863e6	0.022508573
124	0x3b4f5783	0.0031637854
125	0xbd875965	-0.066088475
126	0xbd1b87c3	-0.03797127
127	0xbd8b1962	-0.06791951
128	0xba68c56d	-0.00088795164
129	0xbac19403	-0.0014768842
130	0xbd073c6b	-0.033016603
131	0xbcfd2dc3	-0.03090561
132	0xbccff165	-0.02538366
133	0xbd5cd980	-0.05391836
134	0xbcef0d98	-0.029181287
135	0xbb409ed8	-0.0029391553
136	0xbd8d6e8f	-0.06905853
137	0x3c207718	0.009794019
138	0xbcde9ec6	-0.027175318
139	0x3c47d210	0.012196079
140	0x3ca652ca	0.020303149
141	0xbc9564c1	-0.01823652
142	0xbc985f4b	-0.018600127
143	0xbd5e4e3d	-0.054273833
144	0xbcfc095a	-0.030766178
145	0x3c0f46ea	0.008744935
146	0xbd229470	-0.039692342
147	0xbc22e5d5	-0.009942492
148	0xbcc914f4	-0.024546124
149	0xbd7cc807	-0.0617142
150	0xbc42c101	-0.011886836
151	0xbd00c262	-0.031435378
152	0xbce635bc	-0.028101794
153	0x3c977fc7	0.018493546
154	0xbcda19df	-0.026623664
155	0x3b838504	0.0040136594
156	0xbbcaa115	-0.0061837533
157	0xbb42c104	-0.0029717097
158	0xbd887d37	-0.06664508
159	0xbbe7a988	-0.0070697702
160	0xbc991c69	-0.018690305
161	0x3c9eeaf4	0.019399144
162	0xbc412af4	-0.011790026
163	0xb8bfa1a1	-9.1376955e-05
164	0xbae70c4f	-0.001762757
165	0xbd2ca0a1	-0.042145375
166	0xbbcc9345	-0.006243142
167	0xbca86384	-0.020555265
168	0xbcc11617	-0.023570104
169	0x3c1ec59c	0.009690668
170	0xbcfad552	-0.030619297
171	0xbbec58a4	-0.007212715
172	0xbd2b192d	-0.041772056
173	0xbca22ddc	-0.019797258
174	0xbd1abc1b	-0.037777048
175	0xbc2cad8b	-0.010539423
176	0x3cbfddc9	0.023421185
177	0x3c93b4fb	0.018030634
178	0x3c4fea12	0.012690084
179	0xbbe667b1	-0.007031404
180	0xbb0995d6	-0.002099385
181	0xbb906168	-0.004406143
182	0xbd40a4ed	-0.047032285
183	0x3ce0849d	0.027406985
184	0xbc6c9017	-0.014438651
185	0x3bb295c8	0.005449984
186	0xbc685414	-0.014180202
187	0xbce105e1	-0.027468624
188	0xbd32995c	-0.043603286
189	0xbb95a4a1	-0.0045667444
190	0xbbdde94d	-0.0067721964
191	0x3b46aa38	0.003031386
192	0x3cf74759	0.030185388
193	0x3c9a5034	0.018837072
194	0x3ccde03f	0.025131343
195	0xbc0eebcf	-0.008723213
196	0x3a83206f	0.0010004173
197	0x3d095bb2	0.033534713
198	0xbd4bcf95	-0.049758513
199	0x3d3cfaef	0.046137746
200	0x3cbceee7	0.023063136
201	0x3c25962d	0.0101066055
202	0x3caf131e	0.02137142
203	0xbd1ac19d	-0.0377823
204	0xbcc9cc9f	-0.024633704
205	0x3ceb7df4	0.028746583
206	0x3c81de8b	0.015853187
207	0x3d49e724	0.0492927
208	0x3c6e01e5	0.014526819
209	0x3c7c1ff0	0.015388474
210	0x3cfb416f	0.03067085
211	0xbc10f488	-0.008847363
212	0xbbf0ebee	-0.0073523438
213	0x3d6e9958	0.05825171
214	0xbb521d8c	-0.0032061068
215	0x3d1c4315	0.038149912
216	0x3d33560c	0.043783233
217	0x3c3f3bf8	0.0116720125
218	0x3cce9802	0.025218967
219	0xbca15998	-0.019696042
220	0xbd0b1d07	-0.03396323
221	0x3d66908a	0.056290187
222	0x3ab45e2a	0.0013760973
223	0x3d8a8bf4	0.06764975
224	0x3d49a157	0.04922613
225	0x3caa26ef	0.020770518
226	0x3d1766d2	0.03696329
227	0x3b5266e5	0.0032104787
228	0xbc89835e	-0.016786274
229	0x3dcbec87	0.099572234
230	0x3a75dcdc	0.0009378919
231	0x3d8e006b	0.069336735
232	0x3d80d049	0.06289727
233	0x3c86869f	0.016421614
234	0x3d30156e	0.042989187
235	0x3c47c3d1	0.012192682
236	0xbb9f5070	-0.004861884
237	0x3dc7cea6	0.09756212
238	0x3d56d2f2	0.052447267
239	0x3dbbce36	0.09170191
240	0x3c962a64	0.01833076
241	0x3c9ad628	0.018900946
242	0xbb41fd3a	-0.0029600398
243	0x3d0e9911	0.034813944
244	0xbcb4b480	-0.022058725
245	0x3dbc129c	0.09183237
246	0x3d9985b8	0.07496208
247	0x3d398ebd	0.04530214
248	0x3d45318a	0.048142947
249	0x3d0f65ac	0.03500907
250	0x3d1c2e00	0.038129807
251	0x3d2bf4b9	0.041981433
252	0x3c4a8e71	0.012363062
253	0x3d6b45be	0.05743956
254	0xbc5c0982	-0.013430001
255	0x3dce1cc3	0.100640796

fc.bias f4 [2]
0	0xbb8c2f1b	-0.0042780763
1	0xbc83aa96	-0.016072553
