model/checkpoint/train_sparse_feedback_dict_batch250_epoch_300\291_loss1.pt (torch, 4899 bytes, 10 tensors)

rnn.weight_ih_l0 f4 [8, 3]
000000 ce 6a cc bd 42 c9 c3 3e e4 18 44 bf c4 8f 55 bc
       -0.09981309 0.38239485 -0.7660048 -0.013034765
000010 7b d0 9c be 6a 29 d2 bd 91 88 0a 3d b9 b4 86 be
       -0.30627808 -0.10261805 0.033821646 -0.26309755
000020 47 d9 36 bf 89 77 d8 bd ee e2 6f bd 6b b0 ea 3e
       -0.7142529 -0.105696745 -0.058566026 0.4583772
000030 22 b3 d3 bc 06 02 32 bf c9 93 74 be 72 01 d1 bd
       -0.025842253 -0.6953434 -0.238845 -0.10205354
000040 64 c0 d1 3d 80 c1 db bd 4e ed 1b bc 13 d4 f8 3e
       0.10241774 -0.107302666 -0.009517027 0.485993
000050 32 83 3a be b2 52 12 be d6 09 1f 3f ed 0f ac be
       -0.1821411 -0.14289358 0.62124383 -0.336059

rnn.weight_hh_l0 f4 [8, 8]
000000 d0 78 1d bc 49 44 6a 3e f2 35 61 be 2f 69 00 bf
       -0.0096113235 0.22877611 -0.21993235 -0.501605
000010 58 15 63 bd 4d c2 01 bf 65 77 98 3d be 0e c1 bd
       -0.055440277 -0.50687104 0.07444648 -0.0942664
000020 ec e7 37 3e 53 7b 6e be f6 1f 8b bb da f2 d5 be
       0.17959565 -0.23289232 -0.0042457534 -0.41786844
000030 bc ab c6 be 09 13 55 3e 24 35 e0 3d 28 5a 18 3e
       -0.38802898 0.20808043 0.10947636 0.14878142
000040 f2 36 c4 bd 64 5a e2 bc 0c fc 96 3d 73 30 71 be
       -0.095807925 -0.027630992 0.07372293 -0.23553638
000050 05 f7 82 be 4c 39 c3 3d 1e 7d 05 3e c7 c0 df 3e
       -0.25579086 0.09532413 0.1303601 0.43701765
000060 fc b9 f7 3d eb 26 3d 3e 67 d5 8a 3e d1 da 8f bb
       0.120960206 0.18471877 0.27115938 -0.0043900986
000070 0e 9e dc 3e 1b 85 24 3e be 69 54 3e af 72 ac be
       0.43089336 0.160664 0.20743462 -0.33681247
000080 35 7b 35 bd 37 5c f5 3d 47 a3 7a 3e 64 26 68 3d
       -0.044306953 0.11980479 0.24476348 0.056677237
000090 6b 0b c3 3c b8 a6 89 3e ce a0 79 3c 61 ad 37 bb
       0.023809155 0.2688501 0.015236093 -0.0028026926
0000a0 95 a1 ac 3e 95 fd ed 3e 3f fc fd 3d d4 72 b5 be
       0.33717027 0.4648253 0.12401628 -0.3543917
0000b0 37 dc b4 3d 27 5c a3 be 52 06 bf 3e 29 ca fa bd
       0.08831065 -0.31906244 0.3730951 -0.1224559
0000c0 5a a3 a9 bb 46 21 82 be 21 23 30 be 88 5d ce bb
       -0.0051769437 -0.2541601 -0.172009 -0.006297771
0000d0 a7 c3 ba be 43 60 e2 3d fb 35 e2 be cf b7 33 bc
       -0.36477396 0.11053517 -0.4418181 -0.010969116
0000e0 13 21 37 3d 82 ed cc 3d 5e c8 23 be f8 42 c6 bd
       0.044709276 0.100062385 -0.15994403 -0.09680742
0000f0 be 21 b0 be 95 a5 9b be e7 f8 02 3e b1 a3 c6 be
       -0.34400743 -0.30399767 0.12790261 -0.38796762

rnn.bias_ih_l0 f4 [8]
000000 ec 7c e6 bd b5 08 ab be 48 fe 98 be aa a8 e4 be
       -0.11254296 -0.3340508 -0.298815 -0.4465993
000010 88 2d 12 bf 46 9e 2d 3d 99 6b a3 3e a6 ce 35 3e
       -0.57100725 0.04238727 0.31918028 0.17754611

rnn.bias_hh_l0 f4 [8]
000000 f6 b7 67 bc 0d db ae be df 16 e9 bd 6a 6f 01 be
       -0.014142981 -0.34151497 -0.113813154 -0.12640157
000010 04 e8 ab be a1 b2 81 be 5b b6 41 3e 08 45 cf 3d
       -0.3357545 -0.25331596 0.1891722 0.101205885

rnn.weight_ih_l1 f4 [8, 8]
000000 a3 c3 3e 3e 78 36 92 be 12 f9 8a bd 6a 4d 0e 3e
       0.18629317 -0.2855718 -0.06785788 0.13896719
000010 f3 94 4a bd 0c f0 dd 3b 36 1f 1e 3d 78 db 8a be
       -0.049458455 0.0067730006 0.038603984 -0.27120566
000020 7e 75 24 3e b6 98 f1 3e 7b 25 a3 3d 8b 6e 01 3e
       0.16060445 0.47186822 0.07966133 0.12639825
000030 3a 8c 9e be 00 f4 92 3d de 76 51 be 60 c8 8d bd
       -0.3096636 0.071754456 -0.204555 -0.06922984
000040 78 b6 68 be ed d3 fb bd 3b 39 ee be 53 0d 4e be
       -0.22725856 -0.12296281 -0.46528038 -0.2012227
000050 a5 eb 15 be a8 60 91 3d d3 84 b8 3c 40 94 fb 3d
       -0.14640673 0.07098514 0.022524273 0.12284136
000060 4c ea 49 be 52 f0 63 3e c1 5c ac 3d 3f ff ee 3c
       -0.19718283 0.22259644 0.08416129 0.029174445
000070 bd 24 d6 be fb 87 8c 3e d6 65 52 ba 81 2b 18 3e
       -0.41824904 0.27447495 -0.0008026039 0.14860345
000080 82 c1 4d be ec 88 4c 3e 1c 3c 9c 3c 5a 4e 6a 3e
       -0.20093349 0.19974107 0.019071631 0.22881451
000090 45 40 ef 3e c9 bc 52 be 67 9f 92 be 05 9b 7d be
       0.4672872 -0.20579828 -0.2863724 -0.24766167
0000a0 2f 64 3c bc cd d2 10 be c7 1f 64 bc 7a 92 9a 3c
       -0.011498495 -0.14142914 -0.013923592 0.018868674
0000b0 7b 78 00 3d dd b5 1a 3d 27 3b 57 3d 0f 41 c1 bd
       0.0313649 0.037771095 0.052546646 -0.09436237
0000c0 ad a0 0c 3e 53 57 ed bd c5 2c dc 3c 51 00 3a be
       0.13733168 -0.115889214 0.026876817 -0.18164183
0000d0 60 08 69 3d c7 93 4c 3e 90 0f 22 be 02 2f 4a bd
       0.056892753 0.19978248 -0.15826249 -0.049361236
0000e0 cd 5a 17 3e 88 a3 00 be 02 ca 7b 3c 3d 7c 02 3e
       0.14780731 -0.12562382 0.015367987 0.12742706
0000f0 e7 c3 ad 3d 4a f7 9f 3d 4b fc 96 3e 30 bc af be
       0.08484631 0.078108385 0.2948936 -0.34323263

rnn.weight_hh_l1 f4 [8, 8]
000000 4e dc 0f bf 99 35 10 3e d7 2c 33 be 7c e5 09 3e
       -0.56195533 0.14082946 -0.17497574 0.13466448
000010 8e b0 52 bd 78 ff 30 be 81 d5 2f be 7b 04 a7 3e
       -0.051437907 -0.17284954 -0.17171289 0.32620606
000020 e0 22 88 be 61 41 11 bf 22 ea d6 3e 9e 95 02 3e
       -0.26589108 -0.56740385 0.41975504 0.12752387
000030 62 66 4d 3e 1b 3f b4 3e 83 23 83 3e fe 88 8d bd
       0.20058587 0.35204396 0.2561303 -0.06910895
000040 81 6e 55 3e 2a 9d 31 be 2c 02 07 bf 19 68 d3 3e
       0.20842935 -0.1734511 -0.5273769 0.41290358
000050 b0 58 75 3e ca 63 64 be 10 f9 30 3e 46 dd be 3d
       0.23959613 -0.22303692 0.1728251 0.09319548
000060 2e 69 5d bd c7 a4 1d 3e c3 84 ed bd dc 4c c7 be
       -0.054055385 0.15394889 -0.11597588 -0.38925827
000070 97 51 06 3f 9e 7d a3 3e 06 06 bc 3e 3e c4 83 3d
       0.52468246 0.31931776 0.36723346 0.064339146
000080 34 3d 83 3e e3 02 ed 3d 44 ba 83 bd e3 d1 9b be
       0.25632632 0.11572816 -0.06432012 -0.30433568
000090 50 01 33 be f7 6e 84 be 83 75 5c 3d 52 c6 aa 3e
       -0.1748097 -0.2586591 0.053823005 0.3335443
0000a0 41 47 1d 3e e2 90 3b bd 81 96 0b bd 74 ec 8a be
       0.15359212 -0.045792468 -0.03407908 -0.27133524
0000b0 eb 8a 90 bd 15 7c 56 bf ed d9 3a 3d b9 1e 64 bb
       -0.070577465 -0.83783084 0.045617986 -0.0034808351
0000c0 6e 9c 9b 3e 7c 27 7c bc 86 ae 7a bd 30 ed 53 be
       0.30392784 -0.015390273 -0.061201595 -0.20695949
0000d0 cd a3 76 3e 15 83 84 3e 74 84 01 be f6 a1 f1 bd
       0.24085923 0.25881258 -0.12648183 -0.1179847
0000e0 a9 ac c7 be 0c 42 c5 3c f1 35 44 3c 0d b9 e9 bc
       -0.38998917 0.024079345 0.011975751 -0.028530622
0000f0 65 a0 d0 3d 29 c8 14 3d 41 75 11 bf 97 2a 3f be
       0.10186843 0.0363237 -0.5681954 -0.1866859

rnn.bias_ih_l1 f4 [8]
000000 36 ec 88 be d2 0e f9 3c df 2b 5b be 41 50 63 3d
       -0.26742715 0.030402575 -0.21403454 0.055496458
000010 5d 48 82 3d ec 17 0b be 35 c0 8f 3e b6 02 89 3b
       0.063614585 -0.13583344 0.2807633 0.0041812314

rnn.bias_hh_l1 f4 [8]
000000 ce f6 6b 3e 78 ab 2f 3e 94 c0 6d 3d be de 8b 3d
       0.23043367 0.17155254 0.058044985 0.06829594
000010 03 e8 51 be 66 13 bf 3d 42 eb 95 be 5d 0d 85 3c
       -0.20498662 0.09329872 -0.2928105 0.016241724

fc.weight f4 [2, 256]
000000 d6 03 b1 3d c3 7c 34 3d 98 97 05 bc 41 57 6d bd
       0.0864331 0.044064295 -0.008153819 -0.05794454
000010 ab 9c 9b 3d 36 ff d6 3a 8e 98 08 3e 79 b6 d3 bd
       0.075982414 0.0016402963 0.13339445 -0.10337538
000020 c1 41 d1 bd ea 7b 8e bd 6c bf db 3c 56 dc f6 ba
       -0.1021762 -0.069572285 0.026824676 -0.0018833976
000030 32 ac cc 3c 3d 1f 93 3c b8 6d e8 3c ff 87 2b 3d
       0.024984453 0.017959232 0.02837263 0.041877743
000040 71 e2 07 bd 34 f6 e2 bc e8 66 5d bb 9b 55 6a bc
       -0.033174936 -0.02770529 -0.003378326 -0.0143026365
000050 da 3e f9 3c 6d 90 06 bd 36 6e 4b 3d 1a 7c 9c bb
       0.030425478 -0.03285258 0.049665652 -0.0047755362
000060 9b 90 23 bd 37 6a 9f bc 12 a2 5a 3d bb 6b 34 bd
       -0.03993283 -0.019459827 0.05337722 -0.044048052
000070 eb 32 6a 3c cd 71 9c bc 62 43 58 3c ef 40 0a 3b
       0.014294366 -0.019097233 0.013199659 0.0021095832
000080 e8 b9 19 bd ce b6 a9 3b 15 d2 7e 3d 82 a5 f0 bb
       -0.03753081 0.0051792627 0.06221207 -0.007343949
000090 60 3c 72 bc e4 2c c6 3c 11 5f 50 bd c3 c7 27 3c
       -0.014784902 0.024191327 -0.050871912 0.010240498
0000a0 76 d1 4c bd 09 25 d2 3b 09 b2 82 3d 44 4a 0f bd
       -0.050004445 0.0064131063 0.06381614 -0.034982935
0000b0 7c 7f ba 3b e8 72 07 3d 4f 65 80 3c 41 33 6b 3c
       0.005691467 0.033068568 0.015673308 0.014355482
0000c0 4c 12 8e bd 76 a7 03 bb b9 51 64 3d 79 6b 22 bd
       -0.069370836 -0.0020088828 0.055742 -0.039653275
0000d0 4d 82 af bc 6c 7e d6 bc 4d 79 4d bd 08 32 3d 3d
       -0.021424437 -0.02618333 -0.05016451 0.04619029
0000e0 6f ee 71 bd 56 cb 16 3c 72 be 90 3d 80 2b de bc
       -0.05906528 0.0092037525 0.070675746 -0.027120352
0000f0 eb 20 8a bc 99 3b 16 bb 58 77 2d bd 6d 5b 5b 3c
       -0.0168614 -0.0022923707 -0.042350143 0.013388497
000100 64 82 ac bc 17 bd 74 3c d1 81 81 3d 8c 48 0d bd
       -0.021058269 0.014937661 0.06323589 -0.034493014
000110 e6 d9 dc bc c8 af 11 bd b6 97 17 bd 3c 00 70 3b
       -0.02695937 -0.03556803 -0.037009917 0.0036621233
000120 0e 11 dd bc ed 9e 49 3c 9d 9e ae 3d f5 c8 1f bd
       -0.026985671 0.012305957 0.08526347 -0.039010007
000130 28 8d d7 bc 9c 2f 67 bd e4 49 36 bd d2 e9 1c 3c
       -0.026312426 -0.05644189 -0.04450406 0.0095772315
000140 4d 83 54 bc cd 6f 6b 3c 56 a2 91 3d 30 d3 39 3b
       -0.012970758 0.014369917 0.07111041 0.0028354637
000150 c5 5a 2d bd 9d 22 2c bc 5d a1 b6 bd 96 79 6e 3b
       -0.042322893 -0.010506299 -0.08917496 0.0036388389
000160 bc af ff bc 96 45 30 3d 8d a8 a3 3d 62 b8 ce 3b
       -0.031211726 0.043035112 0.07991133 0.0063086012
000170 0c a2 31 bd f1 43 53 3d bb 42 85 bd db 52 ca bc
       -0.04336743 0.051578466 -0.065068685 -0.024697712
000180 a6 58 08 3b 2f 10 26 3d af 59 b5 3d 56 a7 d9 bb
       0.0020804792 0.040542778 0.088549964 -0.0066422625
000190 9c 48 25 bd 0e cb af 3c 40 26 14 bd 06 cb 4b bc
       -0.04035245 0.021459129 -0.03616929 -0.012438541
0001a0 bb 28 c5 3b 1e 35 95 3c 79 1c 99 3d f5 63 a1 bc
       0.0060168183 0.018213805 0.07476134 -0.019700984
0001b0 ca 76 30 bd d2 b7 05 bd bf e5 76 bd 03 cc 9e 3b
       -0.043082036 -0.032646008 -0.060277697 0.0048460974
0001c0 7c c3 19 bc 55 0b 09 3d cb 86 81 3d 91 98 b5 3c
       -0.009384986 0.033458073 0.06324538 0.022167476
0001d0 8e 97 85 bd c0 15 ea 3b 95 91 e6 bd 67 2a b9 bb
       -0.065230474 0.007143706 -0.11258236 -0.0056508067
0001e0 30 25 8e 3c a8 39 36 3d 4b 01 a9 3d af 05 db bb
       0.017351717 0.04448858 0.082522 -0.006684027
0001f0 b5 7f 19 bd 29 b2 7c bb 82 93 a4 bc 24 93 0d bd
       -0.037475307 -0.003855834 -0.020089868 -0.034564152
000200 dd f3 0b 3d 9b 6f 3d 3c 6f ec 6a 3d 21 e3 d5 bb
       0.034168113 0.011562253 0.057354387 -0.00652732
000210 df 62 63 bd 78 8e ad bd 27 3e 6d bd 79 96 ab ba
       -0.055514213 -0.084744394 -0.0579206 -0.0013091109
000220 78 6b e2 3c f8 31 08 3d c8 cf 42 3d 6f bd 4b 3c
       0.027639136 0.03325078 0.047561437 0.012435301
000230 c9 8a 1a bd c5 74 85 bc 9d 3e 86 bd f4 0f 51 bb
       -0.037730012 -0.016291032 -0.06554911 -0.0031900378
000240 64 8f 02 bb eb 38 14 3d 52 5b cf 3c f7 3c 3f 3c
       -0.0019921893 0.036187094 0.0253121 0.01167225
000250 b4 07 81 bd bf a5 1a 3d 46 f4 8b bd 21 59 ed bb
       -0.063002974 0.037755724 -0.06833701 -0.007243291
000260 8a 91 36 3c f6 98 e5 3c 09 42 3f 3d 88 34 28 3b
       0.011143098 0.028027039 0.046693835 0.0025666077
000270 db 3e 28 bd f7 59 02 b9 3f 67 af bc b9 6e 37 bc
       -0.04107557 -0.0001243128 -0.021411536 -0.011195832
000280 ac 0b 48 3c a5 55 18 3c 7e 57 d4 3c 14 b9 14 3d
       0.012209814 0.009297763 0.025920626 0.036309317
000290 92 f7 64 bd 30 b8 91 3c 13 1f 81 bd 53 0a 0c bc
       -0.055900164 0.017788023 -0.06304755 -0.008547383
0002a0 bd 2b cf 3c 2a 9a 09 3d d4 b2 1f bb 68 9e ce 3b
       0.02528941 0.033594288 -0.0024368064 0.0063055046
0002b0 d1 0c d4 bc 7f e0 d4 3c 3f 30 6c 3a 0a 58 d7 bc
       -0.025885018 0.025985954 0.0009009875 -0.026287097
0002c0 d5 7d 9a 3c ba 84 e5 3b bb 94 d1 3a 9d 27 ba bc
       0.01885883 0.0070043476 0.001598976 -0.022723967
0002d0 36 49 22 bd d5 cb 21 bd 11 1c 8b bc 93 89 00 ba
       -0.0396206 -0.03950103 -0.016981157 -0.00049033127
0002e0 f0 68 f2 3c 94 e2 8e 3b 43 67 de bc de 85 91 3c
       0.029591054 0.0043605063 -0.027148848 0.017764028
0002f0 49 02 7a bc 58 3d 96 bc 1d ac 09 bd b2 07 58 3b
       -0.015259334 -0.018339798 -0.033611406 0.003296357
000300 b8 a1 92 3c d4 07 2a 3c ca 22 4a bd d1 ae 56 3b
       0.01789938 0.010377843 -0.049349584 0.0032758007
000310 a5 b4 b7 bc fc e8 24 3b 02 66 38 bc 59 73 44 bc
       -0.022425005 0.0025163284 -0.011254789 -0.011990392
000320 b5 6f e4 3b e5 30 89 3a 3b 18 3e bd 87 11 44 3c
       0.0069713243 0.0010466842 -0.046409827 0.0119670695
000330 97 90 3c bb 68 c3 09 bc da e6 26 3c e0 99 6b bb
       -0.0028772706 -0.008408405 0.010186875 -0.003594987
000340 8b e3 30 3d d8 4a 81 bc 50 5f 2c bd 84 63 58 3c
       0.043185752 -0.015782759 -0.042083085 0.01320732
000350 c0 0d 93 bc ee 8a 5c 3a b1 a7 c1 3c 5b c0 87 bc
       -0.017950892 0.0008413036 0.023639532 -0.016571214
000360 2c 6d 28 3d b8 a8 f4 bc 1e 1d 95 bd 30 c0 c4 3c
       0.04111974 -0.029865608 -0.07280944 0.024017423
000370 e5 23 da 3c 61 06 aa bc 18 46 2f 3d 85 bf e7 ba
       0.026628444 -0.020754995 0.042791456 -0.0017680979
000380 6b 31 a9 3c 8f 53 e5 bc 05 fb ac bd e5 5a 07 3d
       0.020653447 -0.027993945 -0.08446316 0.03304567
000390 fc 5c fd 3b 53 ec ef 3a df 33 d9 3c 93 fa fa bc
       0.007732032 0.0018304683 0.026513992 -0.030637061
0003a0 a7 c0 53 3d 5c ec 97 bc 3b 85 ba bd 83 d0 99 3c
       0.0516974 -0.018545322 -0.09107443 0.018776184
0003b0 6d 09 9d 3d 77 ab 62 3d 91 a2 e1 3d 78 94 4e bd
       0.076678135 0.055339303 0.11017335 -0.05043456
0003c0 ed bb af 3a 3e 43 7a bd f1 bf de bd a5 78 44 3d
       0.0013407447 -0.061099283 -0.10876454 0.047966618
0003d0 64 05 22 3c 76 18 16 bd 41 c3 8c 3d 8b 36 23 3c
       0.009888981 -0.03664442 0.06873179 0.0099617345
0003e0 89 5f 56 bd 19 21 6a bd 67 e2 f2 bd 05 c8 56 3b
       -0.052337203 -0.05716047 -0.11859589 0.003277303
0003f0 15 8d 2d 3d 31 a7 89 bd 7a 56 1e 3e 33 82 79 3c
       0.042370874 -0.06721342 0.15462676 0.015228796

fc.bias f4 [2]
000000 d3 9b ca 3a 14 c7 47 bd
       0.0015457816 -0.04877384
