model/checkpoint/train_sparse_feedback_dict_batch250_epoch_300\250_loss123_2.pt (torch, 4899 bytes, 10 tensors)

rnn.weight_ih_l0 f4 [8, 3]
0	0xbc1d180a	-0.009588251
1	0x3e7abf27	0.24486981
2	0x3eaa3fe5	0.33251873
3	0xbb87273e	-0.004124551
4	0xbec88966	-0.39167327
5	0x3eedc422	0.464387
6	0x3da4324e	0.08017407
7	0x3f030340	0.51176834
8	0x3ee64bcf	0.44979712
9	0xbd689225	-0.05678
10	0x3f0748ad	0.5284527
11	0xbeb08510	-0.3447652
12	0xbb7ee9ae	-0.0038896608
13	0xbeed65fd	-0.46366873
14	0xbec4445d	-0.38333407
15	0x3d452bcc	0.04813747
16	0xbe72f78e	-0.23727247
17	0x3f212596	0.62947977
18	0x3b92d9e0	0.004481539
19	0xbeb3e223	-0.35133466
20	0xbe2c809a	-0.16845933
21	0x3cf9eaa5	0.030507395
22	0xbe62421f	-0.22095536
23	0x3de0e3cd	0.109809496

rnn.weight_hh_l0 f4 [8, 8]
0	0xbe70fac5	-0.23533161
1	0x3dfcc200	0.1234169
2	0xbe8ad81c	-0.27118003
3	0x3e2a6f28	0.16643965
4	0x3ed75bae	0.42062134
5	0x3e4d6522	0.2005811
6	0x3e115280	0.14191628
7	0xbd93a01e	-0.07208274
8	0xbeb5c2a2	-0.35500056
9	0x3dc19194	0.09451595
10	0x3d90bc99	0.07067222
11	0x3dea9f38	0.1145615
12	0x3efce608	0.4939425
13	0xbcbcc068	-0.023040965
14	0x3e17eb6c	0.148359
15	0x3bd2a871	0.006428771
16	0x3e8565c5	0.26054206
17	0xbe011119	-0.12604178
18	0x3edb0cb9	0.42783144
19	0x3dfa9777	0.12235921
20	0x3e5e08d3	0.21683054
21	0xbe382c4b	-0.17985646
22	0xbe00269b	-0.12514727
23	0x3e346f73	0.1762064
24	0xbe2916e7	-0.16512643
25	0xbec99a0e	-0.39375347
26	0x3d591653	0.052999806
27	0xbe4b96e7	-0.19881783
28	0xbd1a837d	-0.037723053
29	0xbd1a951f	-0.03773987
30	0xbe4cb974	-0.1999262
31	0x3dbed403	0.09317782
32	0x3c91b9ee	0.017788853
33	0x3d9871e2	0.074435964
34	0xbb6e7ae7	-0.0036389173
35	0xbe52f612	-0.20601681
36	0x3d76be12	0.06023986
37	0xbdd682eb	-0.10474189
38	0xbdb9b0bb	-0.09066912
39	0x3e646fef	0.22308324
40	0x3e3364b4	0.17518884
41	0x3e77c250	0.24195218
42	0x3e9b54dd	0.30338183
43	0xb9132e31	-0.0001403622
44	0xbe02a2a2	-0.12757352
45	0xbe9633ee	-0.29336494
46	0x3ec4f434	0.38467562
47	0xbdfa5c54	-0.122246414
48	0x3d816431	0.06317938
49	0xbecf3154	-0.40467322
50	0x3eac495e	0.33649725
51	0xbe35c815	-0.17752106
52	0x3dad2fca	0.08456381
53	0xbe64bc06	-0.2233735
54	0x3e0233b0	0.1271503
55	0xbdc7b9e3	-0.09752252
56	0x3e92aa62	0.28645617
57	0x3e48818b	0.19580667
58	0xbe325355	-0.17414601
59	0x3e4ceec2	0.20012954
60	0xbdfc1512	-0.12308706
61	0x3e52e8e9	0.2059666
62	0x3df83be8	0.12120801
63	0xbd616906	-0.0550318

rnn.bias_ih_l0 f4 [8]
0	0xbce61d97	-0.028090281
1	0xbe4973b8	-0.1967305
2	0xbf1681bc	-0.5879171
3	0xbdd27fff	-0.102783196
4	0xbed18441	-0.40921214
5	0xbe66ba4c	-0.22532004
6	0xbd5a0b12	-0.053233214
7	0xbed19275	-0.4093205

rnn.bias_hh_l0 f4 [8]
0	0x3e1d704f	0.15374874
1	0xbe69a6a7	-0.22817479
2	0xbe1b3300	-0.15156174
3	0x3e528a06	0.20560464
4	0xbe9b8b78	-0.30379844
5	0x3df2361e	0.11826728
6	0xbdd51c14	-0.10405746
7	0xbec1f9c0	-0.37885857

rnn.weight_ih_l1 f4 [8, 8]
0	0xbdd23dbc	-0.10265681
1	0xbd89d864	-0.06730726
2	0x3e2be052	0.1678479
3	0xbe7721db	-0.24134009
4	0xbe97f254	-0.2967707
5	0x3ca57823	0.020198887
6	0xbd388ee9	-0.045058165
7	0x3d4930ee	0.04911893
8	0xbc203d9e	-0.009780316
9	0xbec127e4	-0.37725747
10	0x3c858e5f	0.01630324
11	0x3d50a83f	0.050941702
12	0xbeeaa4f8	-0.45828986
13	0x3bb3b85b	0.0054846234
14	0x3e33e149	0.17566408
15	0x3da6c0dd	0.081422545
16	0xbd95033a	-0.07276006
17	0xbe731a18	-0.23740423
18	0xbebbd008	-0.36682153
19	0x3e646d03	0.2230721
20	0xbe102f7c	-0.14080614
21	0xbea850c2	-0.32874113
22	0x3e2bdc06	0.16783151
23	0xbd2d6a55	-0.042337734
24	0x3d6c5ec4	0.057707563
25	0x3e84a233	0.25904998
26	0xbd94453b	-0.07239767
27	0x3e19f29f	0.15033959
28	0x3e73ba62	0.23801568
29	0x3e852343	0.26003465
30	0x3e28d008	0.16485608
31	0xbe4d03c4	-0.20020968
32	0x3e167c82	0.14695933
33	0xbec32b91	-0.38119176
34	0xbd38fa0b	-0.045160335
35	0x3e5a31aa	0.21308008
36	0xbe82d5d5	-0.25553766
37	0x3e2e1618	0.17000616
38	0xbe8b6a93	-0.27229747
39	0xbe21a2fd	-0.15784831
40	0xbb94d9cc	-0.004542565
41	0x3d58d292	0.05293519
42	0xbc28e0d6	-0.010307511
43	0xbe8d495f	-0.2759504
44	0xbe09319b	-0.13397829
45	0xbe0a2b17	-0.13493
46	0x3ced0367	0.028932286
47	0xbe2a63f9	-0.16639699
48	0x3e0e3d20	0.13890505
49	0x3f0be36b	0.5464389
50	0x3d69ce4d	0.05708151
51	0xbddd1c0b	-0.107963644
52	0x3e3074ac	0.17232007
53	0x3c8e3a92	0.017361913
54	0x3e1ea18e	0.15491316
55	0x3c0f52c9	0.008747765
56	0xbe4fbe24	-0.20287377
57	0x3e01144f	0.12605403
58	0x3d9bc425	0.07605771
59	0xbdc7419e	-0.09729312
60	0xbebbb8a2	-0.366643
61	0xbe929312	-0.2862783
62	0xbd39f218	-0.045396894
63	0x3e62123a	0.22077265

rnn.weight_hh_l1 f4 [8, 8]
0	0xbdb18293	-0.08667483
1	0xbed2cd3c	-0.41172206
2	0x3ed27d49	0.4111121
3	0x3e853404	0.26016247
4	0x3e9eed92	0.31040627
5	0x3f1c6bda	0.6110207
6	0xbe36cb78	-0.17851055
7	0xbe710d66	-0.23540267
8	0x3c861042	0.016365174
9	0xbe8db66b	-0.27678236
10	0xbd9352ae	-0.07193504
11	0x3ecae340	0.39626503
12	0xbcbdbe54	-0.023162045
13	0x3d45a4a3	0.048252713
14	0xbe50ab59	-0.20377864
15	0x3e2656bc	0.16244024
16	0x3cd300a4	0.025757141
17	0x3eb05b23	0.34444532
18	0xbe976a7c	-0.2957343
19	0xbc43ad8e	-0.011943234
20	0xbda75dfd	-0.08172224
21	0xbe7b3656	-0.24532446
22	0x3de53398	0.11191481
23	0x3e3a2518	0.18178213
24	0x3e016422	0.12635854
25	0x3e31c14b	0.17358892
26	0xbd2f4240	-0.04278779
27	0xbec19411	-0.37808278
28	0x3edbc51b	0.42923817
29	0x3dd09fff	0.10186767
30	0x3c5bfaf8	0.013426535
31	0xbe89c1aa	-0.26905566
32	0xbd4a5ba6	-0.04940381
33	0xbdb0b2db	-0.08627864
34	0xbcfc44f4	-0.030794598
35	0xbe8688d9	-0.2627628
36	0xbf44d12d	-0.76881677
37	0xbe1f50e5	-0.15558203
38	0x3cc7208e	0.024307515
39	0xbe8ede70	-0.2790408
40	0xbe216ab1	-0.15763356
41	0x3e2a76a8	0.16646826
42	0xbd457f74	-0.048217252
43	0xbe8a7bb3	-0.270475
44	0xbe042409	-0.12904371
45	0xbf1dd180	-0.61647797
46	0x3e2f7746	0.17135343
47	0x3de074e5	0.10959796
48	0x3df1e6d0	0.11811602
49	0x3f0d6e4d	0.5524643
50	0x3e8f4b3c	0.27987087
51	0xbddb69cb	-0.10713538
52	0x3e71c437	0.23610006
53	0xbe038306	-0.1284295
54	0xbe73c177	-0.2380427
55	0xbd27ac7e	-0.040935986
56	0x3d9cc594	0.076548725
57	0xbe8ff5d3	-0.28117236
58	0x3c03dc60	0.008048147
59	0x3e15d3ac	0.14631528
60	0xbe32156b	-0.17390983
61	0x3e51c1fd	0.20484157
62	0xbe247fde	-0.16064402
63	0xbf103e10	-0.563447

rnn.bias_ih_l1 f4 [8]
0	0x3e3e6f16	0.18597063
1	0xbcb787e7	-0.02240367
2	0xbdddc345	-0.1082826
3	0x3e0fdde1	0.14049484
4	0xbcf4697f	-0.02983546
5	0xbeae22b5	-0.34010854
6	0xbdabd0c0	-0.08389425
7	0xbd836780	-0.064162254

rnn.bias_hh_l1 f4 [8]
0	0xbe0b2ae9	-0.13590588
1	0x3dfbcb72	0.122946635
2	0xbdc84614	-0.09778991
3	0xbe842767	-0.25811312
4	0x3e179bd5	0.14805539
5	0x3e054544	0.13014704
6	0xbbd471bd	-0.006483285
7	0x3e2dcf69	0.16973652

fc.weight f4 [2, 256]
0	0xbce8916b	-0.028389653
1	0xbac18fad	-0.001476755
2	0x3c8311e8	0.01599975
3	0x3d489eee	0.048979692
4	0xbe02bb98	-0.12766874
5	0xbd83c14b	-0.06433352
6	0x3d7daa04	0.061929718
7	0xbd78c1ea	-0.060731806
8	0xbba61f9b	-0.0050696856
9	0xbd212dea	-0.039350428
10	0xbc996fb5	-0.018730024
11	0x3d42be74	0.04754491
12	0x3c8a93b9	0.016916143
13	0xbad6968b	-0.001637177
14	0x3c5e4f30	0.013568684
15	0xbc205536	-0.009785941
16	0x3c9d3238	0.019188985
17	0xbcdc5ef6	-0.02690075
18	0x3c44d416	0.012013456
19	0x3d4c5ffa	0.049896218
20	0xbca6e6f6	-0.020373803
21	0xbd3ca6ee	-0.046057634
22	0x3d0bcd38	0.03413126
23	0xbcb17f71	-0.021667214
24	0x3c6f28fd	0.014597175
25	0xbda026fb	-0.07819935
26	0xbc478262	-0.012177082
27	0x3d3fbfbf	0.046813723
28	0xbc8fe5cb	-0.017565629
29	0xbc618d73	-0.013766634
30	0x3c06dc21	0.008231194
31	0xbc451da8	-0.012030996
32	0x3cd4720b	0.025933286
33	0x3cd9b8c3	0.026577359
34	0x3d09d869	0.03365365
35	0x3d1313ab	0.03590743
36	0x3c795fee	0.015220625
37	0xbc5f2593	-0.013619798
38	0x3d1c2af7	0.038126912
39	0xbc003be2	-0.007826777
40	0x3b81d740	0.0039624274
41	0xbd169607	-0.03676417
42	0xbc211c6c	-0.009833436
43	0x3d5f8052	0.054565735
44	0x3bbf34b4	0.00583514
45	0xbc43ac32	-0.01194291
46	0xbc746de8	-0.014918782
47	0x3d188a74	0.037241414
48	0x3ced34cd	0.028955841
49	0xbd10808e	-0.03527885
50	0x3c19c18e	0.009384526
51	0x3cb3c9ff	0.021946905
52	0x3d10d358	0.035357803
53	0xbc3eb8d6	-0.011640748
54	0x3c454e99	0.012042665
55	0x3aa518bc	0.0012595872
56	0x3c474a29	0.012163677
57	0xbd00cfb1	-0.03144807
58	0x3b93586d	0.004496625
59	0xbaa60890	-0.0012667347
60	0x3d26ab5b	0.04069076
61	0xbbc8dd7e	-0.0061299196
62	0x3cdab5cb	0.026698014
63	0xbbffdbc9	-0.007808183
64	0x3c3e60e3	0.011619779
65	0xbb269ebe	-0.0025424208
66	0xbb1ca739	-0.0023903383
67	0xbb440ba4	-0.0029914165
68	0x3ce15986	0.027508508
69	0xbc5a0753	-0.01330741
70	0x3cb7c7bb	0.022434106
71	0xbc7a11a7	-0.015262998
72	0x3cff7bf7	0.03118704
73	0xbbec4657	-0.0072105336
74	0x3cc71e44	0.024306424
75	0xbc92b951	-0.017910631
76	0x3d50a499	0.050938223
77	0xbc9077ea	-0.017635304
78	0x3d119adf	0.035548087
79	0x3b91c9cc	0.004449105
80	0x3c886392	0.016649041
81	0x3c831a16	0.01600365
82	0xbc2bb542	-0.010480227
83	0x3c29d3f4	0.010365475
84	0x3d81f9d7	0.06346481
85	0x3c990a77	0.018681748
86	0x3c57a3af	0.013161584
87	0x3c67857a	0.014130944
88	0x3d335bb4	0.043788627
89	0x3c8fb085	0.017540226
90	0x3d35471e	0.044257276
91	0xbd3ea2f1	-0.04654211
92	0x3d6c0f11	0.057631556
93	0xbc92145f	-0.01783198
94	0x3d6052d4	0.05476649
95	0xbcef6780	-0.029224157
96	0x3a36c722	0.0006972422
97	0x3d61b7f8	0.055107087
98	0xbb40839e	-0.0029375325
99	0x3b418c58	0.0029533114
100	0x3d6ddc44	0.05807139
101	0x3abec6f1	0.0014555139
102	0xbc2ccb5a	-0.01054653
103	0x3d7c42f3	0.061587285
104	0x3d444551	0.047917668
105	0x3b9921d9	0.0046732244
106	0x3c9eb9e4	0.019375749
107	0xbb9e6c80	-0.0048347116
108	0x3db0fdb2	0.086421385
109	0x3c8bf189	0.017082946
110	0xbb55366d	-0.003253366
111	0x3cac085f	0.021000085
112	0x3c7dbc7d	0.015486834
113	0x3d82c981	0.0638609
114	0x3c97211b	0.018448403
115	0xbd640433	-0.055668067
116	0x3d9cb781	0.07652188
117	0xbc0fe1c9	-0.008781859
118	0x3cd37e95	0.025817195
119	0x3c84019d	0.01611405
120	0x3cf7bd48	0.030241624
121	0x3cca6625	0.02470691
122	0x3c7d515a	0.01546129
123	0xbc8141df	-0.01577848
124	0x3dbae5f9	0.09125895
125	0x3ce7a5bc	0.02827727
126	0xbc859eb3	-0.016311025
127	0x3d2536db	0.040335517
128	0x3bd22fe1	0.006414399
129	0x3d86ba94	0.06578556
130	0x3be0f685	0.006865325
131	0xbd851df2	-0.06499852
132	0x3dc74630	0.09730184
133	0x3c00e5ec	0.007867318
134	0x3ca852f8	0.020547375
135	0x3cffaa05	0.031209001
136	0x3cffed1d	0.031240994
137	0x3d154f84	0.036452785
138	0x3c86c461	0.016451063
139	0xbd1760f4	-0.036957696
140	0x3dc16628	0.09443313
141	0x3caf6c08	0.021413818
142	0x3ac3c544	0.0014936109
143	0x3cbfaed2	0.02339879
144	0x3c2993ae	0.010350151
145	0x3da18b25	0.07887868
146	0x3c9bdd1c	0.019026332
147	0xbd766166	-0.06015148
148	0x3db85647	0.09000831
149	0xbb146f48	-0.0022649337
150	0x3c54fa14	0.012999076
151	0x3d0e4378	0.034732312
152	0x3cd49847	0.025951518
153	0x3d297dc3	0.0413797
154	0x3be03f04	0.0068434495
155	0xbb1938b3	-0.0023379743
156	0x3dcfe447	0.10150962
157	0x3d139df2	0.0360393
158	0xbd0c80c0	-0.034302473
159	0x3d4d7505	0.050160427
160	0x3c6ef606	0.014585024
161	0x3dbf172c	0.093305916
162	0x3ccedaa7	0.025250746
163	0xbd150bf6	-0.03638836
164	0x3db9cef3	0.090726756
165	0xbbdd4765	-0.0067528957
166	0xbc1882d7	-0.009308538
167	0x3d65cfb4	0.056106284
168	0x3ca2777b	0.019832363
169	0x3cdb28be	0.026752826
170	0xbbc79d44	-0.0060917456
171	0x3cd44797	0.025913043
172	0x3dc2e733	0.09516754
173	0x3d0641a8	0.03277746
174	0xbd97d075	-0.07412807
175	0x3dc502d1	0.09619678
176	0x3cba01b3	0.022705888
177	0x3d313126	0.043259762
178	0x3b50826c	0.0031816019
179	0xbd514094	-0.051086977
180	0x3dd67517	0.10471552
181	0x3c4b50f5	0.012409438
182	0xbb602b4b	-0.0034205492
183	0x3cc6dfff	0.024276732
184	0x3cf6069c	0.030032448
185	0x3d826ad3	0.06368031
186	0x3cd7133a	0.026254285
187	0xbcb7b8b7	-0.022426946
188	0x3da7d222	0.081943765
189	0xbb3d2585	-0.0028861475
190	0xbca14a1e	-0.019688662
191	0x3d26279d	0.040565122
192	0x3c413d2e	0.0117943715
193	0x3cdbfd33	0.026854133
194	0xbb24c4a1	-0.0025141614
195	0x3bd31f2f	0.0064429264
196	0x3d9fdcd0	0.078057885
197	0x3bdddc71	0.0067706634
198	0xbd82b2f0	-0.06381786
199	0x3da41677	0.08012097
200	0x3cae0620	0.021243155
201	0x3d36b184	0.044602886
202	0x3c27c6a5	0.010240232
203	0x3c9934d4	0.018701948
204	0x3dbff94e	0.09373723
205	0x3c886cd5	0.016653458
206	0xbd67be9d	-0.056578267
207	0x3db2b03f	0.087250225
208	0x3bb461fc	0.0055048447
209	0xbc6094e7	-0.013707376
210	0xbc34a3ab	-0.01102535
211	0x3b8c55c2	0.004282684
212	0x3d93e900	0.072221756
213	0x3c84b640	0.016200185
214	0xbd4e6c52	-0.05039627
215	0x3d5f409e	0.054504983
216	0x3a94d5cc	0.001135522
217	0x3c4d8720	0.012544423
218	0x3ab61e07	0.0013894447
219	0xbc67ff5a	-0.014160002
220	0x3da2d29c	0.07950327
221	0x3c8710fc	0.016487591
222	0xbc7cfa34	-0.015440512
223	0x3cade132	0.021225546
224	0xbbbf8df0	-0.0058457777
225	0xbbf28262	-0.0074007967
226	0xbb586a9c	-0.0033022529
227	0xbc33d985	-0.010977154
228	0x3d49cfd2	0.04927046
229	0x3c9888d2	0.018619929
230	0xbcacbf9e	-0.021087464
231	0xbb88e2cb	-0.0041774265
232	0xbce057c7	-0.027385605
233	0x3b524f9e	0.0032090913
234	0xba489a39	-0.00076523755
235	0x3ca357aa	0.019939262
236	0x3d8c6a2a	0.06856187
237	0x3d122fb2	0.035690017
238	0xbcc63005	-0.02419282
239	0x3d51c107	0.051209476
240	0xbceb99cd	-0.028759861
241	0x3b75a47c	0.0037482074
242	0xbcf622bd	-0.030045861
243	0x3d69460e	0.056951575
244	0x3d9874e0	0.07444167
245	0x3d67b363	0.05656756
246	0xbd09c65e	-0.033636443
247	0x3d1568ff	0.036477085
248	0xbcbfdd92	-0.023421083
249	0xbda1f19a	-0.0790741
250	0xbc908d5e	-0.017645534
251	0xbd172d9c	-0.03690873
252	0xbd65f23f	-0.056139227
253	0xbd61511f	-0.055009004
254	0x3c2005ba	0.00976699
255	0xbd3415e0	-0.043966174

fc.bias f4 [2]
0	0x3c0f12aa	0.008732477
1	0xbcfe4f49	-0.031043665
