model/checkpoint/train_sparse_feedback_dict_batch250_epoch_300\130_loss123.pt (torch, 4899 bytes, 10 tensors)

rnn.weight_ih_l0 f4 [8, 3]
000000 d1 56 0b bd 2a 3c 1c 3f 6e 10 a9 be ff 91 5b 3d
       -0.03401834 0.61029303 -0.33020347 0.05360603
000010 a9 26 d3 3d 39 ea 38 bf 5f 83 f9 3c 34 88 f3 3e
       0.10310108 -0.72232395 0.03045815 0.47564852
000020 bd 2e 62 bd c6 c0 5d 3d 49 a5 3f 3e 9e 60 59 3e
       -0.055220354 0.05413892 0.18715395 0.21228263
000030 9e 18 01 3c 53 35 1d 3e 6e 25 8e 3e 75 97 f0 3b
       0.007879404 0.15352373 0.27762932 0.007342274
000040 ed d0 e9 3e d2 c0 93 3e 92 92 fa bc 35 4e fd 3d
       0.4566721 0.28858048 -0.030587468 0.123684324
000050 03 35 44 bf af c4 fc 3d af a3 66 be 6b ee 28 be
       -0.7664339 0.12342202 -0.22523378 -0.16497199

rnn.weight_hh_l0 f4 [8, 8]
000000 2d 48 95 be ab b5 51 3d 84 8c 62 bd c6 35 da 3e
       -0.29156628 0.051198643 -0.055309787 0.4261915
000010 38 47 4e be aa 8e d4 3d 77 3c a6 be 6f 8b d1 bd
       -0.20144355 0.103787735 -0.32468006 -0.10231673
000020 9d f0 94 3e 26 d5 b6 be 61 37 17 be 29 00 66 be
       0.29089823 -0.35709494 -0.14767219 -0.22460999
000030 70 81 1e 3e cd f0 83 be 7d 46 2a 3d 19 77 f0 3d
       0.15479064 -0.25769654 0.04157113 0.11741466
000040 6e 70 e4 3e ec 60 7c be 9d 72 2d 3e c6 31 8d 3d
       0.44617027 -0.24646348 0.16938253 0.06894259
000050 37 57 4d bd e9 30 9d 3e 07 5c 71 3d 7e 02 84 bc
       -0.050132003 0.30701378 0.058925655 -0.01611447
000060 af 02 79 3e 01 7a 0b be bd 83 ad be 47 bb b6 be
       0.2431743 -0.1362076 -0.3388957 -0.35689756
000070 ed 1e a0 bb b0 15 d6 3d eb c8 a2 be c4 38 28 be
       -0.004886499 0.10453355 -0.31793913 -0.16427904
000080 19 63 b2 be 2c b7 bb bb 98 dd 5e bd 5f 02 0e bf
       -0.3484123 -0.005728623 -0.054410547 -0.5547237
000090 df 98 4b 3e bd dc 14 bf 2b 52 27 3d 7a 3f 75 3d
       0.19882534 -0.5814932 0.040849846 0.05987499
0000a0 31 87 b3 bd 62 c8 ec bd 53 7e b7 be 9f d7 1c 3e
       -0.0876602 -0.115616575 -0.35838565 0.15316628
0000b0 43 53 6c 3e a7 02 c3 be f8 64 3c be 06 89 b3 bd
       0.23078637 -0.3808796 -0.18397892 -0.087663695
0000c0 d2 d9 e7 3d 5f 57 a6 be a2 06 8a 3d 25 f3 02 bd
       0.11320843 -0.32488534 0.06739546 -0.031970162
0000d0 ca 47 4e be 6c 88 ba 3e 03 4a 92 be 04 23 43 3e
       -0.20144573 0.36432207 -0.2857209 0.19056326
0000e0 e5 ee b0 3e ce 8c d4 bc 60 e4 22 bd 2e 14 62 be
       0.34557262 -0.025946047 -0.039768577 -0.2207801
0000f0 dd d0 fa bd f7 41 75 3e 4b 02 73 3c 0a be 0c be
       -0.12246869 0.23950945 0.01483209 -0.13744369

rnn.bias_ih_l0 f4 [8]
000000 ce a7 8a 3e 02 d1 a3 be d6 49 81 3d 77 26 dd 3e
       0.2708115 -0.31995398 0.06312911 0.4319341
000010 21 8f 5c be 03 3a 90 3e 6e 59 48 be f6 55 86 3e
       -0.21538974 0.2816926 -0.19565365 0.26237458

rnn.bias_hh_l0 f4 [8]
000000 a6 7e 31 3e 1a b9 d2 bd 47 9f d9 3e e2 63 77 3e
       0.17333469 -0.102892116 0.4250433 0.24159196
000010 5c 48 dc 3e 4f c7 41 3c df 9a 8c bd 10 28 23 3e
       0.43023956 0.011827304 -0.06865477 0.15933251

rnn.weight_ih_l1 f4 [8, 8]
000000 c8 37 e0 bc 8e 2d 36 3e 8d d2 08 3d 1f 00 bf 3e
       -0.027370349 0.17790815 0.033403922 0.3730478
000010 e3 ee 56 3d b9 05 ac bc be be 98 3e 0c 0b 2d be
       0.052473914 -0.020998823 0.29833025 -0.16898745
000020 e8 30 aa 3d b2 17 86 3c c1 ef 4b bc 74 c8 1c 3e
       0.083101094 0.01636872 -0.0124472985 0.15310842
000030 e9 8b 39 3e 3e d6 20 be 8e c5 9e bc 35 04 44 bd
       0.18119778 -0.15706727 -0.01938131 -0.047855575
000040 ad 13 ab bd b7 c1 ea 3d 17 e6 55 be 16 18 a2 3e
       -0.08353362 0.114627294 -0.20888554 0.31659
000050 68 eb 68 3e c0 f8 58 be 31 a7 53 3e c8 21 86 bd
       0.2274605 -0.2118864 0.20669247 -0.06549412
000060 19 e5 8d be 78 fe 82 3d 30 c3 80 3e a0 cc 30 be
       -0.2771385 0.06396192 0.25148916 -0.17265558
000070 bc d4 11 be ec 7c 78 be 8f d7 0a 3e fa 8c 45 bd
       -0.14241308 -0.24266404 0.13558792 -0.04823015
000080 e9 9b 8a be 3a 72 42 3e 2f f8 9b be e8 8f 3b bd
       -0.27072075 0.18988886 -0.30462787 -0.045791537
000090 e5 cc f9 bd f6 77 45 be d9 e8 04 be 60 d6 94 bd
       -0.12197284 -0.19284043 -0.1297945 -0.07267451
0000a0 02 c9 e1 3e 75 80 98 3d 30 0f ac 3e 14 41 67 bd
       0.4409867 0.07446376 0.33605337 -0.056458548
0000b0 6b 37 82 3e 45 02 b2 3d c1 8a 85 bd da 55 49 bd
       0.25432906 0.08691839 -0.06520606 -0.04915414
0000c0 cb cc 75 be d7 11 07 be f6 be 26 be 38 18 25 3e
       -0.24003904 -0.13190399 -0.16283783 0.1612252
0000d0 60 e7 e8 3c 2a 53 3b 3e de 56 a4 be fc 2b ef bd
       0.02843064 0.18293443 -0.32097524 -0.11678311
0000e0 ff c7 a2 bc bb 22 ee 3d 8c fc 5a bc 37 c9 0d be
       -0.019870756 0.11627718 -0.013365876 -0.13846289
0000f0 34 36 b2 3d e0 5d 20 be d4 30 59 3e 02 00 a8 3d
       0.08701745 -0.1566081 0.21210033 0.082031265

rnn.weight_hh_l1 f4 [8, 8]
000000 22 b9 43 bd ad 02 72 be 7d ca 0c be 5b f9 3f 3e
       -0.04778398 -0.23633833 -0.13749118 0.18747465
000010 ab 26 8d be 28 21 85 3d d9 2c a6 3e 5e 65 d8 3d
       -0.27568564 0.06500465 0.3245609 0.10566209
000020 4e 9a 6f 3e 75 13 1e bf 0e 1f 8e 3d 4a 1e 9c 3d
       0.23398706 -0.6174844 0.06939517 0.07622965
000030 15 c9 96 be 28 69 47 be 03 fc aa 3d cb 1a 9f 3d
       -0.29450288 -0.19473708 0.08348849 0.07768782
000040 ef 47 f2 3d 68 2e e6 3d 2a b0 5d be 77 af b9 3e
       0.118301265 0.1123932 -0.21649233 0.36266682
000050 f4 d2 03 bf e2 1d e0 3d f0 5b fe 3d d4 bb af be
       -0.51493764 0.109432 0.124198794 -0.3432299
000060 84 83 ba be ee 30 dd bc 4a c4 fd 3c ec 11 37 3e
       -0.36428463 -0.02700087 0.030977387 0.1787793
000070 7a 32 79 be 5b 41 f0 3c 49 b5 42 3e 05 9a fc be
       -0.24335662 0.029328039 0.19014467 -0.49336258
000080 a1 31 a8 3d b6 c2 5a 3e 24 15 2a be a6 a5 97 3e
       0.08212591 0.21363339 -0.16609627 0.29618567
000090 fc d4 05 bf 95 f3 1a 3e 26 bb cc 3c 87 79 66 bd
       -0.52278113 0.15131982 0.024991583 -0.05626824
0000a0 21 f0 49 be 1a fb 24 3e 0a 73 21 3e 59 24 d7 be
       -0.19720508 0.16111413 0.1576654 -0.4201992
0000b0 f3 67 98 3e 4c 9b ae be a0 86 84 3e 75 1b b2 3d
       0.29766807 -0.34102857 0.2588396 0.08696643
0000c0 41 ab a3 bd 61 04 ef 3d 06 24 3a be 72 99 17 3e
       -0.079916485 0.11670757 -0.18177804 0.14804628
0000d0 63 cb 01 3e 5a eb c7 be 0f 6d ce 3d 3f 94 ee 3e
       0.12675242 -0.39046746 0.10079395 0.46597478
0000e0 aa 7e a0 3d 45 92 bb 3d fe ed c0 3d 04 bc dc 3e
       0.07836659 0.09158758 0.094203934 0.43112195
0000f0 b4 6a bd bc 55 f7 5e be 90 d1 a0 3e 0c cb 00 3e
       -0.02312217 -0.21774037 0.31409883 0.12577456

rnn.bias_ih_l1 f4 [8]
000000 a3 99 ee bc 98 34 1c be 04 17 04 3d 93 94 99 bd
       -0.029125994 -0.15254438 0.032248512 -0.074990414
000010 bd 9b 84 be e6 d8 30 3e 51 1d 00 be 2e 27 9a 3e
       -0.2590007 0.1727024 -0.12511183 0.30108017

rnn.bias_hh_l1 f4 [8]
000000 32 bd ed 3d 3a 89 03 3e dc 29 03 be 91 9b 41 3e
       0.11608352 0.12845317 -0.12808937 0.18907
000010 b6 15 14 3e be 27 e7 3d cc 4a f8 bd 1d 43 48 be
       0.14461407 0.11286877 -0.12123641 -0.19556852

fc.weight f4 [2, 256]
000000 a4 31 19 bd 5c 30 87 bc 3c d4 66 3c 9d 02 43 bc
       -0.037400857 -0.016502552 0.014088687 -0.0119024785
000010 19 34 80 bc b5 03 33 3d 27 59 98 3d 2c a8 b3 bd
       -0.015649842 0.043704707 0.074388795 -0.087723106
000020 1d ca 38 ba f0 85 d8 bc fd 84 b3 bc 9a c6 45 bd
       -0.000704916 -0.026431054 -0.021914 -0.048285104
000030 5f 18 3d bd 90 fb 13 3d c2 61 38 3d ae 07 7c bd
       -0.04616582 0.03612858 0.045015104 -0.06153076
000040 4c bb f9 bb 4d fd ad 3c d4 0d 44 bd 5b 79 ea bc
       -0.0076212045 0.021238947 -0.04786475 -0.02862232
000050 da 37 28 bd 05 2b 4c 3b d5 d8 9b 3d 6d e0 71 bc
       -0.04106889 0.0031153571 0.07609717 -0.01476298
000060 32 57 cd bc c3 7a 7d bc f7 7a 00 bc 35 ce f3 bb
       -0.025065992 -0.015471163 -0.007841817 -0.0074403533
000070 f1 75 50 bd 25 46 78 3c 29 c0 81 3d 97 26 de bc
       -0.050893728 0.0151534425 0.0633548 -0.02711801
000080 e0 66 9b bb 11 97 bd 3b ca e6 4d bd 92 f6 aa bc
       -0.0047424883 0.005785831 -0.050268926 -0.020869527
000090 3a ad 17 bd 03 25 20 bb 32 3c 8c 3d f5 50 0f bd
       -0.037030436 -0.0024436123 0.06847419 -0.034989316
0000a0 20 7c 1a 3c f4 3d 42 3c 37 84 1f bd f7 df 24 3b
       0.009429008 0.011855591 -0.03894445 0.0025157908
0000b0 ca e7 02 bd 4a 2d df bb 81 4f 7c 3d 8a 9b c5 bc
       -0.031959333 -0.006810819 0.06159926 -0.024122018
0000c0 b2 6d d8 bb fd 4d 7e bd 45 e9 54 3c e4 bf 2b 3d
       -0.0066048736 -0.062086094 0.012995069 0.041931048
0000d0 f5 93 ba bd c4 58 51 3c 33 c5 36 3d 0c 6e 3f bd
       -0.09110252 0.012777511 0.044621658 -0.04673581
0000e0 f7 bf 81 bc 5e 2f b1 bd b8 5a 04 3c 99 c6 e2 3c
       -0.015838606 -0.08651613 0.00807827 0.02768259
0000f0 c2 3d 99 bd 5d c0 ba 3c dc e2 82 3d 40 9c 72 bd
       -0.074824825 0.022796804 0.06390926 -0.059231043
000100 4d 54 ed 3c 0c d0 d7 bc b9 8e 85 bd 56 dd 4a 3c
       0.028970862 -0.026344322 -0.06521363 0.012381872
000110 da e4 2f bd a9 4b d0 bc 83 18 77 3d 20 1c 30 bd
       -0.04294286 -0.025426703 0.06032611 -0.042995572
000120 d0 4b d8 3c a3 cf 7d bc c2 d6 65 bd 51 70 57 3c
       0.026403338 -0.015491399 -0.056113012 0.013149337
000130 c0 63 27 bd 12 be 7d bc 8c b6 2a 3d 95 af 52 bd
       -0.040866613 -0.015487211 0.041677997 -0.05143698
000140 94 e1 7d bc f8 07 53 bc 88 65 05 bc 22 77 46 3d
       -0.015495677 -0.012880318 -0.008141883 0.048453458
000150 9f 5c 91 bd d9 41 87 3b b7 56 3c 3d 45 bd 88 bd
       -0.07097744 0.0041277227 0.045981135 -0.06676725
000160 7d ee 11 3c ff 6b 1c bd 8c c9 22 bd 65 28 20 3d
       0.008906958 -0.03818893 -0.03974299 0.039101023
000170 06 c5 97 bd 33 c7 2d 3c e6 57 2a 3d 5a ec 95 bd
       -0.07410626 0.010606575 0.041587733 -0.07320471
000180 c1 13 a6 3c a9 22 c9 bc 40 48 64 bd e5 d6 0a bc
       0.020273091 -0.02455266 -0.055732965 -0.008474086
000190 8c 9f 89 bd 7e 78 eb 3c b5 ea 04 3d 8a 30 6c bd
       -0.06719884 0.028743979 0.032450397 -0.057663478
0001a0 80 c7 bf bb b5 12 77 3b 18 83 2b bd 0f 3f ee 3c
       -0.0058526397 0.003770036 -0.041873068 0.029082803
0001b0 3a 4e 85 bd cd 05 0e 3d 12 96 2b 3d cf 30 17 bd
       -0.06509061 0.0346735 0.041891165 -0.036911782
0001c0 4c c9 e6 3c 7a d9 97 bc 05 20 4e bd 00 5f c0 3c
       0.028172158 -0.018536318 -0.050323505 0.0234828
0001d0 4c 04 73 bd 74 22 0c 39 9d 1f 40 3d 70 c4 b6 3a
       -0.05933027 0.00013364275 0.04690515 0.0013944041
0001e0 57 ee 28 bc b2 50 42 bd 2b ac 54 bb 2d 03 93 3c
       -0.010310731 -0.04744024 -0.0032451253 0.01794585
0001f0 f5 b3 56 bd e4 00 61 3d a2 bf be bb c9 f8 8f bd
       -0.052417714 0.05493249 -0.0058211843 -0.07029874
000200 6e 87 51 3b 55 5d da ba 3a 70 87 bc 2b 4b 1d 3d
       0.0031971592 -0.0016659895 -0.016533006 0.038401764
000210 ba 30 61 bd 53 63 80 3c cd c3 21 3d 76 dd 84 3c
       -0.05497811 0.015672361 0.03949337 0.016218882
000220 cc de 9f 3c f1 7a 55 bd 5e 8b 1a bd 44 2a c7 3c
       0.019515418 -0.0521192 -0.037730567 0.024312146
000230 45 8e 3d bd aa 83 40 3c 1e 19 0c bb 01 86 45 bd
       -0.046278257 0.011750141 -0.0021377276 -0.0482235
000240 65 99 2a ba 87 1b ab 3b 51 18 d8 bb e8 7c 4b 3b
       -0.0006507843 0.0052217874 -0.0065946956 0.0031049792
000250 3b eb cd bc fc 65 e3 3c b8 b9 ce bb 80 64 29 3c
       -0.02513658 0.02775859 -0.0063087605 0.0103389025
000260 eb a5 bb bc 36 a6 ad 3c b1 c6 d1 3b 95 05 d4 3c
       -0.022906264 0.02119742 0.0064018597 0.025881568
000270 92 12 2a bc 9d 78 ed 3c 2c e1 57 3a 73 cb 1b bd
       -0.010380404 0.028988177 0.00082351523 -0.03803582
000280 13 f2 12 3d a9 a4 5e 3c 6e e3 77 bd 9b e5 b3 3c
       0.03587539 0.013589063 -0.06051963 0.02196007
000290 19 90 f9 bc 32 24 13 3b 36 9f 8f bc 40 88 18 bb
       -0.030464219 0.0022451994 -0.017531972 -0.002327457
0002a0 fe 29 83 bc 20 bc a3 3b b8 3a 48 3c f0 cc a7 bb
       -0.016011234 0.0049967915 0.012221031 -0.005120866
0002b0 d9 9f fe bc e4 0a 6f 3d b3 1a c7 bc 72 07 6e bc
       -0.03108208 0.058359995 -0.024304723 -0.014528142
0002c0 7b b5 3a 3c 11 0a 78 3c 82 42 04 bd 78 29 d4 3c
       0.011395807 0.015139119 -0.03228999 0.02589868
0002d0 1c 21 c7 bb 5d f8 84 ba 7f 9e 31 3b 08 d2 02 3d
       -0.006076945 -0.0010144819 0.0027102528 0.031938583
0002e0 c8 fb 3b 3d a1 6c 91 bc ba 9e f3 bc a1 b6 36 bd
       0.045894414 -0.017751994 -0.029738773 -0.044607762
0002f0 9d c6 11 3d b3 62 97 ba 0d 60 30 bd 50 bf 13 3d
       0.035589803 -0.00115498 -0.04306035 0.03607112
000300 37 fe 77 bc 0d a4 6a bb 5a 24 5e 3d e9 5d 06 bb
       -0.015136293 -0.0035803348 0.054233886 -0.0020502752
000310 2e 44 d3 3c 0a a8 17 3d 80 9e 88 bd b9 a1 f1 3c
       0.025789347 0.03702549 -0.066708565 0.02949606
000320 26 53 d6 ba 8a 0c 81 b8 15 c0 a4 3c aa 8d 2d bc
       -0.0016351684 -6.153535e-05 0.020111123 -0.010592857
000330 2f ce 1d 3d c6 cb df 3c df fc fb bc e1 8b c3 3c
       0.03852671 0.027318846 -0.030760227 0.02387041
000340 f7 27 16 3d 85 54 36 3d 98 7c 2c bd 89 0c 34 bb
       0.036659207 0.044514198 -0.04211101 -0.0027473292
000350 41 ba ba 3c 2d fe ad bc 0e 32 3c bd f9 82 43 3d
       0.02279389 -0.021239365 -0.045946173 0.047732327
000360 8a a5 62 3c 94 9b 29 3d a6 f9 4c b9 27 cd e2 bc
       0.013833413 0.041408136 -0.00019547957 -0.027685715
000370 11 19 64 3d 1d ab 4b bc 98 6f e5 bc 35 7c 98 3d
       0.055687968 -0.012430933 -0.028007314 0.074455656
000380 de 60 2c bc d6 51 e0 3c 2d 8a 89 3d 08 09 c9 bc
       -0.010521142 0.027382772 0.06715808 -0.02454044
000390 80 71 97 3d 6c 7f d9 39 60 29 57 bd 9e 26 87 3d
       0.07394695 0.00041484402 -0.052529693 0.065991625
0003a0 64 33 01 bd 29 15 12 3d 73 63 a5 3d 10 38 11 3d
       -0.03154315 0.03566471 0.08075609 0.035453856
0003b0 ac 15 08 3d 08 c5 88 bc b5 3c c9 bc 56 b7 f2 3c
       0.033223793 -0.016695514 -0.02456508 0.029628437
0003c0 d7 cc 89 3c aa 15 e3 3c c9 6d 0f 3c 57 5f 8c bd
       0.016821308 0.027720291 0.008754202 -0.06854122
0003d0 a8 c2 6f 3d 26 f8 30 bd 6e 7c 01 bd 1e f0 27 3d
       0.058535248 -0.043205403 -0.031612806 0.041000478
0003e0 a3 2c 19 bd ae 4b a4 3d 89 4f 7a 3d 6e 96 11 3c
       -0.037396085 0.08022247 0.061111007 0.008885963
0003f0 88 dd ad 3c b8 bf a3 bc 91 c2 11 bd 88 00 4f 3d
       0.021223798 -0.01998888 -0.035585944 0.050537616

fc.bias f4 [2]
000000 a7 82 dc b9 76 89 9a bd
       -0.00042059014 -0.0754575
