model/checkpoint/train_sparse_feedback_dict_batch250_epoch_300\140_loss123_2.pt (torch, 4899 bytes, 10 tensors)

rnn.weight_ih_l0 f4 [8, 3]
-0.009703895 0.20353611 0.43515867 -0.0038200722 -0.33612806 0.46505857 0.060976602 0.42320755
0.41429502 -0.05715379 0.5081075 -0.3588996 -0.0011108646 -0.36888343 -0.3973088 0.045262456
-0.24082497 0.6153361 0.005584927 -0.3576269 -0.19400115 0.035040446 -0.15124859 0.0875656
00000000: 16fd 1ebc c56b 503e 1ecd de3e 2d5a 7abb
00000010: fa18 acbe 281c ee3e 9ac2 793d a9ae d83e
00000020: 7a1e d43e 181a 6abd 5513 023f b0c1 b7be
00000030: 6e9a 91ba 4ade bcbe 0f6c cbbe 2065 393d
00000040: d29a 76be ab86 1d3f c301 b73b df1a b7be
00000050: 3da8 46be 9286 0f3d e9e0 1abe 9855 b33d

rnn.weight_hh_l0 f4 [8, 8]
-0.24640715 -0.003150188 -0.22922392 0.23283003 0.36511782 0.14176922 0.08045089 -0.0813099
-0.30363843 0.11830616 0.04833563 0.13675596 0.45477575 -0.05086762 0.06432524 0.014099918
0.33359295 -0.10071222 0.35961956 0.047319237 0.20076314 -0.12550156 -0.13905755 0.13591123
-0.1935645 -0.3989823 0.09002004 -0.17854007 -0.004695083 -0.06477543 -0.1368477 0.13065812
0.055389795 0.084417135 -0.051811125 -0.21820875 0.08880498 -0.121730395 -0.11424528 0.26720285
0.29120663 0.1512123 0.30975044 -0.0045014108 -0.1473927 -0.24085364 0.27689105 -0.109694034
0.061984006 -0.26145157 0.24539465 -0.20707381 0.18659464 -0.26777288 0.23081705 -0.10954749
0.26529545 0.19943532 -0.17623363 0.21679395 -0.15988104 0.21372852 0.065743126 -0.03373153
00000000: 2852 7cbe 6273 4ebb adb9 6abe ff6a 6e3e
00000010: b9f0 ba3e f32b 113e 70c3 a43d ce85 a6bd
00000020: 7f76 9bbe 804a f23d 95fb 453d c109 0c3e
00000030: 5ed8 e83e 915a 50bd f4bc 833d 5803 673c
00000040: b2cc aa3e 3542 cebd 0e20 b83e d1d1 413d
00000050: da94 4d3e 7b83 00be 1a65 0ebe 502c 0b3e
00000060: c635 46be 6847 ccbe 6d5c b83d 35d3 36be
00000070: 36d9 99bb fba8 84bd ce21 0cbe 3ecb 053e
00000080: 69e0 623d e4e2 ac3d e737 54bd 1d72 5fbe
00000090: 63df b53d c94d f9bd 6ef9 e9bd d0ce 883e
000000a0: 0919 953e 66d7 1a3e 9c97 9e3e 9280 93bb
000000b0: 1dee 16be 56a2 76be aac4 8d3e 44a7 e0bd
000000c0: f1e2 7d3d fbdc 85be bc48 7b3e 280b 54be
000000d0: aa12 3f3e 8719 89be 4e5b 6c3e 6f5a e0bd
000000e0: ced4 873e c638 4c3e 9776 34be 3cff 5d3e
000000f0: dbb7 23be a6db 5a3e 55a4 863d 132a 0abd

rnn.bias_ih_l0 f4 [8]
-0.013756725 -0.1523621 -0.45370713 -0.13474892 -0.3593344 -0.18678963 0.059152357 -0.41048878
00000000: e363 61bc cf04 1cbe 4d4c e8be 9ffb 09be
00000010: aefa b7be c845 3fbe be49 723d 962b d2be

rnn.bias_hh_l0 f4 [8]
0.16808265 -0.18380639 -0.01735269 0.1736389 -0.2539207 0.15679736 0.008327564 -0.38002685
00000000: dc1d 2c3e be37 3cbe 3b27 8ebc 65ce 313e
00000010: e501 82be 7d8f 203e 5670 083c e192 c2be

rnn.weight_ih_l1 f4 [8, 8]
-0.11907231 -0.07317078 0.20463817 -0.27346265 -0.32440394 0.12228463 -0.13101007 0.093346424
-0.0761236 -0.3727721 -0.011834743 0.041745048 -0.34428203 0.0127363065 0.17311186 0.07857666
-0.12797476 -0.15970272 -0.3502845 0.20793924 -0.17987837 -0.29658374 0.22882096 -0.01388701
0.14862593 0.32080045 -0.037604067 0.19008781 0.24739079 0.23472482 0.18323953 -0.20739408
0.104261026 -0.43344116 -0.045609552 0.20382042 -0.21294492 0.17201544 -0.2284858 -0.18307246
-0.10273977 0.18877271 0.0076188776 -0.2841175 -0.09941135 -0.13406779 0.03522069 -0.19183719
0.08745935 0.5347545 0.088058546 -0.08953082 0.14827697 0.023664575 0.1399215 0.053503614
-0.17064163 -0.033014685 0.08131076 -0.11130967 -0.40380996 -0.27492118 -0.075012706 0.17458932
00000000: 2fdc f3bd 90da 95bd ab8c 513e 4c03 8cbe
00000010: 4618 a6be 5d70 fa3d 8127 06be 692c bf3d
00000020: b1e6 9bbd fcdb bebe 83e6 41bc dbfc 2a3d
00000030: bc45 b0be f1ab 503c 3c44 313e cdec a03d
00000040: d10b 03be 1c89 23be 7d58 b3be 06ee 543e
00000050: 0932 38be d3d9 97be 0b50 6a3e 5786 63bc
00000060: 6531 183e f53f a43e b906 1abd 61a6 423e
00000070: 0354 7d3e b45b 703e 25a3 3b3e 1d5f 54be
00000080: ce86 d53d 00ec ddbe 15d1 3abd 4db6 503e
00000090: 3c0e 5abe d124 303e 2ef8 69be 5977 3bbe
000000a0: 3b69 d2bd a24d 413e c7a7 f93b d977 91be
000000b0: 2e98 cbbd 1149 09be 9243 103d f870 44be
000000c0: e31d b33d ace5 083f 0a58 b43d ef5b b7bd
000000d0: ebd5 173e 36dc c13c 9547 0f3e 9b26 5b3d
000000e0: aebc 2ebe 683a 07bd 4186 a63d 53f6 e3bd
000000f0: 2ec0 cebe 78c2 8cbe 43a0 99bd 8bc7 323e

rnn.weight_hh_l1 f4 [8, 8]
0.006466249 -0.34628397 0.2898162 0.17556614 0.35012504 0.50415224 -0.21043788 -0.082658485
0.024193322 -0.25435153 -0.06055938 0.4036198 -0.03635347 0.06011893 -0.19804972 0.12328606
-0.15087356 0.24551952 -0.16217354 0.07843209 0.04700952 -0.14394182 0.07333422 0.14882667
0.14538103 0.073138006 -0.061676055 -0.40901443 0.30354044 0.13455994 0.047018677 -0.35898277
-0.08832041 0.047972426 -0.00097416766 -0.22952513 -0.4030685 -0.10989264 0.007629264 -0.13261534
-0.21842071 -0.023927601 -0.06982196 -0.14258474 -0.16353746 -0.3070403 0.19048303 0.11051164
0.04001321 0.37644607 0.2826491 0.1349413 0.23093823 -0.08591159 -0.21846557 -0.14282086
0.20032579 -0.062122244 0.06382013 0.15529704 -0.10166828 0.10741289 -0.080492616 -0.5200711
00000000: d4e2 d33b 224c b1be ca62 943e 9cc7 333e
00000010: 9743 b33e 1f10 013f 077d 57be da48 a9bd
00000020: 1331 c63c 5d3a 82be 1d0d 78bd 41a7 ce3e
00000030: 60e7 14bd 443f 763d 8ccd 4abe 677d fc3d
00000040: 997e 1abe 7869 7b3e d210 26be 01a1 a03d
00000050: 0e8d 403d 7c65 13be 4030 963d 0566 183e
00000060: c4de 143e 61c9 953d 08a0 7cbd 576a d1be
00000070: a769 9b3e 15ca 093e a896 403d 97cc b7be
00000080: 55e1 b4bd bc7e 443d 495f 7fba a308 6bbe
00000090: ff5e cebe 640f e1bd e8fe f93b 51cc 07be
000000a0: aea9 5fbe d103 c4bc d1fe 8ebd bc01 12be
000000b0: 5d76 27be 6334 9dbe fc0d 433e ed53 e23d
000000c0: e4e4 233d 8abd c03e 62b7 903e 0d2e 0a3e
000000d0: 127b 6c3e 6af2 afbd 70b5 5fbe a23f 12be
000000e0: 3422 4d3e e573 7ebd 21b4 823d 3006 1f3e
000000f0: 7637 d0bd 4afb db3d 50d9 a4bd 6123 05bf

rnn.bias_ih_l1 f4 [8]
0.18649957 -0.0884224 -0.1355823 0.1246685 -0.022799276 -0.36846268 -0.07331117 -0.04310159
00000000: bef9 3e3e ce16 b5bd 16d6 0abe 3352 ff3d
00000010: 8cc5 babc 24a7 bcbe 2b24 96bd 4b8b 30bd

rnn.bias_hh_l1 f4 [8]
-0.13537695 0.05692828 -0.12508981 -0.27393863 0.15509252 0.10179274 0.004099644 0.19079712
00000000: 41a0 0abe a12d 693d 8b17 00be af41 8cbe
00000010: 93d0 1e3e b678 d03d 4e56 863b 5260 433e

fc.weight f4 [2, 256]
1.5597121e-06 0.007894076 0.026311306 0.037913986 -0.10014675 -0.01675424 0.035133824 -0.09114504
-0.010411086 -0.049594183 -0.015569439 -0.00077626354 0.019239314 0.006748688 0.020209521 -0.021480614
-0.0055182995 -0.038195916 0.010707875 0.036835942 -0.00043013177 -0.0133322505 0.0013666204 -0.01871622
0.008559413 -0.07829555 -0.029308021 0.008849349 -0.002884469 0.00012770282 -0.01706761 -0.004286527
-0.0033924275 0.025443653 0.021829158 0.019695377 0.04755836 0.013195265 0.0419716 -0.005290888
-0.0072324723 -0.03135566 -0.024670383 0.025314335 0.012259639 0.0032891778 -0.013438586 0.0150966
0.01272665 -0.019433575 0.0004068537 0.006973005 0.04005966 0.016260024 0.018127648 -0.011961639
-0.0053339317 -0.018745808 -0.0051559936 -0.025285766 0.04881207 -0.0052472106 0.032938093 -0.010206933
0.0050053643 0.014807453 -0.014011269 0.006151708 0.045157693 0.008440943 0.018498218 -0.0067886584
0.020054216 -0.014835403 0.016145496 -0.023020053 0.052031316 -0.011814943 0.028880028 -0.0005352589
0.015158833 0.015875064 -0.026110275 -0.0032461635 0.063741386 0.01750998 0.029252939 0.009429386
0.032766458 0.0025875296 0.039321948 -0.03484956 0.079196796 -0.016219035 0.054793306 -0.004094571
-0.0013287182 0.04028542 -0.014863447 0.018214308 0.05303636 -0.00974607 -0.003514149 0.053412344
0.05363684 -0.019667678 0.007855053 0.0097797755 0.06824659 0.00405198 -0.00069677806 0.031528216
0.012816908 0.0109554995 0.008230661 -0.040675778 0.08493635 -0.020024374 0.042191256 0.02608499
0.043021448 0.0043821097 0.0022107435 0.0058313147 0.0820539 0.023376241 0.008701155 0.04277021
0.004097338 0.009562176 0.0014869767 -0.042373165 0.0751099 -0.015493617 0.043459076 0.024009498
0.04061776 -0.017372502 0.007867944 -0.011817311 0.056753844 -0.0161342 -0.0023905407 0.02891153
0.008352598 0.03513541 0.011991 -0.016232124 0.058502015 -0.030448588 0.0031930343 0.04504317
0.039417528 0.01589228 -0.0056653996 0.017361233 0.05997611 -0.00068493595 -0.029218577 0.05331283
0.008561143 0.05003244 0.023573088 -0.012023695 0.061031774 -0.031040387 0.0012242782 0.043037936
0.031062566 0.018352212 -0.016589 0.013314642 0.053935625 0.006543241 -0.051083885 0.049918707
0.016149454 0.03299727 -0.0003293138 -0.054765623 0.072181016 -0.0057835453 0.01711189 0.014908948
0.018694725 0.057911277 0.024325745 -0.02063451 0.08640197 -0.009422416 0.0011062276 0.03873069
0.004177287 0.041571755 -0.007509341 0.015377489 0.03720759 -0.00598136 -0.056703176 0.06136506
0.0073023555 0.039880797 0.0018155614 0.01207234 0.08303427 0.009853442 -0.03244899 0.07445989
0.0055207578 -0.004637423 -0.015927367 0.010116868 0.0364506 0.009092348 -0.036612153 0.043875977
-0.004095063 0.009527149 -0.005144105 -0.012914054 0.06982322 0.015287161 0.007740664 0.035635147
-0.008559344 -0.015314321 -0.008689685 0.012619571 0.02119847 0.00033699852 -0.007084179 0.040472724
-0.018873287 0.0015690272 0.00018406949 0.043325566 0.03227873 -0.0006894107 -0.015466652 0.0804169
-0.0055576502 -0.025923435 -0.028585996 0.06468974 -0.002814271 0.027985571 -0.042866975 0.029848095
-0.016813507 -0.068117894 -0.0016303202 -0.02834466 -0.07566736 -0.0340639 0.005042336 -0.044680286
00000000: 4d57 d135 2856 013c cf8a d73c b24b 1b3d
00000010: bd19 cdbd 3040 89bc 7ce8 0f3d 40aa babd
00000020: 4293 2abc 4523 4bbd f616 7fbc 2a7e 4bba
00000030: c49b 9d3c 1924 dd3b 708e a53c 1df8 afbc
00000040: dad2 b4bb 5273 1cbd 1570 2f3c 49e1 163d
00000050: 4f83 e1b9 836f 5abc 2c20 b33a c252 99bc
00000060: c83c 0c3c 6b59 a0bd 6017 f0bc dcfc 103c
00000070: 5c09 3dbb f7e7 0539 5fd1 8bbc ff75 8cbb
00000080: 7d53 5ebb 356f d03c 10d3 b23c 3358 a13c
00000090: 8ecc 423d f430 583c 6aea 2b3d 2f5f adbb
000000a0: 60fe ecbb cb6e 00bd 8b19 cabc 0260 cf3c
000000b0: a7dc 483c 3f8f 573b 842d 5cbc bb57 773c
000000c0: 7083 503c 2933 9fbc fb4e d539 ce7d e43b
000000d0: 9915 243d be33 853c 6f80 943c c0fa 43bc
000000e0: 43c8 aebb cf90 99bc 9cf3 a8bb 1824 cfbc
000000f0: 2aef 473d cbf0 abbb 18ea 063d fb3a 27bc
00000100: 0a04 a43b f69a 723c 868f 65bc 4494 c93b
00000110: 46f7 383d e24b 0a3c 9389 973c 6573 debb
00000120: bd48 a43c 3110 73bc 8f43 843c 8d94 bcbc
00000130: ca1e 553d 7693 41bc cf95 ec3c 9e50 0cba
00000140: c15c 783c 6c0c 823c 37e5 d5bc 96bd 54bb
00000150: d88a 823d 1771 8f3c dca3 ef3c b67d 1a3c
00000160: 1f36 063d 8b93 293b 0d10 213d 6abe 0ebd
00000170: ee31 a23d c8dd 84bc f26e 603d c02b 86bb
00000180: 6228 aeba 5302 253d d185 73bc 2c36 953c
00000190: a73c 593d fbad 1fbc a34d 66bb e7c6 5a3d
000001a0: 4eb2 5b3d 1c1e a1bc 7bb2 003c 5a3b 203c
000001b0: dec4 8b3d 79c6 843b fca7 36ba bb23 013d
000001c0: 02fe 513c b27e 333c e5d9 063c a59b 26bd
000001d0: 1cf3 ad3d 280a a4bc bdd0 2c3d 30b0 d53c
000001e0: 4237 303d cd97 8f3b 1fe2 103b 9d14 bf3b
000001f0: e00b a83d 887f bf3c 4a8f 0e3c d12f 2f3d
00000200: f642 863b acaa 1c3c a9e6 c23a 7c8f 2dbd
00000210: 38d3 993d f1d8 7dbc 2502 323d 91af c43c
00000220: cf5e 263d c750 8ebc 8de8 003c 659d 41bc
00000230: b876 683d df2b 84bc 9eaa 1cbb dfd7 ec3c
00000240: 56d9 083c 26ea 0f3d e675 443c 3bf9 84bc
00000250: cf9f 6f3d 516f f9bc 3a42 513b 307f 383d
00000260: 4674 213d 8730 823c d1a4 b9bb 2539 8e3c
00000270: 82a9 753d 468d 33ba cc5b efbc 8e5e 5a3d
00000280: 0944 0c3c d1ee 4c3d 591c c13c 08ff 44bc
00000290: 74fc 793d 6948 febc f677 a03a 8c48 303d
000002a0: ec76 fe3c 6157 963c a8e5 87bc a825 5a3c
000002b0: 9aeb 5c3d af68 d63b 563d 51bd 8f77 4c3d
000002c0: dc4b 843c 2528 073d c0a7 acb9 eb51 60bd
000002d0: a4d3 933d e583 bdbb 3c2e 8c3c a944 743c
000002e0: ae25 993c 6034 6d3d c946 c73c b409 a9bc
000002f0: 84f3 b03d 7a60 1abc d7fe 903a 12a4 1e3d
00000300: a0e1 883b 2547 2a3d eb10 f6bb ddf1 7b3c
00000310: fc66 183d 49ff c3bb 9741 68bd ee59 7b3d
00000320: 9948 ef3b 0c5a 233d 22f8 ed3a 10cb 453c
00000330: df0d aa3d 5570 213c 3be9 04bd 6d7e 983d
00000340: 79e7 b43b 86f5 97bb 1c7a 82bc 38c1 253c
00000350: 394d 153d 12f8 143c a0f6 15bd 4cb7 333d
00000360: e12f 86bb c217 1c3c e18f a8bb 7895 53bc
00000370: 7aff 8e3d 0077 7a3c 65a5 fd3b 29f6 113d
00000380: 7e3c 0cbc ebe8 7abc 2e5f 0ebc 51c2 4e3c
00000390: 6aa8 ad3c 2daf b039 6722 e8bb bac6 253d
000003a0: 279c 9abc d1a7 cd3a c702 4139 2676 313d
000003b0: b436 043d 92b9 34ba d767 7dbc 9eb1 a43d
000003c0: f31c b6bb 625d d4bc 2e2d eabc 0e7c 843d
000003d0: a26f 38bb ff41 e53c 4895 2fbd fe83 f43c
000003e0: 7bbc 89bc 6581 8bbd 78b0 d5ba 0f33 e8bc
000003f0: 7df7 9abd 9786 0bbd 2e3a a53b ad02 37bd

fc.bias f4 [2]
0.014239385 -0.02110458
00000000: 4f4c 693c 83e3 acbc
