model/checkpoint/train_sparse_feedback_dict_batch250_epoch_300\70_loss123_2.pt (torch, 4899 bytes, 10 tensors)

rnn.weight_ih_l0 f4 [8, 3]
0	0xbc81bb6a	-0.015836436
1	0x3df38b3a	0.1189179
2	0x3ec90e9f	0.39268968
3	0xbbd20636	-0.006409432
4	0xbe89a458	-0.26883197
5	0x3efde82e	0.49591202
6	0x3d5abcbe	0.053402655
7	0x3eb9c0f6	0.3628003
8	0x3ede3376	0.43398637
9	0xbd977cf7	-0.07396882
10	0x3efa34cb	0.48868403
11	0xbea8b90a	-0.32953674
12	0x3bc4b391	0.0060028513
13	0xbe2038ed	-0.15646715
14	0xbeb3481c	-0.35015953
15	0x3d50e5a2	0.051000245
16	0xbe8a229d	-0.26979533
17	0x3f1934ee	0.5984639
18	0x3c6a01b4	0.014282633
19	0xbeaaaeee	-0.33336586
20	0xbe551f1b	-0.20812647
21	0x3d4db286	0.05021908
22	0xbdb9231f	-0.09039902
23	0x3d921286	0.07132439

rnn.weight_hh_l0 f4 [8, 8]
0	0xbeb8308f	-0.35974547
1	0x3d89c9e1	0.067279585
2	0xbe3d2d1d	-0.1847424
3	0x3e8cbe23	0.27488813
4	0x3eb12ce7	0.3460457
5	0x3e20eb81	0.15714838
6	0x39dfedb1	0.00042710968
7	0xbe018b38	-0.12650764
8	0xbe808cb0	-0.25107336
9	0x3df75602	0.120769516
10	0x3d001842	0.031273134
11	0x3e1d4a81	0.15360452
12	0x3eaaea82	0.3338204
13	0xbda1f3e2	-0.07907845
14	0x3cbdb6ed	0.023158515
15	0xbbeb6451	-0.0071835895
16	0x3e9af36b	0.30263838
17	0xbcfe2474	-0.031023242
18	0x3eab4d53	0.3345743
19	0xbc5be026	-0.01342014
20	0x3e3a50d6	0.18194899
21	0xbd5a5327	-0.053301957
22	0xbe12f2ee	-0.14350483
23	0x3e055963	0.1302238
24	0xbdf39f43	-0.11895611
25	0xbe6489dd	-0.22318216
26	0x3dff8334	0.12476197
27	0xbe1dacaf	-0.15397905
28	0x3de149e1	0.110004194
29	0xbda04955	-0.07826487
30	0xbe01671f	-0.12636994
31	0x3e33bef9	0.17553319
32	0x3dac16dd	0.08402798
33	0x3d081fad	0.033233333
34	0xbda766c7	-0.081739
35	0xbe607508	-0.21919644
36	0x3d0ec78c	0.03485827
37	0xbe1c3c78	-0.15257442
38	0xbe07a442	-0.13246253
39	0x3e95e338	0.29274917
40	0x3e9ca32d	0.30593243
41	0x3e1f9dc9	0.15587534
42	0x3ea954fa	0.33072644
43	0x3c23a415	0.009987851
44	0xbe4d7605	-0.20064552
45	0xbe599e96	-0.21251902
46	0x3e655165	0.22394331
47	0xbde9e70f	-0.11421024
48	0x3d70b7e8	0.058769137
49	0xbe9a1a8d	-0.30098382
50	0x3e40f2b1	0.1884258
51	0xbe55736f	-0.20844816
52	0x3e36c8e4	0.17850071
53	0xbea1ff2c	-0.31639993
54	0x3e9e88fe	0.30963892
55	0xbe1f2502	-0.15541461
56	0x3e8c1e2a	0.27366763
57	0x3e3bec5f	0.18351887
58	0xbe3361ae	-0.1751773
59	0x3e664c5e	0.2249007
60	0xbe00c925	-0.1257673
61	0x3e475138	0.19464576
62	0x3d086c17	0.033306208
63	0xbc003d08	-0.007827051

rnn.bias_ih_l0 f4 [8]
0	0xbc94e960	-0.018177688
1	0xbdd16876	-0.102250025
2	0xbec366b8	-0.38164306
3	0xbe2b5927	-0.16733228
4	0xbe8c6707	-0.27422354
5	0xbe3abd91	-0.18236376
6	0x3de82510	0.11335194
7	0xbecdcd42	-0.40195662

rnn.bias_hh_l0 f4 [8]
0	0x3e2796c4	0.16366106
1	0xbe08e72b	-0.13369434
2	0x3d601a79	0.054712746
3	0x3e1070dd	0.14105554
4	0xbe2cdc9d	-0.16881032
5	0x3e2517b4	0.16122323
6	0x3d800e1f	0.062526934
7	0xbebe348d	-0.37149468

rnn.weight_ih_l1 f4 [8, 8]
0	0xbe0a8474	-0.1352709
1	0xbd82b0ba	-0.06381364
2	0x3e79c51e	0.243916
3	0xbe868f62	-0.26281267
4	0xbeb5e36a	-0.35525066
5	0x3e2b473b	0.16726391
6	0xbe50d166	-0.20392379
7	0x3e01d0f2	0.12677363
8	0xbe166edd	-0.14690728
9	0xbea4d208	-0.3219149
10	0xbc99c74d	-0.018771792
11	0x3d20afe2	0.039230235
12	0xbe8ed917	-0.279
13	0x3c614f96	0.013751885
14	0x3e060c99	0.13090743
15	0x3df4d53e	0.11954735
16	0xbe09b125	-0.13446482
17	0xbe033578	-0.12813365
18	0xbeaa1406	-0.33218402
19	0x3e516e38	0.20452201
20	0xbe0e4e7a	-0.13897124
21	0xbe8db5f9	-0.27677897
22	0x3e845412	0.2584539
23	0x3cdcbfeb	0.026946982
24	0x3e7e6956	0.2484487
25	0x3e908143	0.2822362
26	0xbc870313	-0.016480958
27	0x3e80362d	0.25041333
28	0x3dead970	0.11467254
29	0x3e5d8ae5	0.21635015
30	0x3dde580a	0.10856636
31	0xbe6df39e	-0.23237464
32	0x3d28ec96	0.04124125
33	0xbecad555	-0.39615884
34	0xbce1b0ab	-0.027550062
35	0x3e4ead68	0.20183337
36	0xbe1fda48	-0.15610611
37	0x3e596379	0.21229352
38	0xbe49919b	-0.1968445
39	0xbe2678ac	-0.1625697
40	0xbe3211e2	-0.17389634
41	0x3e293726	0.16524944
42	0x3d1ff771	0.039054338
43	0xbe8ef25d	-0.27919284
44	0xbe187470	-0.14888167
45	0xbe08c6e0	-0.13357115
46	0x3cb63b65	0.022245118
47	0xbe3d96d1	-0.18514563
48	0x3d6a48d6	0.057198368
49	0x3ee306a3	0.44341
50	0x3dbaf508	0.09128767
51	0xbdafb1f7	-0.08578866
52	0x3d7117af	0.058860477
53	0x3c830121	0.01599175
54	0x3de63bcf	0.11241876
55	0x3d7e020e	0.06201368
56	0xbe1d5a0c	-0.15366381
57	0xbd96037a	-0.07324882
58	0x3d9fe58c	0.078074545
59	0xbde604b9	-0.112313695
60	0xbeb9b3a2	-0.3626986
61	0xbe81b67c	-0.25334537
62	0xbd54c380	-0.051944256
63	0x3e237d5f	0.15965794

rnn.weight_hh_l1 f4 [8, 8]
0	0x3e1fcf90	0.15606523
1	0xbe84a8ef	-0.25910136
2	0x3e162d1c	0.14665645
3	0x3e5504a8	0.20802557
4	0x3e94dfb5	0.29076925
5	0x3ebe19e7	0.37129137
6	0xbe046bfd	-0.1293182
7	0x3c9d5db5	0.019209722
8	0x3adf43c3	0.0017033744
9	0xbe7c820b	-0.24658982
10	0xbd5256a7	-0.05135217
11	0x3eacaf3a	0.33727437
12	0xbd998cd4	-0.07497564
13	0xbd2ab95a	-0.04168067
14	0xbe4436f7	-0.19161592
15	0x3dee5873	0.11637964
16	0xbe885602	-0.2662812
17	0x3e159af5	0.14609893
18	0xbd1be4eb	-0.03806011
19	0x3e09fe81	0.13475992
20	0x3e262208	0.1622392
21	0xbd82b2cc	-0.06381759
22	0x3b36aee0	0.002787523
23	0x3e124406	0.14283761
24	0x3e5454eb	0.20735519
25	0x3dfdd7c9	0.123946734
26	0xbdcf1d11	-0.10112966
27	0xbec019f9	-0.37519816
28	0x3ec22b62	0.37923723
29	0x3dff97d7	0.12480133
30	0x3d16535d	0.036700595
31	0xbe2f30b9	-0.1710843
32	0xbe2777a1	-0.16354229
33	0x3d69b38f	0.057056006
34	0x3db18faf	0.086699836
35	0xbdcbce42	-0.0995145
36	0xbe4834a5	-0.19551332
37	0xbe1ef4d0	-0.15523076
38	0xbe50c544	-0.20387751
39	0x3db870d3	0.090058945
40	0xbe900c05	-0.2813417
41	0xbe71d587	-0.2361661
42	0xbd2df2d4	-0.042467907
43	0x3d8f2751	0.06989921
44	0xbe1d1692	-0.15340641
45	0xbe3585e7	-0.17726861
46	0x3e8f6dea	0.28013545
47	0x3d5be6dc	0.05368696
48	0x3d35d2ce	0.044390492
49	0x3eb8cf48	0.36095643
50	0x3e89c00d	0.26904336
51	0x3e408000	0.18798828
52	0x3e749f66	0.2388893
53	0xbdcde2cd	-0.100530244
54	0xbe73b075	-0.23797782
55	0xbda2b4f7	-0.079446726
56	0x3e7e3842	0.24826148
57	0x3d3ce47e	0.046116345
58	0x3da19fd8	0.07891816
59	0x3e5a6d7f	0.21330832
60	0x3d25a775	0.040442903
61	0x3c644bf3	0.013934123
62	0xbc288ae0	-0.010287017
63	0xbec35a27	-0.38154718

rnn.bias_ih_l1 f4 [8]
0	0x3e2eae9c	0.17058796
1	0xbe03a0cf	-0.12854312
2	0xbe28f1d0	-0.16498494
3	0x3e3f03e8	0.18653834
4	0xbd6393f6	-0.05556103
5	0xbec12de9	-0.3773034
6	0xbd184984	-0.037179485
7	0xbda52b4d	-0.080648996

rnn.bias_hh_l1 f4 [8]
0	0xbe1aeb63	-0.15128855
1	0x3c89aff6	0.016807538
2	0xbe1e3347	-0.15449248
3	0xbe5928aa	-0.21206918
4	0x3dfa88a1	0.12233091
5	0x3dbe5dfc	0.0929527
6	0x3d24c988	0.040231258
7	0x3e1ced7f	0.15324973

fc.weight f4 [2, 256]
0	0x3c9aadb3	0.018881654
1	0xbc20e3f3	-0.009819972
2	0x3ccec59d	0.025240714
3	0x3cb279cc	0.021786593
4	0xbcd38476	-0.025819998
5	0x3b59d124	0.003323623
6	0x3c392858	0.011301123
7	0xbd491099	-0.049088094
8	0x3c1fb3d9	0.009747469
9	0xbd1241db	-0.035707336
10	0xbbed6593	-0.0072447746
11	0xbb3eeab6	-0.0029131598
12	0x3ac96171	0.0015364123
13	0xbc42699e	-0.011866001
14	0x3c612745	0.013742273
15	0xbc65ea78	-0.0140329525
16	0xbb95bf54	-0.004569927
17	0x3bd9d7b3	0.006648028
18	0x3c81172e	0.015758123
19	0x3d27a739	0.04093096
20	0x3bc02a6f	0.0058644335
21	0xba85f248	-0.00102193
22	0x3be0e142	0.0068627903
23	0xbc363fbc	-0.011123594
24	0x3cbf35ae	0.023341026
25	0xbd2abb74	-0.041682675
26	0xbcd18440	-0.025575757
27	0x3aa00e98	0.001221138
28	0xbc3b1004	-0.011417393
29	0xbc4139d0	-0.011793569
30	0xbc512508	-0.012765177
31	0xbc48a49c	-0.012246277
32	0xbbe1cadc	-0.006890638
33	0x3c96c87f	0.01840615
34	0x3ce16643	0.027514582
35	0x3cf98f54	0.030463852
36	0x3cec7e91	0.028868945
37	0x3c4644dd	0.012101379
38	0x3d0a8d4c	0.033826157
39	0xbae90a71	-0.0017779601
40	0x3961c829	0.00021532238
41	0xbc9776cd	-0.018489266
42	0xbd089817	-0.03334817
43	0x3cbf45c1	0.023348691
44	0x3ca8c75a	0.02060287
45	0xbc418acd	-0.011812878
46	0xbcbb8c89	-0.02289416
47	0x3cf38afb	0.029729357
48	0x3c9714c5	0.01844252
49	0x3a922514	0.0011149966
50	0x3b24e75a	0.002516231
51	0x3d073c5f	0.03301656
52	0x3bb34d31	0.0054718484
53	0x3c8c11f6	0.017098408
54	0x3c0e5c7b	0.008689041
55	0xbcb584c6	-0.022158038
56	0xbc0870e5	-0.008327697
57	0xbcfde7f1	-0.030994387
58	0xbc02f49d	-0.007992891
59	0xbc6a8e17	-0.014316103
60	0x3d2e54b4	0.042561248
61	0xbbf1c18b	-0.0073778084
62	0x3cabbf20	0.020965159
63	0x3c646da7	0.013942159
64	0x3c211447	0.009831495
65	0x3c2ebdc9	0.0106653655
66	0xbc9cf64a	-0.019160409
67	0x3d04e6e6	0.032446764
68	0x3d2b3bcd	0.041805077
69	0x38d4788b	0.000101314006
70	0xbbe449fb	-0.006966827
71	0x3cce7df5	0.025206545
72	0x3cadb522	0.021204535
73	0xbcc10dfc	-0.023566239
74	0x3c6d6b77	0.014490954
75	0x3b4bdc8c	0.0031106798
76	0x3cdd4bd6	0.0270137
77	0xba22fb4f	-0.00062172575
78	0xbab32d56	-0.0013670127
79	0x3bcb0de6	0.006196725
80	0x3c5ba5ad	0.013406199
81	0xbbeec43e	-0.0072865775
82	0xbd103099	-0.035202596
83	0x3c7d6d86	0.015468007
84	0x3d3d76c5	0.046255846
85	0x3a28f23d	0.0006444788
86	0x3b9ac1dd	0.0047228173
87	0x3cc57332	0.024102781
88	0x3ce12001	0.027481081
89	0xbcc9ee76	-0.02464984
90	0x3d1c23d5	0.03812011
91	0xbc40bc5e	-0.01176366
92	0x3d596743	0.053076994
93	0xbc1ff315	-0.009762545
94	0x3caf63a3	0.021409815
95	0x3c233ebc	0.0099636875
96	0xba6500f6	-0.00087358
97	0x3d2c7e0d	0.0421124
98	0xbcbfd5d0	-0.023417383
99	0x3d320897	0.043465223
100	0x3d285faf	0.041106876
101	0xbbca7c50	-0.00617937
102	0xbd10abbe	-0.035320036
103	0x3d473682	0.048635967
104	0x3d667a3c	0.056268916
105	0xbc956302	-0.018235687
106	0x3bd88035	0.0066070803
107	0x3d25f521	0.040516976
108	0x3c5acf01	0.013355018
109	0x3c3d2bd2	0.011546092
110	0xbc428af1	-0.0118739465
111	0x3a85ce70	0.0010208618
112	0x3c429c3c	0.0118780695
113	0xbb916c09	-0.0044379276
114	0x3c2ecbc6	0.010668701
115	0xbcc808b8	-0.02441822
116	0x3d272fe1	0.040817145
117	0xbcdcde4c	-0.026961468
118	0x3ccb62fb	0.024827471
119	0xbc82ef2e	-0.01598319
120	0x3d3c2b81	0.045939926
121	0x3caf497d	0.021397347
122	0x3b00d53b	0.0019658345
123	0x3ce94488	0.028475061
124	0x3d226025	0.03964247
125	0x3ce61091	0.028084071
126	0x3abc0206	0.0014343865
127	0x3c88ad0f	0.016684083
128	0x3b6e8fe6	0.0036401688
129	0x3bb08de8	0.0053880103
130	0x3b5fa9d3	0.0034128323
131	0x3af87d6a	0.0018958275
132	0x3d51bc97	0.051205244
133	0xbc5e1f81	-0.013557316
134	0x3cd2bf29	0.025725918
135	0x3c3edc1c	0.011649158
136	0x3d3ba818	0.045814604
137	0xbc1b8bea	-0.009493807
138	0x3c81d72e	0.015849676
139	0x3c9691cd	0.01838007
140	0x3c8ddf21	0.01731831
141	0xbc3f7cfe	-0.011687515
142	0xbc5a6b90	-0.013331309
143	0x3ae1003b	0.0017166206
144	0x3b4d8728	0.0031361077
145	0x3cd87914	0.026424922
146	0x3c9d8811	0.01922992
147	0x3c8aa3d5	0.016923824
148	0x3c26f689	0.0101906145
149	0xbc981d7e	-0.01856875
150	0xbc2d07ee	-0.010560973
151	0xbabc6cf8	-0.0014375737
152	0x3d102510	0.035191596
153	0x3ab91dbb	0.001412324
154	0xbb8dabb3	-0.0043234467
155	0x3ccec6f3	0.02524135
156	0x3c608d13	0.01370551
157	0xbc2894d3	-0.010289389
158	0xbd082472	-0.033237882
159	0x3cb893e3	0.022531455
160	0x3b1786b1	0.0023121054
161	0x3c924ee2	0.01785988
162	0x3cdb759a	0.026789475
163	0x3b8aa90d	0.004231578
164	0x3cb7a9b3	0.022419786
165	0xbcb65f1d	-0.02226215
166	0xbc847eec	-0.016173802
167	0x3c515d1f	0.012778549
168	0x3d094700	0.033514977
169	0x3bedb2e3	0.007253991
170	0xbcdbccfa	-0.026831139
171	0x3d047d23	0.032345902
172	0x3cd31d4f	0.025770811
173	0x3c1cfd97	0.009581945
174	0xbd1c8950	-0.03821689
175	0x3d239d4e	0.03994494
176	0x3c672647	0.014108247
177	0xbc87cde8	-0.016577676
178	0xbb4386ff	-0.0029835103
179	0xbc9d97cb	-0.01923742
180	0x3d0b2b56	0.033976875
181	0x3a855806	0.0010173328
182	0x3d123980	0.035699368
183	0xbb8dee76	-0.0043314053
184	0x3c9ef76a	0.019405086
185	0x3c75c57a	0.015000695
186	0x3ce97929	0.028500156
187	0x3b428413	0.0029680773
188	0x3d41ee7c	0.047346577
189	0xbc40f59e	-0.01177731
190	0x3c95d48f	0.018289832
191	0x3c0052e2	0.007832261
192	0xbb81d4cf	-0.0039621363
193	0x3cd1a632	0.025591943
194	0xbbff8d87	-0.007798854
195	0x3c6a4161	0.014297814
196	0xbce7fc83	-0.02831865
197	0x3be77826	0.0070638834
198	0xbce6e80e	-0.028186824
199	0xbbf4a1c5	-0.0074655735
200	0xbbb9112f	-0.0056478004
201	0xbc223556	-0.009900412
202	0xbb86f658	-0.004118722
203	0x3bb6f987	0.005583945
204	0x3d12d9a1	0.03585208
205	0xbc038149	-0.008026429
206	0x3a2e9217	0.00066593423
207	0x3d2b67a1	0.041846875
208	0x3b8c613c	0.004284052
209	0xbcf2d2ec	-0.029641591
210	0xbcb8a652	-0.022540245
211	0xbc637116	-0.013881942
212	0xbb20d594	-0.0024541365
213	0x386ebee4	5.6921403e-05
214	0xbc335601	-0.010945798
215	0x3bcfbbaa	0.00633951
216	0xbb89630f	-0.004192717
217	0xbc26cf9c	-0.010181334
218	0xbbd0fbdb	-0.0063776798
219	0xbc9a07df	-0.018802581
220	0x3d1c7f5c	0.038207397
221	0x3bb52435	0.005527998
222	0x3d0dc539	0.034611914
223	0x3c45c69a	0.012071276
224	0xbb5ca683	-0.0033668585
225	0xbbf02d4f	-0.00732962
226	0x38b2a606	8.518626e-05
227	0xbc137d97	-0.009002111
228	0xbc183b21	-0.009291441
229	0x3b52f7e1	0.0032191204
230	0x3caf65d9	0.02141087
231	0xbc9581d2	-0.01825038
232	0xbc847e8c	-0.016173624
233	0x3ba85b2b	0.005137821
234	0x3c4a5d1f	0.012351303
235	0xbc534d9d	-0.012896922
236	0x3b19fa5f	0.002349518
237	0xbc5e27a1	-0.013559253
238	0x3c07fa83	0.008299473
239	0xbbbb6ec2	-0.0057199905
240	0x3b913c85	0.0044322633
241	0x3c150cdf	0.009097307
242	0xbc999be2	-0.018751089
243	0x3cbf68b9	0.023365365
244	0xbcb38e26	-0.021918368
245	0x3c8dd960	0.017315567
246	0xbcabde3e	-0.020979997
247	0xbc68f172	-0.014217721
248	0xbc012ab4	-0.007883716
249	0xbcc04933	-0.023472404
250	0x3c52bbda	0.01286217
251	0xbcee13b6	-0.029062133
252	0xbccb519c	-0.024819188
253	0xbc9178b4	-0.017757751
254	0x3d08001c	0.03320323
255	0xbd346ac9	-0.04404715

fc.bias f4 [2]
0	0x3ce1b8ef	0.027554004
1	0xbc8ec1aa	-0.01742633
