model/checkpoint/train_sparse_feedback_dict_batch250_epoch_300\71_loss12.pt (torch, 4899 bytes, 10 tensors)

rnn.weight_ih_l0 f4 [8, 3]
0	0x3e50a2f3	0.2037466
1	0xbc7bf058	-0.015377127
2	0x3ed7ce8f	0.4214978
3	0xbd20dbb0	-0.03927201
4	0x3ed34eb0	0.4127097
5	0xbf32242f	-0.6958646
6	0x3de27d2f	0.11059033
7	0x3e28c4b9	0.16481294
8	0xbe99b222	-0.30018717
9	0xbd81d149	-0.06338746
10	0xbe3d18a7	-0.18466435
11	0xbe59ac86	-0.21257219
12	0x3cdac61c	0.026705794
13	0xbed738bc	-0.42035472
14	0xbe3f2bf4	-0.1866911
15	0xbe0d50fa	-0.13800421
16	0xbeb938ca	-0.3617614
17	0x3eec45b8	0.4614694
18	0xbda232a0	-0.07919812
19	0xbe9e092f	-0.30866382
20	0x3e3da760	0.1852088
21	0x3cd7e185	0.026352653
22	0x3e798ff7	0.24371324
23	0x3f66c9f6	0.9015192

rnn.weight_hh_l0 f4 [8, 8]
0	0xbeaff236	-0.3436448
1	0xbe8a36d1	-0.26994947
2	0xbeb1a62b	-0.3469709
3	0xbdf2c8fe	-0.118547425
4	0xbe538a69	-0.20658268
5	0x3e1fd3da	0.15608159
6	0xbea345f7	-0.31889316
7	0xbe5438b9	-0.20724763
8	0x3e4b546c	0.19856423
9	0x3df5b51c	0.119974345
10	0x3be7d083	0.007074417
11	0x3e81c00c	0.25341833
12	0xbe4bc841	-0.1990061
13	0x3dc15651	0.09440292
14	0xbcd1e7f2	-0.025623295
15	0x3ed0f977	0.40815327
16	0xbdb32161	-0.08746601
17	0xbdfcbbff	-0.12340545
18	0xbe1083a7	-0.14112721
19	0x3e1478b5	0.14499171
20	0xbde5d5db	-0.1122243
21	0x3d5111cf	0.051042374
22	0x3e25089d	0.16116567
23	0x3de5d5cc	0.11222419
24	0x3dba4dbd	0.09096859
25	0x3da6a921	0.081377275
26	0xbe987461	-0.2977629
27	0x3e01a1ce	0.1265938
28	0x3ebffa0b	0.37495455
29	0xbe1c9e2c	-0.15294713
30	0x3e8aeca0	0.27133656
31	0x3e839afe	0.25704187
32	0xbd4c5a89	-0.04989103
33	0x3ca23d6f	0.019804684
34	0xbe259fc4	-0.16174227
35	0x3e9081e5	0.28224102
36	0x3ea40dd1	0.3204179
37	0x3e592c46	0.21208295
38	0xbebff911	-0.3749471
39	0x3eba052f	0.3633208
40	0x3e41dc66	0.18931732
41	0xbd0fa043	-0.035064947
42	0x3e114025	0.14184625
43	0xbd906680	-0.070508
44	0xbebfcf63	-0.3746291
45	0x3de97c98	0.114007175
46	0x3e279058	0.16363657
47	0x3e4c1e20	0.19933367
48	0x3afdcd0f	0.001936348
49	0xbe758569	-0.23976673
50	0xbd81928b	-0.06326779
51	0x3cf861eb	0.030320128
52	0x3e2ea772	0.17056063
53	0xbe4b893d	-0.19876571
54	0xbe07337f	-0.13203238
55	0xbe32506d	-0.17413493
56	0xbeca8146	-0.39551753
57	0xbed1b3f8	-0.40957618
58	0xbdca420e	-0.0987588
59	0x3e472bc7	0.19450293
60	0x3dc11a4f	0.09428846
61	0xbe720b11	-0.23637034
62	0xbe110d31	-0.14165188
63	0x3e24f0d1	0.16107489

rnn.bias_ih_l0 f4 [8]
0	0x3e5245c5	0.20534427
1	0xbced0c0c	-0.028936408
2	0xbd038659	-0.032110546
3	0x3dd96963	0.10615804
4	0xbd73de12	-0.059537955
5	0xbe729fb0	-0.23693728
6	0xbe9398a2	-0.28827387
7	0x3dc389ed	0.09547792

rnn.bias_hh_l0 f4 [8]
0	0xbe3adc87	-0.18248187
1	0xbd3f9af4	-0.046778634
2	0x3e57207b	0.21008484
3	0x3ea0739d	0.31338206
4	0x3d9f336e	0.07773481
5	0x3e2a628b	0.16639154
6	0xbec1806a	-0.37793285
7	0x3e8ffa83	0.28120813

rnn.weight_ih_l1 f4 [8, 8]
0	0x3dd2378d	0.10264502
1	0xbed3f77f	-0.41399762
2	0xbd5d407e	-0.054016583
3	0xbdf8ab86	-0.121420905
4	0x3e37f6e9	0.17965282
5	0x3e36f61f	0.17867325
6	0x3d00d95b	0.031457286
7	0xbd86cc96	-0.065819904
8	0xbe00a042	-0.12561134
9	0x3cfbcd12	0.030737434
10	0xbe6537f1	-0.22384621
11	0xbebe970e	-0.3722462
12	0x3d189fe8	0.037261873
13	0x3d8ea6a5	0.06965379
14	0xbed6bd8f	-0.41941497
15	0x3c195706	0.009359127
16	0x3e5f6e93	0.21819524
17	0x3e6dd284	0.23224837
18	0x3e615017	0.22003208
19	0xbe03918a	-0.12848487
20	0x3e675c46	0.22593793
21	0x3e7a75db	0.24459021
22	0x3e58584b	0.21127431
23	0xbe8022dd	-0.250266
24	0x3eb172e2	0.3465796
25	0xbda5b694	-0.08091465
26	0x3e32c6ce	0.1745865
27	0x3eb54533	0.35404357
28	0xbdb333f9	-0.08750147
29	0x3e5cbec6	0.2155715
30	0x3e9479f1	0.28999284
31	0xbca4075c	-0.02002304
32	0xbd666f27	-0.056258347
33	0xbd5b067b	-0.053472977
34	0xbe965ad5	-0.29366174
35	0x3e43dca2	0.19127133
36	0xbe1286be	-0.14309213
37	0xbe31a52a	-0.17348161
38	0xbe90a53b	-0.2825106
39	0xbde8c323	-0.113653444
40	0xbe069dd2	-0.13146141
41	0xbe5ea667	-0.21743165
42	0x3e6d145e	0.231523
43	0xbe214b4a	-0.15751377
44	0x3e3ad461	0.18245079
45	0xbd71ee5f	-0.05906522
46	0x3e6e3592	0.23262623
47	0xbe5ee3fe	-0.2176666
48	0xbd56ccc5	-0.052441377
49	0xbd29962e	-0.041402988
50	0x3da14627	0.078747086
51	0x3d887dda	0.06664629
52	0x3e459e62	0.192987
53	0x3c843528	0.016138628
54	0xbd63bf79	-0.055602524
55	0xbe0e7787	-0.13912784
56	0xbe8f8afe	-0.2803573
57	0x3e8f9c57	0.28048965
58	0x3e0889a5	0.13333757
59	0x3e819efc	0.25316608
60	0x3d8f940b	0.07010659
61	0xbe8e0aac	-0.27742517
62	0xbe3a1ccc	-0.18175048
63	0xbe8fc8cc	-0.28082883

rnn.weight_hh_l1 f4 [8, 8]
0	0x3e29afaf	0.16570924
1	0xbe8d5a76	-0.2760808
2	0x3e9b7e0a	0.30369598
3	0xbe859cc1	-0.26096156
4	0x3c0511b3	0.008121896
5	0x3e9941e5	0.29933086
6	0x3e6c2ab6	0.23063168
7	0x3ea4e79c	0.32207954
8	0x3e4f3a9a	0.20237198
9	0xbecfa237	-0.40553448
10	0x3ea0bc22	0.31393534
11	0x3c088e03	0.0083346395
12	0x3e92e25a	0.28688318
13	0x3a07960a	0.0005172199
14	0xbe254725	-0.1614042
15	0x3d0015ee	0.031270914
16	0xbe32a8a0	-0.17447138
17	0xbd65b03e	-0.05607628
18	0xbd924539	-0.071421094
19	0xbda94dd5	-0.082667984
20	0xbdf9a5b4	-0.121898085
21	0xbde62428	-0.11237365
22	0x3eb70f91	0.35754064
23	0xbe2c2318	-0.16810262
24	0x3e4af29f	0.19819115
25	0xbd6ac943	-0.057320844
26	0x3dcb9657	0.099407844
27	0xbe3271c6	-0.17426214
28	0xbe90c165	-0.28272548
29	0xbcc91de8	-0.024550393
30	0x3eb33a1c	0.3500527
31	0x3e7d85c2	0.24758056
32	0x3e63005b	0.22168104
33	0xbe8ef714	-0.2792288
34	0xbd7d34af	-0.06181782
35	0x3df9ab50	0.121908784
36	0xbd85a961	-0.06526447
37	0xbe924845	-0.28570762
38	0x3dd66cdb	0.10469981
39	0xbe5741d0	-0.21021199
40	0x3c92d157	0.017922087
41	0xbe370015	-0.17871125
42	0x3e627380	0.22114372
43	0x3e2094ab	0.15681712
44	0x3e98df28	0.29857755
45	0xbe0637ac	-0.13107175
46	0xbda9b21f	-0.08285927
47	0x3d7682b8	0.060183257
48	0xbeaff30f	-0.34365126
49	0xbda60513	-0.081064366
50	0xbe1075c7	-0.14107428
51	0xbeab5143	-0.33460435
52	0xbeea3a3d	-0.45747557
53	0x3d0feab2	0.035135932
54	0x3c7bebce	0.015376044
55	0xbe5cea61	-0.21573783
56	0xbe4b10d8	-0.19830644
57	0x3ea635f2	0.32463032
58	0xbe3c2153	-0.18372087
59	0xbe152f79	-0.1456889
60	0xbda69fe8	-0.081359684
61	0xbe352678	-0.17690456
62	0xbd181800	-0.037132263
63	0x3d0267f2	0.03183741

rnn.bias_ih_l1 f4 [8]
0	0xbeaafb2c	-0.33394754
1	0x3db8bf36	0.090208456
2	0x3de6eda9	0.11275799
3	0xbec251bf	-0.37952992
4	0xbbfcaebe	-0.0077112606
5	0x3e38d47f	0.18049811
6	0x3da84c08	0.08217627
7	0x3d74ef73	0.05979867

rnn.bias_hh_l1 f4 [8]
0	0x3d85c427	0.06531554
1	0x3e189b74	0.1490305
2	0x3c0368e9	0.008020618
3	0x3e1e1c57	0.15440498
4	0x3cb6184f	0.022228388
5	0xbe7b13c7	-0.24519263
6	0xbe8341f0	-0.25636244
7	0xbcd72e07	-0.026267065

fc.weight f4 [2, 256]
0	0x3c4927ca	0.012277553
1	0xbd943482	-0.072365776
2	0xbd680411	-0.056644503
3	0xbc566d58	-0.013087593
4	0xbb139581	-0.0022519531
5	0xbb88eaca	-0.0041783797
6	0xbcee79de	-0.029110845
7	0xbdbe7674	-0.09299937
8	0xbd7896cc	-0.060690686
9	0xbc43b4af	-0.011944934
10	0x3b3ad152	0.0028506112
11	0xbb48f04a	-0.0030660802
12	0x3c426684	0.011865262
13	0xbd99a4f0	-0.075021625
14	0x3d0bf5ba	0.03416989
15	0xbd40466e	-0.046942167
16	0x3cb50236	0.02209578
17	0xbc305825	-0.010763203
18	0x3c4c041b	0.012452151
19	0xbbcbb24d	-0.0062163235
20	0x3c9bba1b	0.01900964
21	0xbdb5e331	-0.08881224
22	0x3d798129	0.060914192
23	0xbd7ee122	-0.062226422
24	0x3bfa0ec5	0.007631155
25	0x3bc13fa1	0.0058974777
26	0xbd020875	-0.031746347
27	0xbd0707b3	-0.032966327
28	0xbc433127	-0.011913574
29	0xbcc8f9f7	-0.024533255
30	0xbb51ec02	-0.003203154
31	0xbca8759c	-0.020563893
32	0xbc0e39d6	-0.008680781
33	0x3cbb517c	0.022866003
34	0x3baa1eec	0.0051916745
35	0x3c5701e3	0.013123008
36	0x3d7d4025	0.06182875
37	0xbc7ebdae	-0.015548153
38	0x3ccfa85f	0.02534884
39	0xbdbec053	-0.09314027
40	0xbce6f9bf	-0.02819526
41	0x3a570fe5	0.00082039676
42	0x3c3b3199	0.011425399
43	0x3c662a65	0.014048194
44	0xbc60e0a4	-0.0137254335
45	0xbc6b3700	-0.014356375
46	0xbc0108cf	-0.007875635
47	0xbbb8ed90	-0.005643554
48	0xbca7370b	-0.020411989
49	0xba8498af	-0.0010116304
50	0xbccc94b8	-0.024973258
51	0xbce3501c	-0.02774816
52	0x3c8f8f7a	0.01752447
53	0xbda9f630	-0.0829891
54	0x3d2a7f49	0.041625295
55	0xbdc4bacf	-0.096059434
56	0xbce7fb63	-0.028318113
57	0x3b344e16	0.0027512363
58	0x3c895e16	0.016768496
59	0xbc34bf54	-0.011031944
60	0xbcca5d7c	-0.02470278
61	0xbc6d2632	-0.0144744385
62	0x3c839cec	0.016066037
63	0xbd563d80	-0.052304745
64	0xbcdccad4	-0.026952185
65	0x3cae1e2c	0.021254621
66	0xbd0e67b1	-0.034766857
67	0x3bb7e4eb	0.005612006
68	0xbbd728f1	-0.00656616
69	0xbc9606df	-0.018313823
70	0xbc68e874	-0.014215577
71	0xbd1ff6d8	-0.039053768
72	0xbd558f09	-0.052138362
73	0x3c823eab	0.015899023
74	0x3c6a6521	0.014306338
75	0x3cc37990	0.023861676
76	0x3c767ff4	0.015045155
77	0xbc8f6137	-0.01750241
78	0x3d22d081	0.039749626
79	0xbd7fa6e6	-0.062415026
80	0x3c41395f	0.0117934635
81	0xbafddb33	-0.0019367695
82	0xbc6c488e	-0.014421595
83	0xbd408a8c	-0.04700713
84	0xbc1fb90d	-0.009748709
85	0xbd92d1ef	-0.07168948
86	0x3b67e457	0.0035383904
87	0xbd2a70bb	-0.041611414
88	0xbd06f30b	-0.032946628
89	0x3cfc8f7b	0.030830136
90	0x3a72eee2	0.00092671637
91	0x3c3d15a5	0.011540805
92	0x3c5033fe	0.012707708
93	0x3b7cec1c	0.003859288
94	0xbba7167d	-0.0050991164
95	0xbd3243a7	-0.04352155
96	0xbcc229d8	-0.023701593
97	0x3ae087a8	0.0017130272
98	0x3b7d8cdb	0.0038688693
99	0xbc0d4853	-0.0086232005
100	0x3c072ecf	0.008250906
101	0xbce490bf	-0.027901052
102	0x3ce2d693	0.027690208
103	0xbd3788cb	-0.04480819
104	0xbd423bc2	-0.04742027
105	0x3d03c1df	0.03216731
106	0xbd1c8526	-0.038212918
107	0xbbd1600e	-0.0063896244
108	0xbd09edd5	-0.03367408
109	0xbd321390	-0.043475688
110	0x3b870548	0.0041205026
111	0xbd806ba4	-0.06270531
112	0x3c235838	0.009969763
113	0x3cc32566	0.023821544
114	0xbad72a77	-0.0016415854
115	0x38c08961	9.180862e-05
116	0x3bac7e01	0.0052640443
117	0x3c5ac873	0.013353455
118	0xbcf6d2fb	-0.0301299
119	0xbb8280f4	-0.0039826576
120	0xbcbae96f	-0.022816388
121	0x3c6cf119	0.014461779
122	0xbae8afd2	-0.0017752594
123	0x3cdad668	0.026713565
124	0x3a904dbd	0.0011009496
125	0xbd2a931e	-0.041644208
126	0xbbc55f29	-0.006023307
127	0xbd2a5424	-0.04158415
128	0x3d112a41	0.035440687
129	0xbc381da8	-0.011237539
130	0x3b8d27b1	0.00430771
131	0xbd21a849	-0.03946713
132	0xbd0e3c4f	-0.034725484
133	0xbcec919d	-0.028878028
134	0xbbbddc8b	-0.005794113
135	0x3caa0338	0.020753488
136	0xbd1c7e9c	-0.03820668
137	0x3cf7a5ab	0.030230364
138	0xbc7f67b3	-0.015588689
139	0x3c876323	0.016526764
140	0x3c0e5f46	0.008689707
141	0x3a2cd2a5	0.0006592668
142	0x3acd2ced	0.0015653648
143	0xbd101187	-0.035172965
144	0x3c8f0d81	0.017462494
145	0xbc338c47	-0.010958738
146	0x3c46c9d5	0.012133081
147	0xbcf43d58	-0.029814407
148	0xbc93021c	-0.017945342
149	0xbc9eee89	-0.019400852
150	0x3ca3685c	0.019947223
151	0xbcc8a4cf	-0.02449265
152	0xbcb55475	-0.022134999
153	0x3d302508	0.043004066
154	0xbd300af0	-0.04297918
155	0x3d17c8f4	0.03705688
156	0xbccd40b3	-0.025055265
157	0x3cfba2e0	0.030717313
158	0xbd4e6fc5	-0.05039956
159	0x3cb25b6c	0.021772109
160	0x3c4494f0	0.0119984
161	0x3d14f62a	0.036367573
162	0x3c15bf37	0.009139827
163	0x3aa7aa31	0.001279181
164	0x3cb40063	0.02197284
165	0xbbefd201	-0.0073187356
166	0x3cd9c49d	0.02658301
167	0xbbe94b18	-0.0071195476
168	0x3c5b719c	0.013393786
169	0x3bd4fbb0	0.00649973
170	0xbc67867b	-0.014131184
171	0xbb0d9a41	-0.0021606835
172	0xbb0a04d2	-0.0021060002
173	0x3cbecf10	0.023292094
174	0xbc9bf968	-0.019039825
175	0xbafa7f9e	-0.0019111519
176	0x3cdd4814	0.027011909
177	0x3d3fc181	0.0468154
178	0x3c3caefb	0.011516328
179	0x3d3d90a7	0.04628053
180	0x3c5b44c9	0.013383099
181	0xbb4079fa	-0.0029369579
182	0xbcf107e8	-0.029422715
183	0x3d33c384	0.04388763
184	0x3c5514fd	0.013005492
185	0xbc507c15	-0.012724896
186	0xbc1fbd88	-0.009749778
187	0xbce16437	-0.027513606
188	0xbc3f417c	-0.011673328
189	0x3c50a814	0.012735385
190	0x3d229c73	0.039699983
191	0x3b18d3b3	0.0023319542
192	0x3d414654	0.04718621
193	0x3cd8734a	0.026422162
194	0x3ca8c2e1	0.020600738
195	0x3cf1de55	0.029524961
196	0x3d06c426	0.032901905
197	0x3c451df5	0.012031068
198	0xbd178c00	-0.03699875
199	0x3d30ff44	0.04321219
200	0x3d266d66	0.040631674
201	0xbcaacd1c	-0.020849757
202	0x3c9029d4	0.01759807
203	0xbce87e9d	-0.028380686
204	0xbb2a7b26	-0.0026013344
205	0x3c646c14	0.013941783
206	0x3ccb1070	0.024788111
207	0x3d03313a	0.032029368
208	0x3bec70a6	0.007215577
209	0x3cbf496a	0.023350436
210	0xbc1cf52d	-0.009579939
211	0x3cf0ddea	0.029402692
212	0x3b6607b3	0.0035099804
213	0x3c6fa753	0.014627296
214	0xbc99fb30	-0.018796533
215	0x3c87e00a	0.016586322
216	0x3d169525	0.03676333
217	0x3bc50ac6	0.006013247
218	0xbb9bf73e	-0.004759698
219	0xbc79b8c4	-0.015241805
220	0xbceae5a6	-0.028673958
221	0x3cfcfb8d	0.030881668
222	0xbc18c795	-0.009324928
223	0x3d0ab4a4	0.03386368
224	0x3c99453c	0.018709771
225	0x3cbb93d8	0.022897646
226	0x3bc8dd49	0.006129895
227	0x3d30e680	0.043188572
228	0xbc177f97	-0.009246728
229	0x3d53d042	0.051712282
230	0xbd2c3ba4	-0.042049065
231	0x3d0dbc1b	0.03460322
232	0x3c669e48	0.014075823
233	0xbc21aa8a	-0.00986732
234	0x3c060634	0.00818019
235	0x3cca7101	0.024712088
236	0xbccbbb7f	-0.024869679
237	0x3d3ae263	0.045626055
238	0xbb2e53b4	-0.0026600184
239	0x3d53b126	0.051682614
240	0xbca89dbf	-0.020583032
241	0x3a9388d6	0.001125599
242	0xbc02291f	-0.007944374
243	0x3c94e603	0.018176084
244	0xbcdaa3da	-0.026689459
245	0xbbafc429	-0.0053639603
246	0x3c72f9e4	0.014830086
247	0xbbd686c7	-0.0065468284
248	0x3d4f7dc9	0.050657067
249	0xbc9b2901	-0.01894045
250	0x3c645152	0.013935404
251	0x3a5c2a91	0.0008398677
252	0xbbadafab	-0.0053004823
253	0x3c4af197	0.012386701
254	0xbd1d77b6	-0.038444243
255	0x3d250c7e	0.040295117

fc.bias f4 [2]
0	0x3cc5adc1	0.024130704
1	0xbc4bb143	-0.012432399
