weight/traced_model_loss123_epoch200_gpu_withcontrol2_seq1000_Hz_50.pt (torch, 2851 bytes, 10 tensors)

rnn.weight_ih_l0 f4 [8, 1]
0.119176276 2.4928286 0.594776 -1.1737679 -0.3928185 -0.3805572 0.047440853 -1.1281157
00000000: b112 f43d 818a 1f40 3d43 183f 073e 96bf
00000010: 821f c9be 65d8 c2be 5751 423d 1866 90bf

rnn.weight_hh_l0 f4 [8, 8]
-0.19383672 1.1805311 0.3495991 0.33804473 -0.10413369 -0.58351773 0.115794584 -0.19902356
-0.51302713 -0.42818284 0.35858488 0.64669937 -0.0012400665 -0.36208206 -0.1274688 -0.4932127
-0.20975637 -0.17350891 0.19700044 -0.10912893 -0.48780483 0.042946573 -0.39522123 -0.81445295
-0.08758925 -0.04032499 -0.07015273 0.123997234 0.17342122 0.083423905 0.087613955 -0.27905777
-0.33237243 0.36464658 0.04575677 0.20731346 0.22925851 0.017822314 -0.6813299 -0.0034979705
-0.20965642 -0.15881145 0.10762747 -0.36128232 -0.76880383 -0.23923497 -0.011147096 0.093631305
0.32685152 0.47896305 -0.2779996 0.063246176 -1.2017641 -0.7627783 1.2664951 -0.42847946
0.33291665 0.60958076 0.7088865 -1.5297533 -0.43732086 -0.12023591 -0.09805256 0.404862
00000000: 227d 46be a51b 973f a7fe b23e 3314 ad3e
00000010: 0b44 d5bd 6b61 15bf b625 ed3d d5cc 4bbe
00000020: bf55 03bf c83a dbbe 7098 b73e 178e 253f
00000030: ba89 a2ba d262 b9be 2e87 02be 6086 fcbe
00000040: 60ca 56be 52ac 31be 7cba 493e fd7e dfbd
00000050: 8ec1 f9be bfe8 2f3d 705a cabe fd7f 50bf
00000060: fe61 b3bd d12b 25bd 3cac 8fbd 43f2 fd3d
00000070: 5595 313e 27da aa3d f26e b33d a9e0 8ebe
00000080: b82c aabe f5b2 ba3e 736b 3b3d fb49 543e
00000090: bec2 6a3e 1a00 923c a36b 2ebf 353e 65bb
000000a0: 2cb0 56be 789f 22be ca6b dc3d fff9 b8be
000000b0: 54d0 44bf 03fa 74be 4fa2 36bc c5c1 bf3d
000000c0: 1559 a73e a53a f53e f755 8ebe 3687 813d
000000d0: 68d3 99bf 7045 43bf 831c a23f a961 dbbe
000000e0: 0d74 aa3e 7c0d 1c3f 9679 353f f5ce c3bf
000000f0: 85e8 dfbe 3f3e f6bd c8cf c8bd 124a cf3e

rnn.bias_ih_l0 f4 [8]
0.11583089 0.33381265 0.35214457 -0.2964089 -0.2300338 0.121249385 -0.6644058 -0.037377954
00000000: bf38 ed3d 7ee9 aa3e 4b4c b43e e8c2 97be
00000010: fb8d 6bbe 9951 f83d 8016 2abf a019 19bd

rnn.bias_hh_l0 f4 [8]
-0.26669288 0.051124513 0.21660258 0.21286146 0.107429765 0.26648235 -0.7837816 -0.20979463
00000000: f88b 88be f067 513d 11cd 5d3e 5bf8 593e
00000010: 2304 dc3d 6070 883e e9a5 48bf 67d4 56be

rnn.weight_ih_l1 f4 [8, 8]
0.19143924 0.10006218 -0.3552834 -0.14242317 0.100928016 0.0985639 -0.32046896 0.3096368
0.40823847 -0.3032945 -0.11394299 -0.47479573 -0.26164356 -0.17507832 0.31064278 0.12210169
-0.101408996 0.15490378 -0.29869956 0.64020824 -0.46573544 -0.3276455 -0.059961252 -0.2342692
0.17440821 0.09450633 -0.099782236 -0.14349832 -0.21113409 0.03259383 0.64962935 -0.056215193
-0.23040445 0.35545918 0.036110546 -0.5318574 0.26038855 -0.087175764 0.028849078 -0.01710418
0.031042118 -0.14551201 -0.5237642 0.015730979 -0.17169102 0.002161649 0.19184788 -0.09279183
0.875022 -0.5929195 -0.2517071 -0.63117105 -0.26147395 -0.13316636 -0.3691772 0.21154977
0.21630658 0.2368113 0.032112516 -0.4362116 -0.21342921 0.1693094 -0.27175367 0.27397597
00000000: a608 443e 66ed cc3d b5e7 b5be 61d7 11be
00000010: 59b3 ce3d dfdb c93d 8214 a4be b788 9e3e
00000020: a204 d13e 6b49 9bbe f15a e9bd 6d18 f3be
00000030: 25f6 85be bb47 33be 920c 9f3e 7310 fa3d
00000040: 85af cfbd 199f 1e3e 26ef 98be b0e4 233f
00000050: e074 eebe 27c1 a7be ee99 75bd 44e4 6fbe
00000060: 1198 323e 898c c13d a15a ccbd 39f1 12be
00000070: 8933 58be 1c81 053d 1c4e 263f e741 66bd
00000080: 25ef 6bbe bffe b53e a7e8 133d ce27 08bf
00000090: a651 853e 3589 b2bd e754 ec3c 111e 8cbc
000000a0: 0a4c fe3c 1a01 15be 6915 06bf 41de 803c
000000b0: c5cf 2fbe 74aa 0d3b c573 443e a509 bebd
000000c0: 7101 603f 93c9 17bf c1df 80be 6d94 21bf
000000d0: eadf 85be c35c 08be cb04 bdbe 81a0 583e
000000e0: 797f 5d3e a97e 723e 6a88 033d 2057 dfbe
000000f0: 308d 5abe 715f 2d3e 4c23 8bbe 9446 8c3e

rnn.weight_hh_l1 f4 [8, 8]
0.7413145 0.08495169 0.23662229 0.44543943 -0.1499651 -0.21108016 -0.018739993 -0.15740696
-0.98855585 1.0673593 -0.48688376 -0.65491456 -0.47032025 0.11616543 -0.40726405 0.012528391
0.4057221 -0.4213498 0.44154364 0.0014294047 -0.0074096434 -0.28364626 -0.37325656 0.053150747
0.29995513 -0.012901825 -0.25332338 0.8339371 -0.700788 -0.25935254 -0.20423704 -0.29376325
0.09773652 -0.1531064 0.5742692 -0.13074097 0.31183445 0.38150102 -0.27487257 0.23958886
-0.1795694 -0.21245779 -0.15437959 -0.39277163 0.5839727 0.7904715 -0.32976443 0.006036854
-1.1264386 -0.28895214 -1.1691029 -0.2528398 -0.5075593 -0.07933447 0.6907561 0.3302898
-0.29446632 -0.30729392 0.2848312 -0.28698033 0.48826888 0.90349364 0.21603505 0.047153976
00000000: c9c6 3d3f 27fb ad3d 1d4d 723e a310 e43e
00000010: 7490 19be 6625 58be 9d84 99bc 4a2f 21be
00000020: ff11 7dbf 3b9f 883f d448 f9be 7ba8 27bf
00000030: d1cd f0be 24e8 ed3d ea84 d0be e143 4d3c
00000040: cfba cf3e 29bb d7be 0212 e23e dd5a bb3a
00000050: 98cc f2bb 153a 91be 7c1b bfbe 99b4 593d
00000060: b893 993e 2d62 53bc 9ab3 81be e77c 553f
00000070: d866 33bf dbc9 84be 8423 51be 2368 96be
00000080: 162a c83d edc7 1cbe 4e03 133f f6e0 05be
00000090: c4a8 9f3e 1a54 c33e 19bc 8cbe c856 753e
000000a0: 0ae1 37be 898e 59be af15 1ebe 5d19 c9be
000000b0: 3c7f 153f 575c 4a3f e2d6 a8be cdd0 c53b
000000c0: 242f 90bf 89f1 93be 2aa5 95bf 3874 81be
000000d0: 68ef 01bf 1c7a a2bd 64d5 303f bf1b a93e
000000e0: 4ac4 96be a155 9dbe 65d5 913e 16ef 92be
000000f0: 61fe f93e 5c4b 673f 4b38 5d3e 8724 413d

rnn.bias_ih_l1 f4 [8]
0.0123485895 0.20497483 0.28830445 -0.51042765 0.011501234 -0.20256653 0.41034 0.078172386
00000000: bd51 4a3c ece4 513e a49c 933e 63ab 02bf
00000010: ac6f 3c3c 9a6d 4fbe 1618 d23e d818 a03d

rnn.bias_hh_l1 f4 [8]
0.00031425923 -0.4273334 -0.004016653 -0.029076464 -0.24621543 -0.12966691 0.3361095 0.29415196
00000000: 29c3 a439 72cb dabe 219e 83bb c431 eebc
00000010: e61f 7cbe 67c7 04be 8b16 ac3e 169b 963e

fc.weight f4 [2, 8]
-0.08397868 -0.011680876 0.034078404 -0.12262859 0.024192605 0.15261914 0.00023272492 0.0126692075
2.5131826 -0.80418885 1.1533879 0.15356192 0.83355045 -0.4113784 -0.8177462 -0.1626001
00000000: 04fd abbd 2561 3fbc cc95 0b3d b324 fbbd
00000010: 922f c63c 3148 1c3e 9f07 7439 8292 4f3c
00000020: fcd7 2040 52df 4dbf 37a2 933f 563f 1d3e
00000030: 9063 553f 31a0 d2be d157 51bf a480 26be

fc.bias f4 [2]
-0.0066594444 -0.11014517
00000000: 7837 dabb ca93 e1bd
