weight/traced_model_loss123_epoch200_gpu_withcontrol_seq1000_Hz_50.pt (torch, 2851 bytes, 10 tensors)

rnn.weight_ih_l0 f4 [8, 1]
0	0x3e2da22b	0.16956393
1	0x3e30f798	0.1728195
2	0x3db135e0	0.08652854
3	0x3d9a4fa6	0.07534723
4	0x3e515407	0.2044221
5	0xbe788107	-0.2426797
6	0x3cd38e4b	0.025824687
7	0xbd6d3c8c	-0.05791907

rnn.weight_hh_l0 f4 [8, 8]
0	0xbf7f888a	-0.9981772
1	0xbe886238	-0.26637435
2	0x3e026d67	0.12737046
3	0xbe836238	-0.25660872
4	0xbea6eb4a	-0.32601386
5	0x3d8d0aea	0.06886847
6	0x3ebec2b9	0.37257937
7	0xbdbaa9fa	-0.09114452
8	0xbeced387	-0.40395758
9	0xbf97cafc	-1.1858821
10	0xbda1c1c4	-0.07898286
11	0xbf04cd64	-0.518759
12	0xbf04bb63	-0.5184843
13	0x3ee46bb4	0.4461342
14	0xbeeee918	-0.4666221
15	0xbcfe8318	-0.03106837
16	0xbdec5b10	-0.11540806
17	0xbf1b791f	-0.6073169
18	0xbe45574c	-0.19271582
19	0x3d669a1d	0.056299318
20	0xbee9a20a	-0.45631438
21	0x3f09892f	0.5372495
22	0xbe39cabe	-0.18143746
23	0xbec8963e	-0.39177126
24	0x3db8a3de	0.0901563
25	0x3e27ee82	0.16399577
26	0x3e055b5a	0.13023129
27	0xbedb56e3	-0.42839727
28	0x3cd5ec5e	0.026113685
29	0xbe480e43	-0.1953669
30	0x3df13386	0.117774054
31	0x3e33aa74	0.17545491
32	0x3e99ad34	0.30014956
33	0x3f497f89	0.7871023
34	0xbd9c5dca	-0.07635076
35	0x3ec39e03	0.3820649
36	0xbd543603	-0.051809322
37	0xbf7e01b9	-0.9922138
38	0xbd08fad5	-0.033442337
39	0x3dfca39d	0.12335894
40	0x3f8901f8	1.0703726
41	0x3e0daf3f	0.13836382
42	0xbe545c01	-0.20738222
43	0xbe0d1222	-0.13776448
44	0x3f8331a2	1.0249522
45	0x3e630dd6	0.22173247
46	0x3d91bfd4	0.071166664
47	0x3d822272	0.06354226
48	0xbe28d762	-0.16488412
49	0x3e3e16b0	0.18563342
50	0xbdb0efbb	-0.08639475
51	0xbe705a6a	-0.2347199
52	0xbd84f850	-0.06492674
53	0x3da0cb25	0.07851247
54	0xbee5f2e2	-0.44911867
55	0xbc850a21	-0.016240181
56	0x3e1413dd	0.14460702
57	0x3d201ec9	0.03909186
58	0x3e276af1	0.16349389
59	0xbf8a3a2e	-1.0799005
60	0x3f128c94	0.57245755
61	0xbef31541	-0.47477153
62	0xbca1e30b	-0.019761583
63	0xbf7b0963	-0.980612

rnn.bias_ih_l0 f4 [8]
0	0xbe4c79af	-0.19968294
1	0x3e9a43d1	0.30129865
2	0xbd630eb2	-0.055433936
3	0xbd14ede1	-0.03635967
4	0x3d6af67f	0.057363983
5	0x3e909cf5	0.2824475
6	0x3dbb82e5	0.091558255
7	0x3d582523	0.05276979

rnn.bias_hh_l0 f4 [8]
0	0x3e9319f2	0.28730732
1	0xbe624384	-0.22096068
2	0xbd0ac3a8	-0.033878
3	0x3eed0194	0.46290267
4	0xbe948e44	-0.2901479
5	0xbe1dae02	-0.1539841
6	0xbcb49002	-0.022041325
7	0x3ea2b57c	0.31779087

rnn.weight_ih_l1 f4 [8, 8]
0	0x3eb53289	0.35390118
1	0x3e8080d1	0.2509828
2	0xbe92beaa	-0.2866109
3	0xbda8fdc4	-0.08251527
4	0x3e13182c	0.1436469
5	0xbf062252	-0.5239612
6	0x3df9e6a8	0.12202197
7	0xbf6ad0fc	-0.91725135
8	0xbec2838f	-0.37990996
9	0xbd8e3059	-0.06942815
10	0xbbcac363	-0.0061878427
11	0xbe28a661	-0.16469719
12	0xbe2e0720	-0.16994905
13	0x3da452b0	0.08023584
14	0x3d262632	0.04056377
15	0x3e7675fa	0.24068442
16	0xbe6622e7	-0.22474252
17	0xbeca3b62	-0.3949843
18	0xbe8ca73f	-0.2747135
19	0xbe81a154	-0.25318396
20	0xbd91acea	-0.07113059
21	0xbe1c45f4	-0.1526106
22	0x3daba020	0.08380151
23	0xbf328666	-0.69736326
24	0xbe16ccf9	-0.14726628
25	0x3ec01de8	0.37522817
26	0x3d005557	0.031331386
27	0xbd90bae3	-0.07066896
28	0xbe3c334b	-0.18378942
29	0xbe5a9a7b	-0.21347992
30	0x3d486bfe	0.048931114
31	0x3e2f617a	0.17127028
32	0x3e907ecd	0.2822174
33	0xbed78c47	-0.4209921
34	0xbe17bd23	-0.14818244
35	0x3e22a662	0.15883783
36	0x3ed261e2	0.41090304
37	0x3dbfb29d	0.0936024
38	0xbd9be399	-0.0761177
39	0x3ecc59b1	0.3991218
40	0xbd974a8c	-0.073872656
41	0x3ad8b88d	0.0016534493
42	0xbe22836b	-0.15870444
43	0xbe0dccec	-0.13847703
44	0xbda57f73	-0.0808095
45	0xbe46f0a2	-0.19427732
46	0x3dbd3f46	0.09240584
47	0xbe96115c	-0.2931012
48	0xbe832700	-0.25615692
49	0x3e30724b	0.172311
50	0xbdc5ebbb	-0.09664103
51	0xbd926a07	-0.07149129
52	0xbf58d6f6	-0.84703004
53	0xbeebfba3	-0.4609042
54	0x3bb841d7	0.005623083
55	0xbee29283	-0.44252405
56	0xbe56c361	-0.20972969
57	0x3f07a82e	0.52990997
58	0x3e984c63	0.29745778
59	0xbe0e5c60	-0.13902426
60	0xbcf28af0	-0.029607266
61	0x3dba659f	0.09101414
62	0x3d08dc4d	0.03341322
63	0x3e7e8d4c	0.24858588

rnn.weight_hh_l1 f4 [8, 8]
0	0xbc9f8560	-0.019472778
1	0x3de474a5	0.11155061
2	0xbed806dc	-0.42192733
3	0xbe6685c9	-0.22511972
4	0x3ea92c1e	0.3304147
5	0x3be546f3	0.006996983
6	0xbf2052f7	-0.62626594
7	0x3e06e282	0.13172343
8	0x3e9c578e	0.3053555
9	0x3ee50835	0.44732824
10	0xbe2e990c	-0.1705057
11	0xbf0668ae	-0.5250348
12	0xbdc7eeb9	-0.097623296
13	0xbd149a8d	-0.036280204
14	0xbe46ff7d	-0.19433399
15	0x3e34952a	0.17635027
16	0xbeb3cccc	-0.35117185
17	0x3e4d6df2	0.20061472
18	0x3e38fac9	0.18064417
19	0x3e83ab77	0.25716755
20	0xbe539789	-0.20663275
21	0xbf008253	-0.5019886
22	0x3e98cdd4	0.29844534
23	0x3efdf742	0.49602705
24	0xbea74346	-0.32668513
25	0xbe977ad6	-0.29585904
26	0x3ec39bb6	0.38204736
27	0xbe3a8a85	-0.18216904
28	0xbe914670	-0.28374052
29	0x3ec5f657	0.38664505
30	0xbe1cd899	-0.15317
31	0x3dc04b91	0.09389413
32	0x3ce0cfa2	0.027442757
33	0xbe95b58c	-0.29240072
34	0xbf28f399	-0.659967
35	0xbeb41fe0	-0.3518057
36	0x3f058c48	0.5216718
37	0x3f549d0d	0.8305214
38	0x3f0e79b6	0.55654466
39	0x3d9c53fa	0.07633205
40	0xbc3c4905	-0.011492019
41	0xbebfc04d	-0.374514
42	0xbec1b66f	-0.37834498
43	0x3ea42613	0.32060298
44	0x3d69628a	0.05697874
45	0x3eecb785	0.46233764
46	0x3e88678a	0.26641494
47	0x3c07ae9d	0.008281377
48	0xbef43b1d	-0.4770135
49	0xbea5a905	-0.32355514
50	0x3efd955b	0.49528012
51	0x3ea0928e	0.31361812
52	0x3e0aaf21	0.13543369
53	0xbeef276e	-0.4670977
54	0x3f2dbfcd	0.6787079
55	0x3ee37893	0.44427928
56	0x3e16eeb1	0.14739491
57	0x3f0a1a2d	0.5394619
58	0x3ebdf943	0.37104234
59	0xbeecd0df	-0.46253106
60	0xbe948a0c	-0.2901157
61	0xbf2e999e	-0.6820315
62	0x3ed1736b	0.4090837
63	0x3f1c0a8c	0.60953593

rnn.bias_ih_l1 f4 [8]
0	0xbd9a8c72	-0.07546319
1	0x3e09c5b0	0.13454318
2	0xbe249236	-0.160714
3	0x3ecc1c64	0.3986541
4	0xbe13bd18	-0.14427602
5	0x3e2f4b26	0.1711851
6	0xbf15a8fa	-0.5846096
7	0xbdc9b97e	-0.09849833

rnn.bias_hh_l1 f4 [8]
0	0x3d69dce4	0.057095423
1	0x3cc62205	0.024186144
2	0x3ece1235	0.40248266
3	0x3e58d9ff	0.21176909
4	0x3e25bff7	0.1618651
5	0xbe57c2e7	-0.21070443
6	0xbeb20db3	-0.34776077
7	0xbefa4eb1	-0.48888162

fc.weight f4 [2, 8]
0	0xbdd75116	-0.10513513
1	0xbe2c8954	-0.16849262
2	0xbc820661	-0.015872182
3	0x3e891b94	0.26778853
4	0x3d5b7901	0.053582195
5	0x3eb8de87	0.36107275
6	0xbb158828	-0.002281675
7	0xbe3fb654	-0.18721896
8	0xbfd12a21	-1.6340982
9	0xc085ebd9	-4.18504
10	0x4027de20	2.6229324
11	0x3f941e60	1.157177
12	0xbf25234a	-0.6450697
13	0xc07be59a	-3.9358888
14	0xbdf12ab1	-0.11775721
15	0x40171137	2.3604257

fc.bias f4 [2]
0	0xbe2c0cbd	-0.16801734
1	0x3e838100	0.25684357
