weight/traced_model_loss1_epoch300_gpu_dataset4_seq1600_Hz_80.pt (torch, 2851 bytes, 10 tensors)

rnn.weight_ih_l0 f4 [8, 1]
00000000: b5c2 c9bd 795a ad3e 4fc2 92bf 2fad 23bf
00000010: 5c6b ba3f 15af 11c0 ebf2 d3bf 73cc 31bf
-0.098515905 0.33858088 -1.1465548 -0.6393613 1.4564013 -2.2763112 -1.6558508 -0.6945259

rnn.weight_hh_l0 f4 [8, 8]
00000000: 58cb cfbd e1ad d8bd bbea 563f 7529 14bf
00000010: 5537 d83e 1caf 52bf c5c9 5d3e 61f7 ed3e
00000020: 02cb 7dbe 0119 1bbe 695f 5dbf 7d5b 1f3f
00000030: 2eb1 c93e 1d3e 953e f66a cebd e20a bcbc
00000040: 484b 48be 7170 3e3e 1648 c8be 40b0 07bf
00000050: 415c e93d f950 afbd 9799 d3bd 8ba8 abbe
00000060: c645 3a3e f1d1 f6be 0ee0 2b3f 3e5e 673f
00000070: f2ed 5bbf 54f3 a23e a2e5 583f 310e 0a3f
00000080: c558 ca3d 2015 873c 4a91 3bbf 7c78 5d3f
00000090: 7a51 873d 12cb 983f 8f36 613e 73b0 debe
000000a0: fe0a 513f 0072 f3be 0f82 343f b8f9 e93e
000000b0: 98c3 febe d44c 34be 3fb6 583f 8057 403e
000000c0: dd55 99be 2026 a63e 9645 ce3e 0bfb 89bf
000000d0: b46b 37bd 18a6 96be d98e 34be b473 213e
000000e0: 1b0d b4be fc7b d33e 76da 1cbf 323f bbbf
000000f0: 78ce 1a3f b1cf efbf 7757 173f 6808 713f
-0.101462066 -0.1058004 0.8395192 -0.5787576 0.42229715 -0.82298446 0.21659 0.46477798
-0.24784473 -0.15146257 -0.8647371 0.62248975 0.3939299 0.2914895 -0.10078995 -0.022954408
-0.19559968 0.1859758 -0.39117497 -0.5300331 0.11394549 -0.08560366 -0.10332029 -0.33527026
0.18190679 -0.48207048 0.67138755 0.9037818 -0.8590995 0.3182627 0.8472539 0.53927904
0.09880213 0.016489565 -0.7326857 0.8651197 0.06607337 1.1936972 0.21993469 -0.43493995
0.816574 -0.47547913 0.70510954 0.45698333 -0.497586 -0.17607433 0.84653085 0.18783379
-0.2994832 0.32450962 0.40287465 -1.0779737 -0.044780448 -0.29423594 -0.17632617 0.15766793
-0.3516625 0.4130553 -0.61270845 -1.4628661 0.60471296 -1.8735257 0.59117836 0.9415345

rnn.bias_ih_l0 f4 [8]
00000000: b261 353c 3f77 bfbc 9df3 183d 5908 eb3d
00000010: c53b 0ebf 5b7c e33e 7bff 723e 7804 9a3e
0.011070656 -0.02337229 0.037341703 0.114762016 -0.5555995 0.44430813 0.2373027 0.30081534

rnn.bias_hh_l0 f4 [8]
00000000: 2afc 6cbe c827 0f3e 4c82 d3bd 2598 00be
00000010: 1284 febd fb51 433f 63d4 103f 7071 08be
-0.23143068 0.13980019 -0.103275865 -0.12558039 -0.12427534 0.7629697 0.56574076 -0.13324523

rnn.weight_ih_l1 f4 [8, 8]
00000000: 3234 78bd 21d9 53bc 3ea8 213e 232b 71be
00000010: 01fb c93c 3cf6 6bbd 688c cfbd fa69 c53d
00000020: 54a7 413d 5eca 55bd cf28 43be a359 9fb9
00000030: f713 dcbe cacb a5bb a0f2 ccbe 6a55 19be
00000040: 0226 323e 2565 46bf dca3 fc3e d5d9 f43e
00000050: 9dc4 723e 3a78 63be 754e 1fbe cf44 143e
00000060: a58d e03e 4e8c e43e 8619 ef3e 7ec5 b53d
00000070: 02b5 05bf 3895 f23e e933 973e 88c7 b23e
00000080: e892 bdbd a19a ed3e 70d8 5f3e c162 c23e
00000090: b612 5a3e d388 f23e f1f8 2d3f 13dd 353e
000000a0: 3d80 8dbd a59a dfbe 6bea 323f d6cc 92be
000000b0: c1d4 ebbe 7e84 263f 8a83 313d a190 72bf
000000c0: 3e1e 9cbe d147 c63c 564d 753f fb21 f53b
000000d0: 4973 3ebd 66f5 2e3f 79d3 053f 9b3c 2ebf
000000e0: 1049 febe eec6 9e3e 2051 f53e 73bf 543e
000000f0: 22f0 36be d2c4 893e b7e1 edbd 5e04 2dbe
-0.060596652 -0.0129301855 0.15786836 -0.23551612 0.02465582 -0.057607874 -0.10134202 0.09639354
0.047278717 -0.052194946 -0.19058536 -0.00030393628 -0.42983982 -0.005059694 -0.40028858 -0.14973989
0.17397311 -0.77498084 0.49343765 0.47822443 0.23707815 -0.22213832 -0.15557273 0.14479373
0.43858066 0.44638294 0.4669916 0.08875559 -0.5222932 0.4737947 0.29531792 0.34917855
-0.09256536 0.46407035 0.21859908 0.37965968 0.212962 0.47370014 0.6795798 0.17760114
-0.06909225 -0.43672672 0.69888943 -0.28671902 -0.46060756 0.6504592 0.043338336 -0.94751936
-0.30491823 0.024204167 0.9582113 0.0074808574 -0.046496663 0.683432 0.52275807 -0.68061227
-0.49665117 0.31011146 0.47913456 0.20776157 -0.17865041 0.26907974 -0.11615317 -0.16896197

rnn.weight_hh_l1 f4 [8, 8]
00000000: fe85 0440 87db 303f 8f9c fbbe eab7 333f
00000010: 633d b2be 685e 16bf c1ae 803e 3cc8 a23e
00000020: 9425 bd3e 8354 f23f 1a30 adbe e2ae 573f
00000030: 3998 0fbf 7b98 4bbf c91c ee3e 1172 32bf
00000040: 5312 b5be 3150 0d3f dd31 ec3f 2dd8 793e
00000050: a3b0 41be 862b 13bf 8080 bebe 4886 68bf
00000060: 9ce1 e63e 7da1 1a3f cca4 0d3e 3f8d fc3f
00000070: 730e 393e 6b5a bbbf cf3b 283f 2a4a 223f
00000080: 151a 18bf d2a0 fdbe 9d92 1bbe 02c4 ad3e
00000090: 67e5 f63f dce9 743f f1f1 87bf 1d4c 043f
000000a0: ddb2 2fbe 6596 3e3e 20ae abbe 2ba4 fdbe
000000b0: 1a79 97be 2627 0c40 ebd9 403f 37eb 633e
000000c0: f445 8c3e 6eaa 033f 4ac1 333f 51ec 46be
000000d0: abe6 e8bd f74f 25bf f937 b13f 71e7 7e3e
000000e0: 6bab 223f dc75 a63e d67b 4bbf 4e34 85be
000000f0: bb5b a7be f556 fe3e 5bfe 953e bc4f 2540
2.0706782 0.6908497 -0.49142882 0.70202506 -0.3481246 -0.587378 0.25133327 0.31793392
0.36942732 1.8932041 -0.3382576 0.84251225 -0.5609165 -0.7952954 0.46506336 -0.697053
-0.35365543 0.5520049 1.8452717 0.24398871 -0.18915038 -0.57488286 -0.37207413 -0.90829897
0.45094 0.6040266 0.13832396 1.9730605 0.18071918 -1.4636968 0.6571626 0.63394415
-0.594148 -0.4953676 -0.15192647 0.33938605 1.9288758 0.9566934 -1.062071 0.5167864
-0.17158075 0.18612058 -0.33531284 -0.49539313 -0.2958458 2.1898894 0.75332516 0.22257696
0.2739712 0.5143193 0.7021681 -0.19426085 -0.113721214 -0.6457514 1.3845206 0.24892975
0.63542813 0.32511795 -0.79485834 -0.26016468 -0.32687172 0.49675718 0.2929562 2.5829916

rnn.bias_ih_l1 f4 [8]
00000000: cd3d 813c 2b67 45be 9b73 b9bc 5409 c43c
00000010: 2ca3 f33d b581 35bd 6ade da3d b12c 38bf
0.01577654 -0.19277637 -0.022638133 0.02393023 0.11896357 -0.04431315 0.10686953 -0.71943194

rnn.bias_hh_l1 f4 [8]
00000000: b823 85be b1b5 adbe 1356 6e3d 8098 17bf
00000010: 99d6 ccba 0d16 fa3e 9ea5 a23d cf3d 11be
-0.26003814 -0.33927682 0.058187556 -0.5921707 -0.001562792 0.48844948 0.07941745 -0.14183734

fc.weight f4 [2, 8]
00000000: 533c fa3b 3cde 183d 7ea2 613c 1208 9cbd
00000010: 4a63 a63d fa9d 9a3d 1e12 c23d 494f dc3c
00000020: 2756 b93e 00e3 5fbe 1029 b0bd 68d4 97be
00000030: 13ef 6cbf 3738 303f 9e44 f83e 3d97 59bf
0.0076365857 0.037321314 0.013771651 -0.07618727 0.08124407 0.07549663 0.09476112 0.026893275
0.36198542 -0.21863937 -0.08601582 -0.2965424 -0.925523 0.6883578 0.4848985 -0.84996396

fc.bias f4 [2]
00000000: 5a2e 62bd e9fc b0be
-0.055219986 -0.34567955
