weight/trace_direct_dict_real_batch_20_epoch_5000_loss1.pt (torch, 2851 bytes, 10 tensors)

rnn.weight_ih_l0 f4 [8, 1]
000000 e1 9c fd bf bf 07 8e 40 39 5e 09 be 87 c8 57 c0
       -1.9813501 4.4384456 -0.1341485 -3.3716142
000010 0c bb 8b 3d 5f dc 30 40 34 b6 7f c0 37 5a 81 bd
       0.06822786 2.7634504 -3.9954958 -0.06316035

rnn.weight_hh_l0 f4 [8, 8]
000000 c2 81 84 bf 04 91 5f bf 10 b0 83 40 ff db 1d 3f
       -1.0352099 -0.8733065 4.115242 0.6166381
000010 ee 0d 06 c0 43 41 d6 bf 2d 39 99 3e 78 93 50 bf
       -2.0946002 -1.6738666 0.29926434 -0.8147502
000020 ca f2 0b 3f 7f 13 87 bf b2 77 c4 3f 2c 48 27 bf
       0.5466734 -1.0552825 1.5349028 -0.653445
000030 92 41 f9 bf 8d f5 07 bf 06 3e bb 3e 66 40 a5 be
       -1.9473135 -0.53109056 0.36570758 -0.32275695
000040 8c 83 ff be b0 80 28 3e 0f d3 06 c0 fe 80 83 40
       -0.4990505 0.1645534 -2.106632 4.109496
000050 a6 04 e4 3e 08 ff bc bf 7e 75 5e 3e 9e cd af 3f
       0.44534796 -1.4765329 0.21724507 1.3734624
000060 47 6f 30 40 c4 25 4a 40 7f b0 e5 3f 9b 2c 8d 3e
       2.7567918 3.158555 1.7944487 0.27573094
000070 dc 00 94 3e c0 86 ac 3f 12 cd b4 3e b0 05 29 c0
       0.28906906 1.3478622 0.35312706 -2.6409721
000080 1c 09 17 bf f3 91 4c 40 03 9f 4c be cd c8 1e bf
       -0.58998275 3.196408 -0.19982533 -0.6202515
000090 6f dd a4 c0 f5 e6 00 40 c1 c3 f5 bd e3 14 72 bf
       -5.1520305 2.0140965 -0.12000228 -0.9456312
0000a0 1d be 83 be 0c 79 94 be e0 31 72 be b0 c2 4e bf
       -0.25730982 -0.289986 -0.23651838 -0.8076582
0000b0 55 25 d7 bf 72 02 43 bf 99 ee a9 bf f3 7b 91 3f
       -1.6808268 -0.76175606 -1.3275939 1.1365951
0000c0 c4 32 aa 3e 2c fa 1f c0 e3 5d 36 3f 1d 0f a0 3e
       0.33241856 -2.4996443 0.7123701 0.3126153
0000d0 33 26 65 3e 08 e7 aa bf b0 bc b3 be ed b8 73 3f
       0.22377853 -1.3351755 -0.35104895 0.9520405
0000e0 1c 71 94 c0 54 52 0c bf 6d 8e a4 bf d5 34 2a be
       -4.6388073 -0.5481312 -1.2855965 -0.16621716
0000f0 3c 9e 39 40 c4 4f 4e bf de 25 73 bf 70 01 8d bf
       2.9002829 -0.8059046 -0.94979656 -1.1016064

rnn.bias_ih_l0 f4 [8]
000000 93 43 fa 3f 78 e5 e0 3e d5 19 ce 3f c3 c2 fa 3e
       1.9551872 0.4392507 1.6101633 0.48976716
000010 70 c1 82 bf f2 e9 bc bf 27 a7 dd be 53 42 af bf
       -1.0215282 -1.4758894 -0.4329159 -1.3692116

rnn.bias_hh_l0 f4 [8]
000000 94 10 b1 3f b9 5b f7 3e 62 85 db 3f 79 d1 8a 3f
       1.3833184 0.48312166 1.715008 1.0845176
000010 35 40 aa bf 47 ff aa bf 79 6b cd be 22 03 9b bf
       -1.3300844 -1.3359154 -0.40121058 -1.2110331

rnn.weight_ih_l1 f4 [8, 8]
000000 93 fc 8b bb a8 e8 b4 bf 17 86 fb be a5 a5 c8 3f
       -0.0042720526 -1.4133501 -0.4912574 1.5675551
000010 13 f1 e2 3e b7 90 40 3e cc 77 27 3f f4 19 c0 bd
       0.4432455 0.18805204 0.6541717 -0.0937995
000020 c6 8b 47 3e d3 5e 54 bf 13 a8 27 bf b5 76 b0 be
       0.19486913 -0.8295719 -0.65490836 -0.34465566
000030 43 5d 6a bf da 79 c3 bf 05 db 9e 3f 3f ae c0 bc
       -0.91548556 -1.5271561 1.241059 -0.023520587
000040 e4 de 0a 3f c4 8f a5 3f e5 32 9e 3f ee 95 2a 3f
       0.54246354 1.2934499 1.2359282 0.66635025
000050 1d fa e2 3e 63 6f 8c 3f e0 70 db bf 28 ca a6 bf
       0.44331446 1.0971493 -1.7143822 -1.3030443
000060 47 16 53 bf 0f a5 64 3f 54 40 b2 3f d7 e8 0b 3e
       -0.8245587 0.8931436 1.3925881 0.1366304
000070 9f 24 31 bf 82 dd a0 3f 7c 4b 02 c0 74 af 21 3e
       -0.69196504 1.2567599 -2.0358572 0.15789586
000080 c0 40 a5 be fb f0 2f 3f 2a e2 b4 3c 46 6e 0c 3e
       -0.32275963 0.6872708 0.0220805 0.13713941
000090 cc bd 52 bf 33 6f c0 be f6 81 90 3e ff 0a b8 3e
       -0.8232086 -0.37584838 0.28224152 0.3594589
0000a0 8c 4f 9c 3e d4 25 87 3f 88 02 13 3d 8a 4e c0 be
       0.3052944 1.0558419 0.035891086 -0.3755992
0000b0 9b d1 16 3f c3 5c a0 3e ef 9c b9 bf 28 37 ab 3d
       0.5891358 0.31320772 -1.4501017 0.083601296
0000c0 e1 f0 17 bf 45 b9 c3 3f 54 5c 12 3f 6e c6 99 3e
       -0.5935193 1.5290915 0.5717213 0.30034202
0000d0 29 23 b0 bf c8 74 db be d6 a8 13 3f 49 94 21 3f
       -1.376073 -0.42862535 0.576795 0.6311689
0000e0 36 79 5f 3f bb 8c 3d be bd d6 28 3c 2e 49 39 3d
       0.8729433 -0.18510716 0.010305104 0.045235805
0000f0 67 55 51 3f 36 84 2d 3f f4 ea 56 bf 6e a2 27 bf
       0.8177094 0.6777986 -0.8395226 -0.65482223

rnn.weight_hh_l1 f4 [8, 8]
000000 12 be 3c 40 f3 76 c6 bf ba b5 76 bf e2 81 cd bf
       2.949101 -1.550505 -0.9637104 -1.6055262
000010 b5 75 ba be 1a f9 45 c0 f2 ff 7b 3e 9a 5d 1c 3f
       -0.36417928 -3.093329 0.24609354 0.61080325
000020 86 45 0d bf c6 32 10 40 ba 3a aa 3f f0 63 37 bf
       -0.5518421 2.253099 1.3299172 -0.7163687
000030 e7 51 51 bd 32 9c 14 40 10 f7 46 40 f7 59 3e 3f
       -0.0511035 2.3220334 3.1088295 0.74356025
000040 05 43 cb 3d f6 a5 21 c0 5a bc 45 40 59 4d 9e 3f
       0.09924892 -2.5257545 3.089621 1.2367355
000050 53 94 6c bf 0d 9f 4e bf ac 95 be be 47 01 e9 3e
       -0.92413825 -0.8071144 -0.37223566 0.45508787
000060 6b 32 0c 3f f6 ef 47 c0 8a 9b 20 40 a8 88 13 40
       0.5476443 -3.124021 2.5094934 2.3052158
000070 32 53 1b 3e 7b 2d f9 3e d0 12 72 bf 28 78 0f bf
       0.15168455 0.4866751 -0.94559956 -0.5604272
000080 42 da 78 c0 50 69 40 3e 70 56 5e 3f 50 bd b8 be
       -3.8883214 0.18790174 0.86850643 -0.36081934
000090 3c 06 79 40 08 de cb bd 6c 75 ff be 41 4a 39 3f
       3.8910055 -0.099544585 -0.49894273 0.7237893
0000a0 58 50 28 be 75 55 27 bf 13 2b 1e 40 fd 4e 9a 3f
       -0.16436899 -0.6536477 2.471379 1.2055355
0000b0 7d 7f 70 3f ce 3a 8f 40 3f 0d cb 3c 0b a5 93 3f
       0.9394453 4.4759283 0.02478659 1.1534742
0000c0 c5 1b e0 3f 4f 5b 1e 3f cd 24 d1 be ff 17 79 3f
       1.7508475 0.61858076 -0.4084839 0.9730224
0000d0 e6 f8 c8 3f 73 fa 66 bf dd 5d 3e 40 18 f0 43 c0
       1.5700958 -0.90225905 2.974479 -3.0615292
0000e0 8c bb 80 3f fd cc 3e 3f a1 e0 1a 3f 79 c9 b0 be
       1.0057235 0.7453154 0.60499007 -0.3452871
0000f0 ae 57 91 c0 1f c5 da 3f 6c b4 cb 3d cb da 5b 40
       -4.541953 1.7091407 0.09946522 3.435229

rnn.bias_ih_l1 f4 [8]
000000 d4 39 bd 3e a5 8a a1 be ba 7e 9f 3f 15 c3 88 3f
       0.36958182 -0.3155109 1.2460549 1.0684534
000010 ad 4b 9b be 28 59 20 be 5c 8e 15 bf 51 0a 29 bd
       -0.30331174 -0.1565901 -0.5842035 -0.041269604

rnn.bias_hh_l1 f4 [8]
000000 fc a5 50 3e e3 6f 26 3e b3 b4 6c 3f b0 43 69 3f
       0.20375818 0.16253619 0.92463225 0.9111891
000010 96 5f 16 be cd b9 fb be e8 5d 0f bf 59 e0 26 bd
       -0.146849 -0.49165192 -0.56002665 -0.0407413

fc.weight f4 [2, 8]
000000 bb ac 64 3d c9 d7 37 3d c9 51 1a bd f9 2a cd bc
       0.05582879 0.044883523 -0.037675653 -0.025044905
000010 1f ea 8a bd 6e d6 ff bc 52 d0 9a bc bc 0c b7 3d
       -0.06782936 -0.031230178 -0.018898163 0.08937976
000020 20 3e 05 3f 6c a5 8f 3f 48 28 58 bf 7a 66 33 be
       0.5204792 1.1222358 -0.84436464 -0.1751956
000030 ff 6a 84 be 2c 38 54 be bc 1a 7e 3f 81 78 18 be
       -0.25862882 -0.20724553 0.99259543 -0.14889719

fc.bias f4 [2]
000000 75 be cb 3d 1f a5 4e 3e
       0.09948436 0.20180176
