weight/traced_model_loss1_epoch200_gpu_withcontrol_seq500_Hz_50.pt (torch, 2851 bytes, 10 tensors)

rnn.weight_ih_l0 f4 [8, 1]
0	0x3e25effa	0.16204825
1	0x3fac1709	1.344453
2	0xbd785ff8	-0.060638398
3	0xbe6d999a	-0.23203126
4	0x3fa29e65	1.2704588
5	0xbf20eb7b	-0.62859315
6	0xbf888544	-1.066567
7	0x3f52880b	0.82238835

rnn.weight_hh_l0 f4 [8, 8]
0	0x3f8a1d90	1.0790272
1	0xbe583bcc	-0.2111656
2	0xbf6fcf03	-0.9367525
3	0x3ec3ec8a	0.38266402
4	0xbeae6a31	-0.34065393
5	0x3ef3fc48	0.47653413
6	0xbf014a3d	-0.50503904
7	0xbf49bda0	-0.7880497
8	0x3ea81e06	0.32835406
9	0x3f7f4b22	0.9972402
10	0xbf7ec09b	-0.9951264
11	0xbd4604e2	-0.0483445
12	0xbd1b8fd3	-0.03797896
13	0x3e031257	0.12799965
14	0xbe217df3	-0.15770702
15	0x3eb8a6ba	0.36064702
16	0x3e35bd16	0.17747912
17	0xbedb3595	-0.42814317
18	0x3f88e6c6	1.0695426
19	0x3dbc3d58	0.09191388
20	0x3ebfbce8	0.37448812
21	0x3e504d7c	0.20342058
22	0x3f8a006c	1.0781379
23	0xbdcd1431	-0.10013617
24	0x3ec811c3	0.3907605
25	0xbee92dc5	-0.45542732
26	0x3c465016	0.012104055
27	0xbf3c7dec	-0.7362964
28	0xbea95638	-0.33073592
29	0xbe195bf8	-0.1497649
30	0x3e14409f	0.14477776
31	0xbc83dc7c	-0.016096346
32	0xbeaa3e7e	-0.33250803
33	0x3f40b490	0.75275517
34	0x3e2fa00b	0.17150895
35	0x3e833c3f	0.25631902
36	0x3f2d74ad	0.6775616
37	0x3e22727d	0.15863986
38	0x3f50d484	0.81574273
39	0xbf316579	-0.6929546
40	0x3bdee5db	0.0068023033
41	0x3fcbf28d	1.5933396
42	0xbe5b8a5f	-0.21439503
43	0xbefc00af	-0.49219272
44	0x3f03cdbb	0.51485795
45	0x3f8d3231	1.1030942
46	0xbe44365b	-0.1916136
47	0x3f067ef1	0.5253745
48	0x3e6eed0d	0.23332615
49	0x3ea6a8ca	0.3255065
50	0xbdfac126	-0.122438714
51	0x3e2d9837	0.16952597
52	0xbea00301	-0.31252292
53	0xbe5eed39	-0.21770181
54	0x3f8702df	1.0547751
55	0xbfb0eb74	-1.3821855
56	0xbee9ac5c	-0.45639312
57	0x3a8b5b6e	0.0010632107
58	0x3dee054a	0.116221026
59	0x3eb133ba	0.34609777
60	0xbdd3ef6f	-0.10348403
61	0xbf663666	-0.89926755
62	0x3e60c313	0.21949415
63	0x3f9872d6	1.1910045

rnn.bias_ih_l0 f4 [8]
0	0x3de48858	0.11158818
1	0xbea2d203	-0.3180085
2	0xbd2b918f	-0.041886862
3	0x3de508b2	0.11183299
4	0xbe65db67	-0.22446977
5	0xbf085e83	-0.53269213
6	0x3e24f6fa	0.16109839
7	0x3da39b6b	0.07988628

rnn.bias_hh_l0 f4 [8]
0	0x3dd94f5f	0.10610842
1	0xbdd0c463	-0.10193708
2	0xbc128fa1	-0.008945377
3	0x3eddb0b5	0.4329888
4	0x3e8555e9	0.26042107
5	0x3d49d3ff	0.04927444
6	0xbe9636d3	-0.29338703
7	0x3e9f0bfb	0.31063828

rnn.weight_ih_l1 f4 [8, 8]
0	0x3edf7214	0.43641722
1	0xbf66f4ca	-0.9021727
2	0x400aa27a	2.1661668
3	0xbf7a640c	-0.9780891
4	0xbe8fffe6	-0.28124923
5	0xbf861484	-1.0475011
6	0xbd0a4835	-0.03376027
7	0xbea5f47e	-0.32413095
8	0xbf2c7b04	-0.67375207
9	0x3f104ee4	0.5637038
10	0x3e07f0ad	0.13275404
11	0x3fb05844	1.3776937
12	0xbf10ac5d	-0.56513005
13	0xbf8ad2ca	-1.0845578
14	0xbf23d56d	-0.63997537
15	0xbf65e4f9	-0.8980251
16	0xbec1db9a	-0.37862855
17	0x3e93129e	0.2872514
18	0xbed9afef	-0.4251704
19	0x3f70fbb2	0.94134057
20	0x3e8411de	0.25794882
21	0x3efde7fb	0.4959105
22	0x3e842c4a	0.2581504
23	0xbe5f6036	-0.21814045
24	0xbfdf7853	-1.7458595
25	0xbfa1f0df	-1.2651633
26	0x3f3aef74	0.73021626
27	0xbe11dfe4	-0.14245564
28	0xbfcf9adb	-1.6219133
29	0x3e4b563a	0.19857112
30	0xbddc5286	-0.107579276
31	0xbfa1a044	-1.2627034
32	0x3ed0597a	0.40693265
33	0xbf96030b	-1.1719679
34	0x3f29aae1	0.66276366
35	0xbf2023c6	-0.62554586
36	0x3ff2e8c8	1.8977289
37	0xb9245975	-0.00015673584
38	0xbf8140d5	-1.009791
39	0x3f0522e1	0.52006346
40	0x3e484d21	0.19560672
41	0xbe910498	-0.28323817
42	0x3f64e967	0.89418644
43	0xbe7a5d31	-0.24449612
44	0xbeb5cd21	-0.35508063
45	0xbf54824e	-0.8301133
46	0x3f09a986	0.537743
47	0x3eca2fba	0.39489537
48	0x3f8a18a9	1.0788776
49	0x3e5163fe	0.204483
50	0x3e853a9d	0.2602128
51	0xbf916330	-1.1358395
52	0x3eae6b23	0.34066114
53	0x3f5fa45b	0.8736016
54	0xbf973060	-1.1811638
55	0x3d80cd0b	0.06289109
56	0x3fd69bef	1.6766337
57	0xbd93600d	-0.071960546
58	0x3eb884e4	0.36038888
59	0x3e97a14e	0.29615253
60	0xbe0aff77	-0.13574015
61	0xbea70207	-0.32618734
62	0xbeeea852	-0.46612793
63	0xbe4ef8fb	-0.20212166

rnn.weight_hh_l1 f4 [8, 8]
0	0x3f0662df	0.52494615
1	0xbf0fc50c	-0.56160045
2	0x3e4d5ef5	0.20055754
3	0x3f100a40	0.5626564
4	0x3f178739	0.5919071
5	0x3de53dc8	0.111934245
6	0x3e76c429	0.24098267
7	0xbe6423d7	-0.22279297
8	0xbe1a12a0	-0.15046167
9	0x3fb275df	1.3942221
10	0x3f6a4e7f	0.91526026
11	0x3e94c7b5	0.29058614
12	0xbf7dd628	-0.991549
13	0xbf3075fd	-0.68930036
14	0xbdb8eb9e	-0.090293154
15	0x3fbeac39	1.4896308
16	0x3f077e4b	0.5292708
17	0xbf54c8e0	-0.8311901
18	0x401ddf98	2.466772
19	0xbf953e17	-1.1659573
20	0x3f381aea	0.7191607
21	0x3ea22e2e	0.31675857
22	0xbf162275	-0.5864633
23	0xbee3ecc2	-0.4451657
24	0xbf186cf6	-0.5954126
25	0xbf4ac948	-0.7921338
26	0x3e305d12	0.17223004
27	0x3fcd2275	1.602614
28	0xbf9ef5dc	-1.241878
29	0x3f7104bb	0.94147843
30	0x3e542f49	0.20721163
31	0xbfa8efcd	-1.3198181
32	0x3eb0a1ba	0.34498388
33	0xbfc1c33b	-1.5137705
34	0xbe713263	-0.23554377
35	0xbf1077d0	-0.5643282
36	0x3f3f4d94	0.7472775
37	0xbf5064b8	-0.81403685
38	0xbef89217	-0.48548958
39	0xbf36d833	-0.71423644
40	0xbeab4837	-0.33453533
41	0xbf5d2007	-0.86376995
42	0x3e032194	0.12805778
43	0x3d20901a	0.039199926
44	0xc010533d	-2.2550805
45	0x3fcb55c4	1.5885549
46	0xbcb6acb4	-0.022299148
47	0xbf446320	-0.7671375
48	0xbf577607	-0.8416447
49	0x3f83844a	1.0274746
50	0xbd0c4fcc	-0.034255788
51	0xbf9f0e27	-1.2426194
52	0xbd5a49b4	-0.053292945
53	0x3e7efce4	0.24901158
54	0x3fb212c3	1.3911976
55	0x3fd9592b	1.6980337
56	0x3eae9007	0.3409426
57	0x3f806082	1.0029452
58	0x3ee2d91e	0.44306272
59	0x3efe7d0a	0.49704772
60	0x3e92787c	0.28607547
61	0xbfb4aca0	-1.4115181
62	0x3ffd52aa	1.9790852
63	0x402219b4	2.5328188

rnn.bias_ih_l1 f4 [8]
0	0x3f11569b	0.56772774
1	0xbddbe1ae	-0.10736404
2	0xbdfeb62f	-0.124370925
3	0x3ebb140b	0.3653873
4	0x3e0d4698	0.1379646
5	0xbf3dace0	-0.7409191
6	0xbf85b6bc	-1.0446391
7	0x3f2a1d40	0.6645088

rnn.bias_hh_l1 f4 [8]
0	0x3e7be1c2	0.24597839
1	0xbe6b1df9	-0.22960652
2	0xbd203a02	-0.03911782
3	0x3eed918c	0.46400106
4	0x3ef92155	0.48658243
5	0xbf2ad7c5	-0.6673549
6	0xbfa895d7	-1.3170727
7	0x3f42d610	0.76107883

fc.weight f4 [2, 8]
0	0x3cc0667b	0.023486366
1	0x3df6f51e	0.12058471
2	0xbca77ed1	-0.020446213
3	0xbc1243e1	-0.008927316
4	0xbcd03eb3	-0.025420522
5	0x3dedd3e5	0.11612681
6	0xbc301d17	-0.010749123
7	0xbc4fb56a	-0.01267753
8	0x3dc24c9d	0.09487269
9	0x3f824222	1.0176432
10	0x3f9a6265	1.2061278
11	0x3e925758	0.28582263
12	0xbcfb3ed4	-0.030669607
13	0x3e54c9c3	0.20780091
14	0x3d4eeb0f	0.050517138
15	0x3f530efa	0.8244473

fc.bias f4 [2]
0	0xbc027972	-0.007963525
1	0xbddb75c7	-0.107158236
