weight/traced_model_loss123_epoch200_gpu_dataset7_seq1000.pt (torch, 2851 bytes, 10 tensors)

rnn.weight_ih_l0 f4 [8, 1]
0	0xbb9d07ec	-0.004792204
1	0xbc3403b7	-0.010987214
2	0xbdc42540	-0.095774174
3	0x3da0a8c5	0.0784469
4	0x3ca4a636	0.020098787
5	0x3ca471c4	0.020073779
6	0xbe3cc463	-0.1843429
7	0xbc4c552e	-0.01247148

rnn.weight_hh_l0 f4 [8, 8]
0	0x3f2bff59	0.67186505
1	0xbed78453	-0.42093143
2	0x3bafb33c	0.0053619426
3	0x3d5421f3	0.05179019
4	0xbe027160	-0.12738562
5	0xbe90beee	-0.28270668
6	0x3e2da368	0.16956866
7	0xbdbfb6bd	-0.093610264
8	0xbed53a61	-0.41646102
9	0xbdf3c876	-0.11903469
10	0xbeabe8b1	-0.33575967
11	0x3df18783	0.11793425
12	0x3f214b2c	0.6300533
13	0xbe022fa2	-0.12713483
14	0xbe0ae917	-0.13565479
15	0xbe812229	-0.25221375
16	0x3edfb840	0.4369526
17	0xbde7d38d	-0.11319647
18	0x3ee2a04a	0.44262916
19	0x3d8783ed	0.0661696
20	0xbda34218	-0.07971591
21	0xbf0b7caf	-0.5448713
22	0xbc6c5eb8	-0.01442688
23	0xbd537207	-0.051622417
24	0x3e8a8332	0.2705322
25	0xbe84e0ae	-0.25952667
26	0xbe918188	-0.28419137
27	0xbf1603a7	-0.58599323
28	0x3eabafcc	0.3353256
29	0x3ea7c17b	0.327648
30	0x3d8413b1	0.06449068
31	0x3e150e5a	0.14556256
32	0x3eb819c5	0.3595716
33	0x3ec40de8	0.3829186
34	0x3e9681f7	0.2939603
35	0x3c1099bf	0.008825718
36	0x3f2afbd2	0.667905
37	0xbe940571	-0.289104
38	0x3ee18c5e	0.44052404
39	0x3da09e54	0.07842699
40	0xbeee9922	-0.46601206
41	0x3dc65677	0.096844606
42	0xbe42ac27	-0.19010983
43	0xbeb4a690	-0.35283327
44	0xbe853037	-0.26013348
45	0xbeb9f018	-0.3631599
46	0x3edb9d43	0.4289342
47	0xbd15b7a2	-0.03655208
48	0x3f69ee25	0.91379005
49	0xbf8a30f1	-1.0796186
50	0xbf016f5f	-0.50560564
51	0xbf131a9e	-0.5746249
52	0x3f5c8de9	0.8615404
53	0x3e879b26	0.26485556
54	0x3f701756	0.9378561
55	0xbe01d961	-0.1268058
56	0x3ca328b0	0.019916862
57	0x3e5508c9	0.20804133
58	0x3e9d4dc4	0.30723393
59	0x3eb5e845	0.3552877
60	0xbe0c259c	-0.13686222
61	0x3d357250	0.04429847
62	0x3d303ed4	0.043028668
63	0xbf8cd255	-1.1001688

rnn.bias_ih_l0 f4 [8]
0	0x3da3709b	0.07980462
1	0xbe17bfc1	-0.14819242
2	0xbe6cb310	-0.23115182
3	0xbed6299f	-0.4182863
4	0x3dc4e406	0.096138045
5	0x3da1bd27	0.07897406
6	0x3ee2f9ec	0.443313
7	0x3e4e54dd	0.2014956

rnn.bias_hh_l0 f4 [8]
0	0xbdaebd8a	-0.085322455
1	0x3cc4f17c	0.02404093
2	0xbf0dc8d4	-0.55384564
3	0xbf222e9c	-0.6335237
4	0xbdae5a57	-0.08513325
5	0x3dde380f	0.10850536
6	0x3e57528f	0.21027587
7	0x3d98f9aa	0.07469495

rnn.weight_ih_l1 f4 [8, 8]
0	0xbf5943f7	-0.8486933
1	0x3ec56cf4	0.38559687
2	0x3bda2817	0.006657611
3	0x3d6effaa	0.05834929
4	0x3f334fe7	0.70043796
5	0x3e6d6b7a	0.2318553
6	0x3d62ac4c	0.055340096
7	0xbddcfcd8	-0.107904136
8	0xbee90bc2	-0.45516783
9	0x3ec3aa62	0.3821593
10	0xbee36c9b	-0.44418797
11	0xbe3f88fa	-0.18704596
12	0x3fe70322	1.8047831
13	0xbdde3dd5	-0.10851637
14	0x3e91d7fc	0.28485096
15	0xbdfb4978	-0.122698724
16	0xbecbd798	-0.39812922
17	0x3f05db93	0.5228817
18	0x3d3865b5	0.04501887
19	0x3c7ee066	0.01555643
20	0x3e5e1da1	0.2169099
21	0x3e06649e	0.1312432
22	0x3d8ad717	0.067793064
23	0x3c100258	0.008789621
24	0xbed9a8fa	-0.4251173
25	0x3efaff49	0.49022892
26	0xbd3357ec	-0.04378502
27	0xbee5491e	-0.44782346
28	0x3d5eb1d6	0.054368816
29	0xbde676af	-0.11253106
30	0x3ea87a99	0.32906035
31	0xbe2b7f0e	-0.16747686
32	0xbea91527	-0.3302395
33	0x3e4c9fa2	0.1998277
34	0xbe4c8f18	-0.19976461
35	0x3d94108a	0.07229717
36	0xbef96111	-0.48706868
37	0x3d4caf36	0.04997178
38	0xbee25903	-0.44208536
39	0x3dcbc919	0.09950466
40	0xbfb08b58	-1.3792524
41	0x3f863397	1.0484494
42	0xbeaf45c4	-0.34232914
43	0xbe7c5678	-0.2464236
44	0x400895e4	2.1341486
45	0x3e8dd96b	0.2770494
46	0xbe8f846e	-0.28030723
47	0x3e52f219	0.20600165
48	0xbfa37fa7	-1.2773331
49	0x3f2fd8bd	0.6869009
50	0xbf51a1af	-0.81887335
51	0x3f669a8f	0.9007959
52	0x3fa065b9	1.2531043
53	0x3e16a741	0.1471224
54	0xbdfc6bfe	-0.123252854
55	0x3e1dd7c0	0.15414333
56	0xbff3444f	-1.9005221
57	0x3f0462ef	0.5171346
58	0xc0000295	-2.0001576
59	0xbe60da7b	-0.21958344
60	0x402fb9e5	2.745721
61	0xbd76fda4	-0.060300484
62	0xbeb32b5a	-0.34994012
63	0x3f19b241	0.6003762

rnn.weight_hh_l1 f4 [8, 8]
0	0x3db1e289	0.08685786
1	0x3ee5968b	0.44841418
2	0x3ea607df	0.3242788
3	0xbf5b1f8b	-0.85595006
4	0xbf1f93e2	-0.62335026
5	0x3e90f9f7	0.28315708
6	0xbdb9046a	-0.09034045
7	0x3eb5bb1e	0.35494322
8	0x3f2ecfb2	0.6828567
9	0x3e8c71a8	0.27430463
10	0x3dde9936	0.108690664
11	0xbf43a399	-0.76421505
12	0xbf83e0de	-1.0302999
13	0xbf036703	-0.5132906
14	0x3e70e20a	0.23523727
15	0x3d3c424c	0.045961663
16	0x3f094315	0.53617984
17	0x3e4aabfd	0.19792171
18	0x3f1b73d9	0.60723644
19	0xbe2da890	-0.16958833
20	0xbf4e9f16	-0.80711496
21	0x3e046f8d	0.12933178
22	0xbdf12fa1	-0.117766626
23	0xbea98941	-0.3311253
24	0x3c04c903	0.008104566
25	0xbec0c7c7	-0.37652418
26	0xbed9d835	-0.42547765
27	0x3e40571b	0.18783228
28	0x3e82ce64	0.2554809
29	0x3e5db02d	0.21649237
30	0x3f07df23	0.53074855
31	0x3e9628d5	0.29328027
32	0xbec5027a	-0.38478452
33	0xbddeb7d5	-0.10874907
34	0xbf0f3cd0	-0.5595217
35	0x3ee92525	0.45536152
36	0x3e6dec15	0.2323459
37	0x3eafda60	0.34346294
38	0x3e8075e9	0.25089958
39	0x3e89216e	0.26783317
40	0x3e220cd1	0.15825202
41	0xbe7bbb9f	-0.2458329
42	0x3e83cab8	0.257406
43	0xbde8445e	-0.11341165
44	0x3e2b1010	0.16705346
45	0x3e0bf4bd	0.13667579
46	0x3f82fb65	1.023297
47	0xbdd5e878	-0.104447305
48	0x3ed9d334	0.42543948
49	0x3e5b8894	0.21438819
50	0x3ec3bcef	0.38230082
51	0x3d8ec93e	0.06971978
52	0x3ec5e383	0.3865014
53	0x3e6bafbf	0.2301626
54	0x3eae1d06	0.34006518
55	0x3ce25748	0.02762951
56	0xbe1aecbc	-0.1512937
57	0x3ea02b23	0.3128291
58	0xbd68fa79	-0.056879494
59	0x3f857084	1.0424962
60	0xbf5b13be	-0.85577
61	0x3f456349	0.7710462
62	0x3f97f723	1.1872295
63	0xbcb5bd0a	-0.022184867

rnn.bias_ih_l1 f4 [8]
0	0x3e00c427	0.12574826
1	0x3f346ffc	0.70483375
2	0xbf100347	-0.56255
3	0x3d12f088	0.03587392
4	0xbea94f65	-0.33068386
5	0xbea1cc78	-0.3160131
6	0xbdc90a4a	-0.098164156
7	0x3e8dc16e	0.27686638

rnn.bias_hh_l1 f4 [8]
0	0xbda842cc	-0.082158655
1	0x3eebdaf5	0.46065488
2	0xbf23cff4	-0.63989186
3	0xbd6a672a	-0.05722729
4	0xbd941cf0	-0.07232082
5	0xbecbdf53	-0.3981882
6	0xbc9cfad1	-0.019162567
7	0x3e22ec79	0.1591052

fc.weight f4 [2, 8]
0	0x3be066ed	0.006848207
1	0x3e696c00	0.22795105
2	0x3ecf7a52	0.4052301
3	0x3d400ce5	0.046887297
4	0xbe0713ab	-0.13191096
5	0x3c115245	0.008869712
6	0xbdc424af	-0.09577309
7	0xbe0ab881	-0.13546945
8	0xbfc0c8b1	-1.5061246
9	0xbfb74d96	-1.4320552
10	0xbfef9bd5	-1.8719431
11	0xbfe6e470	-1.8038464
12	0xbf4bc253	-0.7959339
13	0xbfef9d45	-1.871987
14	0xbff9655c	-1.9484057
15	0xbfe30256	-1.7735088

fc.bias f4 [2]
0	0x3de5a720	0.11213517
1	0x3e9789ad	0.29597226
