weight/train_direct_dict_batch_20_epoch_200.pt (torch, 2851 bytes, 10 tensors)

rnn.weight_ih_l0 f4 [8, 1]
00000000: 370b 4ebf 264f 51be 5133 94bf 891c 77be
00000010: daef 093f f422 a13f 3d3e dd3e efee 93bf
-0.8048586 -0.20440349 -1.157816 -0.24131979 0.5388161 1.2588792 0.43211547 -1.1557292

rnn.weight_hh_l0 f4 [8, 8]
00000000: 1487 92be 30dd 60be 5138 15bf e29f 23be
00000010: 5d4d 443e f8ac ba3e b71b 8f3e 89c4 a8be
00000020: b177 343f 0106 5a3f c992 0f3f 53e7 253f
00000030: 891c ba3e 67b1 21bf 2362 b5be 72db 923a
00000040: 6e85 253f 1fe9 143f 39c5 3dbf 7988 1bbe
00000050: 4478 2f3e c530 e33d 96cd cc3d babe b9be
00000060: a7b0 4d3e 53da f23d e4e4 143f 64b7 093f
00000070: 304e adbe 93c7 a3be be55 43bf cd65 8e3e
00000080: 4be0 debc f8e6 5b3b 2998 d5bd 79f9 57be
00000090: e49e a7bc 1f97 353d 80e7 ba3e 469b 4cbd
000000a0: 3214 df3e a4b6 bb3e 95b3 2abe 80b8 973e
000000b0: 239d 17be ed0d 243c ef70 3fbe 187f 03bf
000000c0: 44ab 76be 4ee8 a4be c3c7 dbbd cb80 67bd
000000d0: b0c9 a43e 79d4 593e bcc9 5cbe 2c02 b13d
000000e0: ed32 5ebf 7e9d 74bf 3dd4 d43e 3c73 533c
000000f0: bbf4 ab3d 9996 cc3e 4053 2a3e d46d a5bd
-0.2861868 -0.21959376 -0.58289057 -0.15978959 0.19170137 0.3646009 0.27950832 -0.32962444
0.70495135 0.8516541 0.5608335 0.648061 0.36349896 -0.6316132 -0.35426435 0.0011204316
0.6465672 0.58168215 -0.7412906 -0.15188779 0.17135721 0.110932864 0.1000015 -0.36278325
0.20086919 0.11858048 0.5816176 0.53795457 -0.33848715 -0.319882 -0.7630271 0.27812043
-0.02720656 0.0033554416 -0.10429413 -0.2109126 -0.020461507 0.044333573 0.36504745 -0.049952768
0.43570095 0.3666278 -0.16670068 0.2963295 -0.14806037 0.010013086 -0.18695424 -0.51365805
-0.2408877 -0.32208484 -0.10731461 -0.05651931 0.32185125 0.21272458 -0.2156133 0.086429924
-0.86796457 -0.95552814 0.41568175 0.012905892 0.08396288 0.39958647 0.1663332 -0.08077589

rnn.bias_ih_l0 f4 [8]
00000000: aee8 c3be aa7e 1e3e d902 90bf 4dd1 663c
00000010: fdb9 0d3f 59f9 113f 2585 1d3f 6edc 18bf
-0.38263458 0.15478006 -1.1250869 0.014087987 0.5536192 0.570211 0.6153129 -0.5971135

rnn.bias_hh_l0 f4 [8]
00000000: febb 07bf ea70 92be 4798 8fbf 198b 8cbe
00000010: fbff d83e 8b18 643f e272 b33e e5ac c2be
-0.5302123 -0.28601772 -1.1218346 -0.27449873 0.42382798 0.8909995 0.35048586 -0.38022533

rnn.weight_ih_l1 f4 [8, 8]
00000000: 37bd a93f 20d5 99be bc23 423f ec92 653c
00000010: 6d7a 62be 2a6b a5be 765e 2dbe 4c6f 3c3f
00000020: 909d a0c0 2086 d33e 889c 01bf 9138 1dbf
00000030: a941 363e 0324 6040 f8a5 5c3f 4d13 7bc0
00000040: c378 6abf 3c2c 49be d0ef 54bf 58e8 febe
00000050: d625 8b3e abb0 063f 0d9b 173f b5eb bdbe
00000060: ac04 d03f ea9b 9e3d 61ac a840 6ce9 8ebc
00000070: 150c 6fbf 837f 5cbf 1a2c 16c0 f2e8 8ebf
00000080: a312 d8be efea 013e 2368 e5bd 3cbb f03d
00000090: a3b6 f4be d825 5fbd bb7e 77be 2ab6 72be
000000a0: 9dd3 8a40 6369 37bf 97c5 5f3f 8e0f 103e
000000b0: 4c18 0abf 83b4 eabf a7c5 74be fe1f 9040
000000c0: 35f2 ed40 c87f ccbe 397a 713f 20a6 583d
000000d0: bf5d 95be a97b ccbf fb51 c6be f4b1 a340
000000e0: 73b4 873e e6be 063f 9304 553f 8e67 8a3e
000000f0: 60dc 19be a9d1 073e 47f7 563e ec7b 2bbe
1.3260869 -0.30045414 0.75835776 0.01401208 -0.22117014 -0.32308322 -0.16930565 0.73607326
-5.0192337 0.41313267 -0.5062947 -0.6141444 0.17798485 3.502198 0.8619075 -3.923053
-0.9159052 -0.1964578 -0.83178425 -0.4978664 0.27177304 0.52613324 0.59220964 -0.37093893
1.6251426 0.07744582 5.2710423 -0.017445289 -0.9337781 -0.8613207 -2.3464417 -1.1164839
-0.4220172 0.12687276 -0.11201503 0.11754462 -0.4779559 -0.05447945 -0.24169438 -0.23702303
4.3383317 -0.7164518 0.87410873 0.14068434 -0.53943324 -1.8336338 -0.23903523 4.5039053
7.4358163 -0.3994124 0.9432712 0.052892804 -0.29173085 -1.5975238 -0.3873442 5.115473
0.2650486 0.5263504 0.83210105 0.2703213 -0.15025473 0.13263573 0.20992766 -0.16746491

rnn.weight_hh_l1 f4 [8, 8]
00000000: 9bcd 033f 4aec c2bc 323f 8cbf dc7d 4a3e
00000010: aa7b 31be 201b 7c3d 972f 1abe 2625 4abe
00000020: 4b84 763e 2bb3 00bf 6b2f 9fbe a274 a8be
00000030: 8f27 1ebe 6590 c03c 862d c63d 2e27 043f
00000040: 0164 e6be d933 9e3d 0541 d13e c46c 34be
00000050: 5a3f 063e ac5c 16bb 2625 66bd de1f f8be
00000060: d934 66bf 8726 04bf 1120 133f 54e3 cdbe
00000070: d7b8 c93d e1e5 ee3d 20dd c0bd 3c12 62be
00000080: 86d7 09be fccb 6e3e 7229 eb3e c330 3f3e
00000090: 9df4 45be 46d8 b6bc 3052 2dbe ae31 00bf
000000a0: 1d2f 14bf 1908 813f 8b81 093e 3a57 d3be
000000b0: 58e9 bb3e 6ba2 bebe b5d8 783e e075 90be
000000c0: 6944 4ebc 68ec 2c3f def6 073e 2ecf dc3e
000000d0: 054c 0d3f 3f45 5cbd a440 a4be f482 aa3e
000000e0: f1f5 503e 57e4 6ebe aabf e9be 7643 be3d
000000f0: 0e4f 45bd 9111 9b3d 24d9 1f3e 5017 1a3f
0.51485604 -0.023794312 -1.0956786 0.19774574 -0.1733233 0.061549306 -0.15057217 -0.19740734
0.24073903 -0.5027339 -0.31090865 -0.32901484 -0.15444778 0.023506353 0.09676652 0.51622283
-0.44998172 0.07724733 0.40869918 -0.17619616 0.13110104 -0.002294342 -0.05618777 -0.48461813
-0.8992439 -0.5162129 0.57470804 -0.402125 0.098497085 0.1166494 -0.09417176 -0.22077268
-0.13461122 0.23320001 0.45930058 0.18670945 -0.19331594 -0.022319924 -0.16925883 -0.50075805
-0.5788439 1.0080596 0.13428323 -0.41277486 0.36701465 -0.3723329 0.24301417 -0.2821493
-0.012589552 0.6754823 0.13277766 0.43126816 0.5519412 -0.053776976 -0.32080567 0.33303034
0.20406319 -0.23329292 -0.4565404 0.09290211 -0.048171096 0.0757171 0.15610176 0.6019182

rnn.bias_ih_l1 f4 [8]
00000000: f217 13bf d20d 0f3e 27d0 c93e 1689 01bf
00000010: bbc3 70be 7abd 9bbd b52a a5be c677 06bd
-0.5745841 0.13970116 0.3941662 -0.505998 -0.23512165 -0.07604499 -0.32259145 -0.03282907

rnn.bias_hh_l1 f4 [8]
00000000: 1b84 b7be 61c4 a03e 2dac ac3e c427 7abf
00000010: f295 a4bd 1701 97bd adeb 953d 9721 bb3d
-0.35842976 0.31399825 0.3372511 -0.9771693 -0.08036412 -0.07373255 0.07320342 0.09137266

fc.weight f4 [2, 8]
00000000: 5c3c 65be 14bb 7f3c 10aa cf3d 3be1 48bd
00000010: 894e d7bd 4c47 93bd 3b5e 2d3d a7cc 56be
00000020: 4b20 063f 5084 ac3f 3816 063f fea6 2cc0
00000030: e1fc 66be ed57 4ebf 2feb 76bf fbe8 1e3e
-0.22386307 0.015608568 0.10139859 -0.04904292 -0.10513026 -0.07191333 0.042326193 -0.20976506
0.52393025 1.3477879 0.52377653 -2.6976924 -0.22557403 -0.80602914 -0.9645261 0.15518562

fc.bias f4 [2]
00000000: e987 4bbe 2cac 953e
-0.19876064 0.2923292
