weight/train_direct_dict_real_batch_20_epoch_200_loss123.pt (torch, 2851 bytes, 10 tensors)

rnn.weight_ih_l0 f4 [8, 1]
00000000: 4bc5 bb3e 95b7 513e 4d5e 10bf bde1 933e
00000010: 605f 02be bb5c f1be 3bd5 8f3f 9b5b b43e
0.3667396 0.20480187 -0.5639389 0.28883162 -0.12731695 -0.4714106 1.1236948 0.3522614

rnn.weight_hh_l0 f4 [8, 8]
00000000: 83a3 9c3d 62f5 1a3d 7be4 a43c 6846 113e
00000010: 4db9 f63d 16fa 49be fade 5c3d 90a9 0cbd
00000020: 300e 923c 1cde 81be f415 2f3d 6b2b 893d
00000030: 2850 92be 0d9f c73d e6ce 53bd a40c 56bd
00000040: b90c d9be a408 2bbe 677a 713e 8c35 5d3a
00000050: 1f05 cdbe 02d8 913f 0842 923e 4a57 07bf
00000060: 1db1 df3d 8d04 d73c 0eb4 62bd 6861 df3e
00000070: 8379 59be d549 ac3e e70e 933e a80a 6dbe
00000080: 220f 84be 0c12 fabe e16c 523e e047 8dbd
00000090: c689 713e 4c87 47be 2c52 f83d 7ebf 93be
000000a0: d827 783f ed3f e33e 92ba 23be db21 ad3e
000000b0: b5a9 9ebe 48ae 5cbe 508d 1b3e 0861 913c
000000c0: 5d43 b2bf 3a03 1bbf f71a 243f b723 8cbf
000000d0: b2d9 843e 8a39 093e 4933 1fbf 9ab8 f53d
000000e0: 0372 95be 1e51 883d 286b 553f 756b 58bf
000000f0: bef6 1abf 2104 25bf ba2c 73bf 70b3 f13e
0.07648375 0.03783167 0.02012848 0.14187014 0.12047062 -0.19724306 0.053923585 -0.034341395
0.01782903 -0.25364769 0.042745546 0.066977344 -0.2857678 0.097471334 -0.051710986 -0.05225815
-0.4239252 -0.16702515 0.23581849 0.000843846 -0.4004297 1.1394045 0.28566003 -0.5286757
0.109224536 0.026247287 -0.055347495 0.43629003 -0.2123776 0.3365008 0.28722307 -0.23148596
-0.25792795 -0.48841894 0.20549347 -0.06898475 0.23587713 -0.19485205 0.12125048 -0.28857034
0.96935797 0.4438471 -0.1598914 0.33814892 -0.3098885 -0.21550858 0.15190625 0.017746463
-1.3926808 -0.605518 0.64103645 -1.0948399 0.25947338 0.13400856 -0.6218763 0.119981006
-0.29188547 0.06656097 0.8336663 -0.84538966 -0.6053275 -0.64459425 -0.9499012 0.47207212

rnn.bias_ih_l0 f4 [8]
00000000: dd2c ca3e 889d 713e 6fe3 edbd f40e a6bc
00000010: 296a 76be 87d1 e2be d065 043f 8be5 de3d
0.39487353 0.2359525 -0.11615645 -0.020270802 -0.24063934 -0.44300482 0.51717854 0.108836256

rnn.bias_hh_l0 f4 [8]
00000000: 398a 243f 873a a5bb 7cc5 ef3e eade 8abe
00000010: 5f41 a7be 196e ecbe 9e3b 983e f906 8a3c
0.6427341 -0.0050423774 0.46830356 -0.27123195 -0.32667062 -0.46177748 0.29732984 0.016849028

rnn.weight_ih_l1 f4 [8, 8]
00000000: 54ac 9a3f 1790 9f3e 8f47 b4bf 22f3 cbbe
00000010: d0d7 333f 4e13 20c0 8732 f43f 1166 d43e
00000020: b19e e73f b335 35be 3315 8d3f 7984 5e3e
00000030: 65e6 c9bf 3e52 373f fcf5 b8bf 612b 9e3e
00000040: 4f83 683e af8e 19bf 2fd8 583f a6e0 08bf
00000050: 3d1b 95bf d64d 943f 695f babe 59c3 0ebf
00000060: 4317 c83e 373d fa3d f063 25bf 136f 1a3f
00000070: 2a18 5ebf b6d8 4a3d 01f4 ff3d 8b15 02be
00000080: f356 d13f b473 dc3e 5c02 45bf 6dd3 9b3e
00000090: d8d7 ebbe 9230 c1be 8ed7 1540 8ad4 d33f
000000a0: 29ca f1be 6ab2 99be e5a4 a1be bde4 293e
000000b0: a42d 94bf 0a52 26c0 7bdd 1540 8e57 833d
000000c0: e1de 4bbf f167 28be 6483 a63d 6282 4abf
000000d0: 872f 553f 22be 503f d72c 8a3f a05e 593c
000000e0: 5fef aa3f 3c43 27bf 64a5 50bf 1369 a2be
000000f0: 4844 3abf 55b3 9ebf 4803 4c40 64de 31c0
1.208384 0.3116462 -1.4084338 -0.39833933 0.7025118 -2.5011783 1.907792 0.4148412
1.8095304 -0.17696266 1.1022094 0.21730222 -1.5773436 0.71609867 -1.4450068 0.3089247
0.2270634 -0.5998334 0.8470487 -0.53467786 -1.1648937 1.1586254 -0.36400917 -0.55766827
0.39080247 0.12218707 -0.6460562 0.60325736 -0.8675562 0.049523078 0.12497712 -0.1270353
1.635466 0.43057024 -0.76956725 0.30434743 -0.46063113 -0.3773237 2.3412814 1.6549237
-0.47224548 -0.30018932 -0.31571117 0.16591163 -1.1576428 -2.5987573 2.341643 0.06413184
-0.7963696 -0.164459 0.081305295 -0.791052 0.83275646 0.8154012 1.0794934 0.013267189
1.33543 -0.65336967 -0.81502366 -0.3172079 -0.7276044 -1.2398478 3.1877003 -2.7791986

rnn.weight_hh_l1 f4 [8, 8]
00000000: 9c1d bbbe 3001 a83e 639e 533f 1a9f 103f
00000010: 2fe4 42be eed5 173f be9a 713e 8944 0dbf
00000020: e330 babf 9648 a0bd 9f14 34bd cb9f e93e
00000030: 4857 e43e a2e0 0d3f a8f8 d73e 803b 6ebf
00000040: caed 9fbe e379 e0bd eb50 5b3f 2421 dfbe
00000050: 4566 1f3f 1706 e6be 53ae 143f 8ec8 16bf
00000060: 8df1 84bf a1e9 c3bd 7881 c1bf c470 f63d
00000070: 676a 7c3e 47d2 883f 88fb d1be a379 8ebf
00000080: 1857 65bf 633f d83e 8a3d 7c3f 8703 99be
00000090: 2464 50be e4f9 023f 7924 7bbf 5433 cfbe
000000a0: f5d0 65bf dcd8 2c3e 7157 86bf 770e c93d
000000b0: 0a08 853f 679f 3b3f 605c 14bf 33e2 90bf
000000c0: 56df 433e 66a9 7dbc d770 83be 3f2a e7bd
000000d0: 9959 f73b 5285 3cbe 6837 3e3e 8f82 093e
000000e0: 4834 39bf 7305 153e ce00 bcbd 299a f6bd
000000f0: deab 5f3e 20c0 343f 6334 8d3e 0f70 93bf
-0.36546028 0.32813406 0.82663554 0.5649277 -0.19032358 0.59310806 0.23594186 -0.551827
-1.4546169 -0.07826345 -0.04396498 0.45629725 0.4459784 0.5542089 0.42181897 -0.9305954
-0.31236106 -0.10960748 0.85670346 -0.43579972 0.62265426 -0.4492652 0.580785 -0.5889977
-1.0386215 -0.095660456 -1.5117636 0.12033227 0.24649964 1.0689172 -0.41012216 -1.113087
-0.8958602 0.4223586 0.985314 -0.29885504 -0.203507 0.5116255 -0.9810253 -0.40468848
-0.8977197 0.168796 -1.0495435 0.09817212 1.0393078 0.73290104 -0.57953453 -1.131903
0.19128165 -0.015482282 -0.25672027 -0.11287355 0.0075485227 -0.18410233 0.18575823 0.1342871
-0.723454 0.1455286 -0.09179841 -0.120411225 0.21842906 0.7060566 0.2757903 -1.1518573

rnn.bias_ih_l1 f4 [8]
00000000: 249c d73d 2b66 683e 79b3 b03e 67bd f73e
00000010: c8f5 fc3e 2553 41be e1b7 f1bd 4c82 963f
0.10527828 0.22695224 0.34511927 0.4838669 0.49406266 -0.18879373 -0.1180265 1.1758513

rnn.bias_hh_l1 f4 [8]
00000000: 1e87 30bc 6094 5cbe 0230 2a3f 90c5 033e
00000010: c44a 633d 3e89 24bc bad7 2f3e 8bcf 903f
-0.010774402 -0.21540976 0.66479504 0.12868333 0.055491224 -0.010042487 0.17172137 1.1313337

fc.weight f4 [2, 8]
00000000: cda0 1c3e a5d9 2ebc 7b39 7abe a4b2 463e
00000010: 9d27 933f 1c2b 4ebf c081 b4bf 1ca0 583f
00000020: bd21 3d41 8baf 8ec0 6cbc fabf 8f6a b5c0
00000030: 22e9 9ac0 dff0 cbc0 c49a 9740 71f4 3141
0.15295716 -0.010672008 -0.2443599 0.19404083 1.1496464 -0.8053453 -1.4102097 0.8461931
11.820737 -4.4589286 -1.9588752 -5.6692576 -4.8409586 -6.373153 4.7376423 11.122178

fc.bias f4 [2]
00000000: 559b 8cbf 9983 293f
-1.0984904 0.6621643
